models/0.pth (torch_old, 2645 bytes, 4 tensors)

net.0.weight f4 [64, 4]
000000 5a 5c 4b 3e 12 a6 0c 3e ce 84 98 3c 06 8f 63 be
       0.19859448 0.13735226 0.018618014 -0.22222528
000010 2c 06 7b 3e 4f c2 bb 3e 69 aa ed bd bb 78 a7 bd
       0.24514073 0.36671683 -0.11604769 -0.081773244
000020 cd 87 f0 be d9 6a f9 ba fc 25 b3 3d 1e b6 11 3e
       -0.46978608 -0.0019029035 0.08747479 0.14229628
000030 6d ec cf 3e d7 ca 9e be 0a 07 1a 3e d5 95 ee bd
       0.40610066 -0.3101413 0.15041748 -0.11649672
000040 b5 15 1f bc ad dd e0 3e de 6b 31 3e 5a 29 3a bc
       -0.009709765 0.43919125 0.17326304 -0.011362398
000050 1e 0b c1 bd 6e 4a 61 3e a7 09 19 3e 65 e7 fe be
       -0.094259486 0.22001049 0.14945088 -0.49785915
000060 f9 10 f9 be 05 71 87 bd 5c 16 bb bd 73 7c bb be
       -0.48645762 -0.06613354 -0.09135124 -0.36618385
000070 b2 66 29 3e 4f b0 b2 be 4b a2 df be 1b 0e b4 3d
       0.16543081 -0.34900138 -0.43678507 0.08791753
000080 b6 31 d7 3b e3 54 bc be c9 49 5e be 9a 3a 4c be
       0.0065672053 -0.36783513 -0.21707834 -0.1994423
000090 06 8e 17 be 4f b1 c1 be 1f 12 b1 be ed 40 87 3e
       -0.14800271 -0.37830588 -0.34584138 0.26416722
0000a0 4f cc ca be be 6a 70 3e 82 f4 66 be 66 18 22 bb
       -0.39609 0.23478219 -0.2255421 -0.002473378
0000b0 1f cb c0 be 8c 06 a5 bd 3a ed 6f 3e f2 20 3f 3e
       -0.3765497 -0.08057889 0.23430339 0.18664911
0000c0 af 9d f2 be ff 9a da be 60 b8 c7 3e 99 eb fd be
       -0.47385928 -0.42696378 0.39007854 -0.4959381
0000d0 eb 34 f5 3e 63 e7 bf be 8d 82 df bd f5 43 c6 bd
       0.47891936 -0.37481222 -0.109135725 -0.096809305
0000e0 49 d0 b5 3e 69 8c f0 be 77 4d 24 3d a5 cd 93 be
       0.3551047 -0.46982124 0.04011294 -0.28867832
0000f0 94 28 a6 bd f3 af d7 3c 2e 1e 3e 3e d5 b7 ac be
       -0.081132084 0.026329016 0.185662 -0.33734003
000100 be ef fb be 66 d0 98 be 38 be 1a be c8 93 d0 3e
       -0.49206346 -0.29846495 -0.15111625 0.40737748
000110 c6 42 29 3e 9d 41 c8 bd f4 c2 c8 bd 73 7e 90 be
       0.16529378 -0.0977814 -0.09802809 -0.28221473
000120 9c a0 8a bd fd 53 be bd 2e 72 59 3e ed 64 e8 3e
       -0.06768915 -0.09293363 0.21234962 0.453895
000130 41 f9 c1 be b5 a2 d8 be bf 9f e7 3e a1 c5 cc be
       -0.37885478 -0.42311636 0.45239064 -0.3999453
000140 a5 2e 5d 3c 63 e9 e7 be 6b db 83 be 4b 25 9b 3d
       0.01349989 -0.45295247 -0.2575334 0.075754724
000150 77 81 98 3e 66 90 67 3c 57 70 b5 bd 22 65 65 be
       0.29786274 0.014133548 -0.08859318 -0.2240186
000160 0e f3 25 be 49 f6 87 be a7 29 a2 3e 5f 22 b8 be
       -0.16206 -0.26555088 0.31672403 -0.35963723
000170 d1 69 fc be b2 88 77 3e 7f 4b 85 3e e7 5d 6c 3d
       -0.49299482 0.24173239 0.2603416 0.05770674
000180 21 b8 aa be 5f 03 c2 3e d0 0f d9 be 06 92 56 3e
       -0.33343604 0.37893197 -0.42394876 0.20954141
000190 3a 16 15 be b1 3d c3 3e d3 fa de be 17 32 df 3e
       -0.1455926 0.38133004 -0.4355074 0.43592903
0001a0 26 09 2d be 99 93 98 3e fe 26 2c 3e 07 b8 ca 3e
       -0.16898021 0.29800108 0.1681175 0.39593527
0001b0 72 93 2f be 52 e6 06 be a1 8d 3e be 95 0e b1 3e
       -0.1714609 -0.13173798 -0.18608715 0.34581438
0001c0 8a db 60 be 0e f7 28 3e 6e d9 9b 3c 13 d5 dd 3d
       -0.21958748 0.16500494 0.019024577 0.10831656
0001d0 67 3d 4c 3d cb b6 ca 3e 22 c3 29 be ce 50 7a be
       0.049863245 0.39592585 -0.16578344 -0.24444887
0001e0 4d 8a 0b 3e ce a2 d6 3a 62 53 30 3e 4b e7 e7 be
       0.13626976 0.0016375424 0.17219308 -0.4529365
0001f0 c1 b5 d6 be 34 01 ef ba b0 a8 c0 be a7 d3 2e 3c
       -0.41935542 -0.0018234611 -0.37628698 0.010670579
000200 2b 4e ae be 07 52 dc 3e bf 73 bc be 2f 0b d3 3e
       -0.34044012 0.43031332 -0.36807057 0.4121947
000210 ce a2 02 be 59 c2 d5 3e 77 89 bf 3e 1e 47 1e be
       -0.12757418 0.41749838 0.37409565 -0.15456817
000220 e2 c4 46 be f1 eb ad be 42 65 29 3e 6a 7a 75 3e
       -0.19411042 -0.33969072 0.16542533 0.23972479
000230 43 bd e1 3e 75 a8 b9 3d b6 30 01 3e 8d 7c dd bd
       0.44089708 0.09065334 0.12616238 -0.10814772
000240 5c ed c3 3d 69 ed f9 be b8 2e 74 bd 98 84 40 bb
       0.09566757 -0.48813942 -0.059614867 -0.0029375907
000250 e1 5d d1 be ba d5 0c 3e 3d 97 86 3e 3f d1 b2 be
       -0.40891936 0.13753405 0.2628726 -0.34925267
000260 d8 1d 54 bd 91 be b9 3e 09 de b8 be 66 38 37 3e
       -0.051786274 0.36278203 -0.361069 0.17892608
000270 06 14 2d be d3 4b dc 3e d2 7b 54 be 96 55 29 3e
       -0.1690217 0.430266 -0.20750359 0.16536555
000280 a1 69 9c be ad d9 af 3c b3 be e9 be a6 c3 2f 3e
       -0.30549338 0.0214661 -0.45653304 0.17164478
000290 f0 63 ef 3c da 97 27 be 7f 0c 90 3e eb b6 fe be
       0.029222459 -0.1636652 0.28134534 -0.4974893
0002a0 e1 83 b7 3e 25 d2 ec 3e 7e d4 12 be d6 b8 09 3e
       0.35842803 0.46254078 -0.14338872 0.13449416
0002b0 ad 18 9a 3e f7 87 f8 3e 8e 97 12 be 8b af fc be
       0.3009695 0.48541233 -0.14315626 -0.4935268
0002c0 f3 60 f0 3d 89 c8 8d be 4a dc 7f be 1a a4 00 3d
       0.117372416 -0.2769206 -0.24986377 0.0314065
0002d0 3f c6 d0 be 2f 8a d0 be 0f 48 d9 3e ba c9 61 bd
       -0.4077625 -0.40730426 0.4243779 -0.055124022
0002e0 f9 66 5f be 5d 35 a1 3e 42 63 9e 3e fe 07 6b be
       -0.21816625 0.31486025 0.30935103 -0.22952268
0002f0 82 bd 4c be 5f 60 99 be d2 83 63 be 9e 57 6e 3e
       -0.19994166 -0.29956338 -0.22218254 0.23275611
000300 2d d0 96 be 2b 68 e5 be 2f f9 69 3e 46 b6 4a 3e
       -0.294557 -0.44806036 0.22848962 0.19796094
000310 c1 a0 5d 3e b5 92 ea 3d 17 18 da be 81 b1 85 be
       0.21643354 0.114537634 -0.42596504 -0.26111987
000320 4d 1e cf be d1 ae b3 3e b4 a6 df be 0d 39 89 3d
       -0.40452805 0.35094312 -0.43681872 0.06700335
000330 c7 29 4d bd 9d d1 d9 be 75 1b 88 3e d9 9e 3a bd
       -0.05008867 -0.42542735 0.26583448 -0.045561645
000340 c2 54 55 3e 95 dd 8b be ea 06 3a be 86 95 56 be
       0.20833114 -0.2731749 -0.181667 -0.20955476
000350 05 ec e1 be eb 3a 86 3d 55 2d d1 3d 9b 7e a5 3e
       -0.4412538 0.065542065 0.102137245 0.32323155
000360 15 66 d9 3e 5b 53 f3 bd 53 9f 9d be ea d9 23 3e
       0.42460695 -0.11881133 -0.30785617 0.16001096
000370 05 e2 ba 3e 93 62 a4 3e a7 e0 10 bd 7b 10 a5 3d
       0.36500564 0.32106456 -0.035370495 0.08059784
000380 ff 7a f9 3e b3 98 e1 bc e6 50 f4 be d3 b3 aa be
       0.4872665 -0.027538633 -0.4771797 -0.3334032
000390 ba 86 83 3b b9 63 df be e9 f0 d4 3e 4a a5 6a be
       0.0040138634 -0.4363077 0.4159005 -0.22914615
0003a0 48 4f bf 3e e9 86 b4 be 7b 17 ac be dd 78 fc 3d
       0.37365174 -0.35259178 -0.33611664 0.1232774
0003b0 e7 30 b7 3e cd bc dc bb b0 4b d1 bc de bd 17 3e
       0.35779497 -0.006736374 -0.025548786 0.14818522
0003c0 27 34 85 3e f3 92 c1 bc f9 a6 ea be 9b 58 e6 3e
       0.26016352 -0.023629641 -0.45830515 0.44989476
0003d0 27 3e 82 be 8f ff bb be bf 3d e7 3e f3 af fe be
       -0.25438043 -0.36718413 0.45164296 -0.49743614
0003e0 27 3c 30 bd 25 1b e1 3e 35 58 e4 3e b2 ad 25 be
       -0.043026116 0.43966022 0.44598547 -0.16179541
0003f0 e9 6d b6 be a9 e3 de be ae c8 12 be cd 5e fe bc
       -0.3563073 -0.43533066 -0.14334366 -0.031051064

net.0.bias f4 [64]
000000 4d ab be be 81 9a e5 be 25 8b a8 be 3a 10 03 3e
       -0.37240067 -0.4484444 -0.3291866 0.12799159
000010 55 d4 e5 be d7 b0 a6 3e 9a 42 1d bd f1 6f a5 3e
       -0.4488856 0.32556793 -0.038393594 0.32311967
000020 cf 68 fb 3e 9a af 06 3b cd c8 9f bd 0b 4b db bd
       0.491034 0.0020551444 -0.078019716 -0.10707673
000030 eb 2f 9e 3e 9d 12 ab 3d a6 90 1e be da d8 07 3e
       0.30895934 0.083531596 -0.15484866 0.13266316
000040 6d ca ff bc d2 fe 3f be 13 dc 9b be 6a 76 0e 3e
       -0.031224454 -0.1874955 -0.3044134 0.13912359
000050 e7 15 98 3e b5 36 d7 3e 99 ce e2 3e 89 85 9a be
       0.2970421 0.42033926 0.44298247 -0.30180004
000060 17 7b e5 be 4b 28 80 be 6a e5 56 be 87 13 c9 be
       -0.44820473 -0.2503074 -0.20985952 -0.3927271
000070 2a bd 2d 3e 09 63 a8 be f1 65 82 3e 33 ba 98 3c
       0.16966692 -0.32888058 0.254684 0.018643474
000080 06 d5 3a 3e ee 7e 5a 3e 2f 5d 8d be 15 2a a1 3d
       0.18245324 0.21337482 -0.27610156 0.07869355
000090 b2 8f 70 3e ef ee f6 be 25 b2 c1 bd 29 6b b9 be
       0.23492315 -0.48229167 -0.094578065 -0.3621457
0000a0 d5 54 a3 be da a8 41 3d 15 e5 99 be 57 c7 e5 3e
       -0.3190066 0.04728017 -0.30057588 0.44878647
0000b0 17 b4 bf 3e e6 87 61 bd 6b 5e c4 be 0a c6 38 3e
       0.37442085 -0.055061243 -0.38353285 0.18044296
0000c0 4a bc 76 be f6 4f 10 be f9 69 e0 3e b3 b4 f7 3e
       -0.24095264 -0.14093003 0.4383085 0.4838005
0000d0 93 e6 f8 be c5 f9 c4 3d bd aa a1 3d e2 eb 4d be
       -0.48613414 0.09617952 0.07893894 -0.20109513
0000e0 d8 77 a8 bc 2e d5 73 3e 5b a3 ce 3e b3 e6 fa be
       -0.020564958 0.2381179 0.40359005 -0.49004135
0000f0 5f 01 9b 3e e7 31 bc be 77 1e 98 3e 6d 0f d1 3e
       0.30274484 -0.36756822 0.29710743 0.4083208

net.2.weight f4 [2, 64]
000000 0d 72 b4 3d b6 6c e8 ba 2d 28 83 3d c7 95 f2 bd
       0.08810816 -0.0017732594 0.06404147 -0.11844974
000010 02 bd 73 3d 62 da 2b 3d 0a b8 36 bd 05 dc 8b 3d
       0.059506424 0.041956313 -0.044609107 0.06829075
000020 07 bb b1 bd bd 39 b1 bd 26 99 21 bd 97 39 bd 3d
       -0.08678251 -0.08653591 -0.039452694 0.092395
000030 82 06 78 3d 39 e1 df 3d 4f c4 e1 3d 19 19 79 bc
       0.06055308 0.1093163 0.11023771 -0.015203738
000040 37 cf 5d 3c 9a 61 15 3d e9 04 18 3c be d5 77 bd
       0.013538173 0.036470033 0.009278514 -0.060506575
000050 a7 b4 dc 3d 02 9f 44 bd 8d 7a d2 bd c1 d4 a2 bd
       0.10776644 -0.048003204 -0.10277281 -0.07950736
000060 eb 85 c7 bd 43 87 ce 3d 9f 3c cd bd 85 23 94 3d
       -0.0974234 0.10084393 -0.10021328 0.07233337
000070 63 cf ff 3d c1 69 ea bd ab 01 85 3d 45 4f bb 3d
       0.12490728 -0.11445952 0.06494459 0.09145979
000080 1a 47 50 bd 35 8a d6 bd 29 c6 ce bd 2b ed d4 3d
       -0.050849058 -0.1047558 -0.1009639 0.10396799
000090 35 59 80 3d 32 ec f4 3b 79 14 d8 bd 83 10 fc bd
       0.06267015 0.0074744457 -0.1055078 -0.12307837
0000a0 c3 2f e6 3d a9 1d 90 bd 25 f1 49 3b f5 75 b1 bd
       0.112395786 -0.07036907 0.00308139 -0.08665077
0000b0 a3 b0 d9 3d 19 74 20 bb dc 6f 2a bb 33 af fa bd
       0.10629394 -0.0024483262 -0.0026006615 -0.12240448
0000c0 41 eb 9f bd 45 32 82 bd 93 8a ce 3d 3b 84 ae bd
       -0.07808543 -0.063572444 0.10085025 -0.08521315
0000d0 2b 07 8d 3d 81 8b 9b 3d 0d bd d3 bc 4a 3a d1 3a
       0.06886133 0.07594968 -0.025846982 0.0015962806
0000e0 89 3b d6 3d 0a 66 11 bd 56 15 4d 3d db 7f 6a bb
       0.10460574 -0.035497703 0.050069176 -0.0035781774
0000f0 d2 2a fb bb 0e de 2c bd 1b ca 0d 3b f7 07 a8 3d
       -0.0076650167 -0.042203955 0.0021635357 0.08204644
000100 1a 76 7e 3d 37 65 33 bc df 14 89 3d 0a 53 23 3d
       0.06212435 -0.0109494245 0.06693434 0.039874114
000110 fa 6e 21 bd 4e 4c fe 3b 13 55 f2 bd 2b 25 f0 3c
       -0.039412476 0.007760561 -0.11832633 0.029314598
000120 37 62 a4 3d 51 9b f0 3d 43 87 db bd 46 ac 2e 3d
       0.080265455 0.11748374 -0.107191585 0.04264476
000130 09 a3 18 bc 03 f6 d4 3d 5e f7 46 3d 6b 71 fc 3d
       -0.009316214 0.103984855 0.04857575 0.1232632
000140 72 73 a7 3b 5f cc 98 bd dd 82 f2 bd c5 70 f2 bd
       0.0051101977 -0.07460856 -0.118413664 -0.11837915
000150 b3 e9 e2 3d 60 72 c3 b7 da 45 3a 3d 97 b6 7e bc
       0.11079731 -2.3299071e-05 0.045476772 -0.0155464625
000160 a2 73 3d 3d 5d ac bc 3c 91 24 e1 3d 49 b1 58 3c
       0.046252854 0.023031408 0.109933026 0.013225862
000170 e9 9c db 3d 21 ad d2 bd 35 2d f6 bc 1f a3 76 bd
       0.107232876 -0.10286928 -0.030050853 -0.06021416
000180 52 89 24 bd 07 a7 e2 3d 13 37 dc bc 77 f9 c7 3d
       -0.04017002 0.11067014 -0.02688173 0.097643785
000190 b2 2f 55 3d 11 5b 8a 3d c3 68 9d bc a3 cd 9d bd
       0.05204744 0.06755651 -0.019214993 -0.07705238
0001a0 86 10 29 3d 3b d3 b1 3d 02 f1 18 3d 4f 57 8c bd
       0.041275524 0.08682867 0.037339218 -0.0685259
0001b0 5d 63 f8 bc e1 03 f7 3d 07 87 4a bc 50 c7 f7 3a
       -0.030320818 0.12061287 -0.012361295 0.0018904004
0001c0 ce da 0e 3d 2a 5e 60 3d 2b c2 97 bd 07 72 41 3c
       0.034876637 0.0547773 -0.074100815 0.011806971
0001d0 5e d6 6e 3d b3 f8 86 bc e3 d1 78 3d 5a 9d 29 3d
       0.058309905 -0.01647601 0.06074704 0.041409828
0001e0 39 ea d1 bd 75 b8 a0 bd 29 2a 13 bc 69 5e d3 bd
       -0.102497526 -0.078476824 -0.00898222 -0.10320742
0001f0 41 74 c8 bd 6b 97 a7 bd fe cf 4a bd a3 c4 f9 bd
       -0.09787799 -0.081831776 -0.049514763 -0.121957086

net.2.bias f4 [2]
000000 58 4e 00 3e 29 cf 03 bc
       0.12529886 -0.008044996
