models/10000.pth (torch_old, 2645 bytes, 4 tensors)

net.0.weight f4 [64, 4]
0.3409071 -0.13173884 -0.83669364 -0.42987004 0.4100178 0.110136926 -0.93419987 -0.24706174
-0.6612954 0.038503096 0.70598704 0.24995118 0.37642187 -0.27550066 0.07222713 -0.14153491
-0.041548725 0.22038515 0.30785638 0.16413057 0.009468777 -0.12765421 -0.67927384 -0.44068173
-0.21856524 -0.2091564 -0.6296509 -0.529063 0.1495474 -0.1228195 -0.6784349 -0.13589393
0.25245994 -0.32397443 -1.1050404 -0.51591444 -0.13183826 -0.26887816 -0.24375649 0.24768099
-0.32559785 0.15185404 -0.23008095 0.002960348 -0.37486988 0.023586633 0.26476237 0.10976917
0.023295468 -0.4358953 -0.4296345 -0.65199447 0.5170616 -0.24457198 -0.47397047 -0.27229786
0.4891909 -0.40630215 -0.23259257 -0.49178866 -0.026390515 -0.11242031 -0.29998732 -0.34326512
-0.726828 -0.09783528 0.19290441 0.22587259 0.33839595 -0.2859019 -0.86746156 -0.51684695
-0.15108791 0.22788423 1.034729 0.45713517 -0.5127439 -0.50737745 0.45384714 -0.4049228
-0.07644525 -0.24630232 0.08343382 0.087600805 0.41281053 -0.13712649 -1.0193355 -0.3862758
0.08707728 -0.32421413 -0.39563668 -0.5145294 -0.6836633 0.14593275 1.0344666 0.33671072
-0.39665335 0.27807644 0.22100647 0.46350348 -0.2157635 0.43030027 -0.055320065 0.49281207
-0.29804748 0.36582425 0.8488573 0.5327138 -0.2629706 0.14208119 0.67429376 0.40243953
-0.2651387 0.17434108 0.02099006 0.17169265 0.20952985 -0.021777757 -1.119786 -0.37231207
0.20618367 -0.23352231 -0.63775504 -0.49009785 -0.34165338 0.079066366 -0.57714283 -0.049207024
-0.5948632 0.5153325 0.39683014 0.7064044 -0.06055064 0.27896562 0.14168936 -0.04833036
-0.2749783 -0.108063124 0.84032845 0.21657836 0.72677225 0.12533578 -0.22924061 -0.13841648
0.036827605 -0.3103584 0.12464187 -0.0215661 0.09908862 -0.1997144 -0.9261433 -0.5566372
-0.10643434 0.2608818 -0.111678004 0.27874225 -0.29784355 0.2940256 0.4354655 0.4408628
-0.28378627 0.07419243 -0.30855584 0.14720559 0.06208841 -0.30689698 -0.10530605 -0.47380868
0.52204466 0.34483534 -0.7069299 -0.033369526 0.41289914 0.018253192 -0.7446285 -0.3203964
0.09601857 -0.10790584 -0.46177402 -0.1367182 -0.36949253 -0.3262675 0.5139035 -0.052069396
-0.015577156 0.037647367 -0.36106977 -0.30496353 -0.2117547 -0.13875519 0.020498415 0.2651485
-0.5077273 -0.23128211 0.8640469 0.14323162 0.39798912 -0.23938176 -1.4637637 -0.49914217
-0.29666469 0.31737983 -1.1387458 -0.084501944 -0.19682172 -0.25406644 0.90376663 0.10782358
0.50235 -0.4156738 -1.3367562 -0.6060946 -0.5732442 0.33329585 0.9932027 0.566182
0.40873712 0.026861891 -0.33137327 0.11063681 0.43567088 0.24474218 -0.42365423 -0.07160324
0.47109604 -0.19588435 -0.864105 -0.45029536 0.0048365784 -0.42484644 0.4204051 -0.1913564
0.23144029 -0.13798705 -0.26080716 0.0048416485 0.11814403 0.02464779 0.7367097 0.3160701
-0.12502466 0.2257436 0.34249818 0.59576756 0.20821863 -0.5060056 -0.4304836 -0.7321023
0.016209278 0.27713105 -0.027120182 -0.11297188 -0.5057266 -0.35154182 0.3514227 0.11116386
00000000: 608b ae3e 8ce6 06be 8e31 56bf ed17 dcbe
00000010: daed d13e 788f e13d b927 6fbf c1fd 7cbe
00000020: a84a 29bf 6cb5 1d3d 91bb 343f 34f3 7f3e
00000030: 5eba c03e 6c0e 8dbe d1eb 933d 87ee 10be
00000040: ff2e 2abd a5ac 613e 5a9f 9d3e d811 283e
00000050: ee22 1b3c c9b7 02be e4e4 2dbf 09a1 e1be
00000060: 91cf 5fbe 182d 56be cd30 21bf ac70 07bf
00000070: f422 193e ca88 fbbd e9ad 2dbf c727 0bbe
00000080: 6e42 813e fadf a5be f771 8dbf f812 04bf
00000090: 9c00 07be 66aa 89be 4d9b 79be 16a0 7d3e
000000a0: c3b4 a6be a07f 1b3e 579a 6bbe 6602 423b
000000b0: f2ee bfbe c138 c13c ef8e 873e a9ce e03d
000000c0: 23d6 be3c ab2d dfbe 0ef9 dbbe 1ce9 26bf
000000d0: 265e 043f 1471 7abe 42ac f2be a06a 8bbe
000000e0: 3b77 fa3e d606 d0be bf2c 6ebe b9cb fbbe
000000f0: ec30 d8bc 9f3c e6bd f097 99be 72c0 afbe
00000100: 6611 3abf dd5d c8bd bc88 453e 254b 673e
00000110: 3c42 ad3e bc61 92be f611 5ebf 1550 04bf
00000120: cab6 1abe 7c5a 693e 0072 843f 9f0d ea3e
00000130: 2f43 03bf 7de3 01bf a75e e83e 0b52 cfbe
00000140: 548f 9cbd ad36 7cbe 5adf aa3d 0d68 b33d
00000150: e75b d33e e36a 0cbe 9679 82bf f1c5 c5be
00000160: 9355 b23d 65ff a5be e490 cabe 33b8 03bf
00000170: 8f04 2fbf 656f 153e 6769 843f 5965 ac3e
00000180: 2616 cbbe 0960 8e3e 854f 623e 5450 ed3e
00000190: 1bf1 5cbe 5150 dc3e 4b97 62bd dd51 fc3e
000001a0: ae99 98be 514d bb3e b64e 593f ee5f 083f
000001b0: 15a4 86be bb7d 113e 849e 2c3f 8e0c ce3e
000001c0: 42c0 87be 7886 323e 59f3 ab3c 33d0 2f3e
000001d0: fe8e 563e 4467 b2bc 2655 8fbf b09f bebe
000001e0: d021 533e 7920 6fbe ea43 23bf 1bee fabe
000001f0: 31ed aebe 8ced a13d a2bf 13bf 4e8d 49bd
00000200: f448 18bf d5ec 033f 522d cb3e ebd6 343f
00000210: f303 78bd 95d4 8e3e 0417 113e 0ef6 45bd
00000220: f5c9 8cbe 3350 ddbd c41f 573f b8c6 5d3e
00000230: bf0d 3a3f 0658 003e 0dbe 6abe 0dbd 0dbe
00000240: 8bd8 163d 4ce7 9ebe 3d44 ff3d 64ab b0bc
00000250: f9ee ca3d ef81 4cbe ba17 6dbf c77f 0ebf
00000260: 3ffa d9bd 4d92 853e 70b7 e4bd 4eb7 8e3e
00000270: f37e 98be 868a 963e 56f5 de3e c5b8 e13e
00000280: 6f4c 91be 33f2 973d 08fb 9dbe 10bd 163e
00000290: 6b50 7e3d 9a21 9dbe b3aa d7bd 0d97 f2be
000002a0: b8a4 053f 428e b03e 5cf9 34bf 7cae 08bd
000002b0: 8467 d33e b887 953c f99f 3ebf ff0a a4be
000002c0: 62a5 c43d bdfd dcbd a56d ecbe dbff 0bbe
000002d0: 202e bdbe 890c a7be 2e8f 033f b846 55bd
000002e0: 5437 7fbc 2034 1a3d 23de b8be 2e24 9cbe
000002f0: 39d6 58be d715 0ebe 4bec a73c 8bc1 873e
00000300: 6bfa 01bf 38d5 6cbe 2d32 5d3f 4fab 123e
00000310: 3bc5 cb3e 7e20 75be 9c5c bbbf 908f ffbe
00000320: 6fe4 97be 9c7f a23e 6cc2 91bf 5b0f adbd
00000330: a28b 49be ff14 82be 405d 673f 9cd2 dc3d
00000340: 029a 003f 32d3 d4be d41a abbf 0429 1bbf
00000350: 22c0 12bf c1a5 aa3e 8842 7e3f 4ef1 103f
00000360: fe45 d13e 780d dc3c c2a9 a9be 8d95 e23d
00000370: 4110 df3e b29d 7a3e 35e9 d8be b8a4 92bd
00000380: 8033 f13e e895 48be fc35 5dbf 1d8d e6be
00000390: 297c 9e3b 7985 d9be 563f d73e eff2 43be
000003a0: affe 6c3e 7a4c 0dbe 8488 85be b1a6 9e3b
000003b0: 7ff5 f13d 29ea c93c 0299 3c3f f1d3 a13e
000003c0: 7706 00be 5529 673e ec5b af3e 3984 183f
000003d0: 4437 553e 9589 01bf 5968 dcbe 0e6b 3bbf
000003e0: 52c9 843c 1fe4 8d3e 252b debc cd5d e7bd
000003f0: 4c77 01bf 4afd b3be aded b33e e1a9 e33d

net.0.bias f4 [64]
-0.57735425 -0.8185276 -0.51765865 0.36554742 -0.7831387 0.7461396 -0.42419314 0.6331702
0.8517977 0.119029455 -0.39168286 -0.11705871 0.7231077 0.41546965 -0.34321147 0.5030773
-0.42146605 -0.5884838 -0.7437319 -0.123556755 0.6007698 0.7826686 0.7610304 -0.67249703
-0.7695028 -0.4375779 -0.6088306 -0.70489913 0.47152445 -0.701509 0.6996513 0.3496413
0.50227344 0.5111141 -0.64933765 0.4017178 0.54768527 -0.7793776 -0.41076154 -0.68322194
-0.4210585 0.45763752 -0.61007077 0.5753026 0.6817659 0.075805046 -0.73989296 0.3118901
-0.6300997 -0.63485086 0.74988264 0.75784224 -0.72080153 0.56681895 0.4065408 -0.49038103
-0.33365107 0.36323074 0.731507 -0.8114885 0.55823195 -0.7120722 0.5366743 0.64028347
00000000: 7dcd 13bf 068b 51bf 4785 04bf 0829 bb3e
00000010: c77b 48bf 0103 3f3f d82f d9be 7117 223f
00000020: 6a0f 5a3f b7c5 f33d a88a c8be 7abc efbd
00000030: 961d 393f 70b8 d43e 6ab9 afbe adc9 003f
00000040: 66ca d7be e0a6 16bf 3765 3ebf 530b fdbd
00000050: 0dcc 193f f85c 483f e3d2 423f c428 2cbf
00000060: 23fe 44bf 360a e0be 52dc 1bbf 4574 34bf
00000070: a76b f13e 1896 33bf 591c 333f 2f04 b33e
00000080: fe94 003f 60d8 023f fe3a 26bf f5ad cd3e
00000090: 1a35 0c3f 4a85 47bf 564f d2be a2e7 2ebf
000000a0: fb94 d7be 774f ea3e 992d 1cbf 0847 133f
000000b0: 3688 2e3f ad3f 9b3d a069 3dbf 0fb0 9f3e
000000c0: 374e 21bf 9685 22bf 4ff8 3f3f f301 423f
000000d0: 7386 38bf 0c1b 113f 1e26 d03e 3913 fbbe
000000e0: 50d4 aabe 61f9 b93e 0b44 3b3f b6bd 4fbf
000000f0: 4ae8 0e3f 5d4a 36bf 7d63 093f 9ee9 233f

net.2.weight f4 [2, 64]
-0.21351586 -0.29464343 -0.25150812 0.117645636 -0.19470832 0.3946582 -0.3129851 0.33400345
0.2901554 -0.027508255 -0.28376836 -0.056060877 0.42195237 0.41586187 -0.13656226 0.2915394
-0.19072872 -0.30637488 -0.394446 -0.020123152 0.3569416 0.32406116 0.2278688 -0.44412577
-0.39117712 -0.19020683 -0.49629867 -0.2741692 0.38272217 -0.44975987 0.43335143 0.41351825
0.27894494 0.12942643 -0.4283533 0.379803 0.30560428 -0.3366424 -0.3718823 -0.43408772
-0.11835196 0.21342367 -0.24433348 0.16570342 0.36736912 -0.04631446 -0.27942964 0.07277118
-0.39301965 -0.44394425 0.40648633 0.18471472 -0.28748015 0.44529414 0.22781242 -0.2349483
-0.06131899 0.16687495 0.29934263 -0.31595448 0.29384783 -0.3740844 0.23012917 0.33243233
-0.2532082 -0.32184893 -0.21603021 0.29043952 -0.32524955 0.31368467 -0.41100714 0.3226573
0.44005483 0.15503553 -0.4012189 -0.031748284 0.3244858 0.4113364 -0.2945438 0.39344078
-0.18170853 -0.45901078 -0.462693 -0.14788821 0.3806734 0.33303598 0.3603301 -0.35797223
-0.2527743 -0.22817813 -0.22725663 -0.28110626 0.42279077 -0.44170395 0.28630018 0.3062328
0.34845862 0.36336416 -0.32031086 0.3793043 0.32403085 -0.26858315 -0.31234217 -0.38848567
-0.20623212 0.32052803 -0.24110661 0.10869493 0.26119474 0.087988906 -0.3078753 0.20325644
-0.25657165 -0.35345057 0.23165956 0.29643056 -0.32744378 0.38724703 0.365743 -0.23144922
-0.31017077 0.1485108 0.2725864 -0.40989783 0.20985432 -0.44863933 0.19152577 0.14096059
00000000: e7a3 5abe 81db 96be acc5 80be 32f0 f03d
00000010: 9e61 47be a410 ca3e 953f a0be 8002 ab3e
00000020: 408f 943e fe58 e1bc 164a 91be 17a0 65bd
00000030: 240a d83e d9eb d43e fad6 0bbe a744 953e
00000040: 644e 43be 2bdd 9cbe d3f4 c9be 4fd9 a4bc
00000050: 0dc1 b63e 58eb a53e 7056 693e 7464 e3be
00000060: 5e48 c8be 94c5 42be dc1a febe e85f 8cbe
00000070: 29f4 c33e ed46 e6be 3de0 dd3e aab8 d33e
00000080: dfd1 8e3e 5d88 043e 2051 dbbe 8a75 c23e
00000090: 2a78 9c3e 655c acbe 5b67 bebe bf40 debe
000000a0: 8362 f2bd bc8b 5a3e 8e32 7abe 28ae 293e
000000b0: ce17 bc3e 3bb4 3dbd 6711 8fbe 0e09 953d
000000c0: df39 c9be a94c e3be fa1e d03e db25 3d3e
000000d0: 9930 93be 98fd e33e a947 693e 4a96 70be
000000e0: 9f29 7bbd 44e1 2a3e 7043 993e c9c4 a1be
000000f0: 3973 963e fe87 bfbe fba6 6b3e 9234 aa3e
00000100: 81a4 81be 62c9 a4be 0637 5dbe 7db4 943e
00000110: 1c87 a6be 479b a03e 876f d2be 5633 a53e
00000120: de4e e13e a2c1 1e3e 906c cdbe 7d0a 02bd
00000130: 0123 a63e af9a d23e 72ce 96be 1271 c93e
00000140: cd11 3abe 7603 ebbe 19e6 ecbe 0270 17be
00000150: a0e7 c23e b183 aa3e 307d b83e 2348 b7be
00000160: a26b 81be 87a7 69be f6b5 68be 29ed 8fbe
00000170: 0878 d83e 0527 e2be f095 923e 8cca 9c3e
00000180: 2b69 b23e de0a ba3e c9ff a3be 2c34 c23e
00000190: 5fe7 a53e bb83 89be 50eb 9fbe 98e7 c6be
000001a0: 832e 53be 401c a43e a7e4 76be 739b de3d
000001b0: 51bb 853e 8733 b43d d5a1 9dbe 7522 503e
000001c0: 5c5d 83be 79f7 b4be 2a38 6d3e bfc5 973e
000001d0: b6a6 a7be 3e45 c63e ab42 bb3e 0601 6dbe
000001e0: b4ce 9ebe 3713 183e 7290 8b3e 21de d1be
000001f0: 0de4 563e 0eb4 e5be 551f 443e f957 103e

net.2.bias f4 [2]
0.3726249 0.2701369
00000000: b1c8 be3e 624f 8a3e
