models/15000.pth (torch_old, 2645 bytes, 4 tensors)

net.0.weight f4 [64, 4]
00000000: 7cfa b43e 2b3a 3dbe fa6c 83bf d929 e1be
00000010: b8bd ea3e ca63 a63d 250a 92bf 2b75 8ebe
00000020: ae16 3ebf 3d3f 633d 064f 543f 2955 813e
00000030: 3b7a c23e bb7a 7ebe b66d cd3d 1ce1 0cbe
00000040: b8ad a4bc 488c 403e ba2d ca3e d55d 613e
00000050: 39ca 243c bfce 30be c6d5 5dbf 8c80 e7be
00000060: 7d98 41be 6bad 82be f887 4dbf ef61 06bf
00000070: cca7 183e 3046 b6bd 4363 51bf 1505 54be
00000080: a801 7b3e 1335 aebe 02e1 a2bf f8da 0abf
00000090: 2686 27be 0313 56be 2b3a 0fbe 6ecc 7b3e
000000a0: 8ee5 a9be 3c32 123e 3c4d 9cbe a55e ebbc
000000b0: 1630 c3be f20b 413d d189 ac3e ae42 ea3d
000000c0: e502 8c3d 518a e3be c195 15bf ea5b 26bf
000000d0: 1432 0b3f a771 68be 6eb8 0fbf 840a 99be
000000e0: b0f1 043f e04a cebe 72dc c8be 2ccc 0abf
000000f0: a06e 1fbd fdfe 19be 0e0c ccbe 9eab aabe
00000100: 44be 54bf 8ff2 43bd af99 963e a832 493e
00000110: 0649 b23e ffc2 aabe 6c61 88bf cea4 06bf
00000120: dc34 14be 8972 843e 6c65 983f a22f ef3e
00000130: 3366 edbe c996 fdbe 3b8d c93e 604d debe
00000140: ff5a debd 4be2 5ebe 8bfa 513e cd7a e13d
00000150: ccbb d53e 67b1 2ebe 189c 99bf 96a9 d2be
00000160: d738 ab3d 9225 aebe 7410 0bbf e6e0 07bf
00000170: 06c9 3bbf 541d 253e 1d2f 983f de16 b73e
00000180: 7239 d8be 9f43 903e 17c6 d93e 6335 033f
00000190: 7804 62be 888f dc3e d4d4 003d a74d fe3e
000001a0: c9a5 a4be cb40 c53e 920d 813f 5079 0a3f
000001b0: 6925 85be 7d12 3c3e 7b43 573f 516e d43e
000001c0: 907e 97be db3d 053e 94df d13d 5b25 6f3e
000001d0: 16db 573e d5e3 a5bd b9dc a9bf da74 c5be
000001e0: 13c5 5a3e 4b4f 8abe 4c05 51bf c77f 00bf
000001f0: 1ce8 b1be 7400 8e3d 0e9d 2abf be66 89bd
00000200: 42d0 1ebf 4951 0d3f 3c6d 103f be58 333f
00000210: 1b42 48bd e0dc 603e c258 123e 2c55 2d3c
00000220: fb53 95be 4696 6dbd 572d 813f 14ce 6a3e
00000230: 9559 543f 6748 c63d 186c a5be 1fe1 01be
00000240: b1e3 433c 77f6 92be 8f9e 533e 83a5 75bb
00000250: ccea f23d 2b3e 80be fc29 91bf b437 0dbf
00000260: 31a8 ddbd 69bf 823e f141 09bd 4b89 983e
00000270: 14d4 9cbe 4db5 983e db84 193f 448e f33e
00000280: 5cc6 9abe d940 ad3d 36c3 9ebe 5da8 fb3d
00000290: 34e2 723d 5198 a9be dd22 3abe 60df e8be
000002a0: 8b99 0d3f d79d 9a3e d871 5ebf 08ca 8ebd
000002b0: f027 dd3e cf70 5dbd 0fde 66bf 0253 9dbe
000002c0: f572 ce3d 88c2 9ebd eabd 1dbf abb4 56be
000002d0: 96c7 d1be 0b36 94be 1ff6 1f3f 2345 f3bc
000002e0: 262b 0bbb 9725 9cbb 915a 15bf d569 aebe
000002f0: 1cf3 7bbe 8dae aebd 8e6d 0d3e 416d 873e
00000300: d2d5 17bf 80ae 3bbe 31e0 833f f607 133e
00000310: 57a3 ca3e 6ffa 91be 4e32 d1bf be4f febe
00000320: 4ffb a0be e79f 863e 285b afbf 9b74 febd
00000330: 97be 78be ab02 61be 3ffb 8c3f 5d99 103e
00000340: 5db3 023f 8b5e e8be 78ba c3bf 381f 1bbf
00000350: 6e88 15bf 227f be3e e360 933f 9e86 103f
00000360: 0afb e33e 5ab7 603d d985 97be c11f eb3d
00000370: d1b6 ee3e 7750 623e d31b 0dbf 1f4e e0bd
00000380: b3a6 fd3e c070 84be 0ef3 83bf 3e14 e7be
00000390: 9073 b5bb 83e6 d4be 69ba e63e 4da8 30be
000003a0: 6b4c 703e c67a d0bd 8b0e 86be e300 9cbc
000003b0: 4e13 093e 8406 733d bcfb 6b3f f102 b13e
000003c0: 9d32 17be a6c6 8d3e eb12 033f 1be1 143f
000003d0: 168f 813e 9a74 08bf 99c1 20bf d457 39bf
000003e0: acb2 0a3d 0b43 553e d033 14be c3b4 c3bd
000003f0: 7d93 04bf 361c 9dbe d655 fe3e 9615 0f3e
0.35347354 -0.1847922 -1.0267632 -0.4397724 0.4584787 0.08124502 -1.1409346 -0.27823767
-0.74253356 0.05548023 0.8293308 0.25260285 0.3798388 -0.24851505 0.10030691 -0.13757747
-0.020102367 0.18803513 0.39488012 0.2200845 0.010057979 -0.17266367 -0.8665432 -0.4521526
-0.18905826 -0.25522932 -0.80285597 -0.52493185 0.1490776 -0.08900106 -0.81792086 -0.20705064
0.2451235 -0.34024867 -1.2724917 -0.5424037 -0.16359767 -0.2090569 -0.13987033 0.24589702
-0.3318295 0.14276975 -0.30527675 -0.028731653 -0.38122624 0.047130533 0.33698896 0.114384994
0.068364896 -0.44441465 -0.5843163 -0.64984 0.5437329 -0.22699605 -0.5614079 -0.29890835
0.51931286 -0.402915 -0.39230686 -0.5421779 -0.03892386 -0.15038677 -0.39852947 -0.3333406
-0.8310282 -0.047838744 0.29414126 0.1964823 0.34821337 -0.33351895 -1.0654731 -0.5259522
-0.14473289 0.25868633 1.1905951 0.46716028 -0.46367034 -0.49529102 0.39365563 -0.43418407
-0.108572 -0.21766011 0.20505731 0.110097505 0.4174484 -0.17059861 -1.2000761 -0.4114501
0.08360451 -0.3401304 -0.5432198 -0.5307754 -0.7335361 0.16124469 1.1889378 0.35759634
-0.42231327 0.2817659 0.42533943 0.51253337 -0.22072017 0.43078256 0.03145297 0.4966862
-0.32157734 0.38525996 1.0082266 0.5409136 -0.26005104 0.18366428 0.8408734 0.41490415
-0.29588747 0.13011877 0.10247722 0.23354094 0.21079668 -0.08100096 -1.3270484 -0.38565713
0.2136424 -0.2701362 -0.8164871 -0.5019497 -0.34747398 0.0693368 -0.66645896 -0.0670905
-0.62036526 0.55202156 0.5641668 0.70057285 -0.048891168 0.21959257 0.14291671 0.010579389
-0.29165635 -0.05800464 1.0091962 0.22930175 0.8294919 0.096817784 -0.3230903 -0.12683533
0.011956141 -0.28703663 0.20665954 -0.0037482686 0.1186119 -0.2504743 -1.1340938 -0.5516312
-0.108230956 0.2553666 -0.033510152 0.29792246 -0.30630553 0.29825822 0.59968346 0.47569478
-0.3022946 0.08459634 -0.3100831 0.12287972 0.059297755 -0.3312402 -0.18177362 -0.45482922
0.5531241 0.30198547 -0.8689246 -0.06972128 0.43194532 -0.05406266 -0.90182585 -0.30727392
0.1008052 -0.07751948 -0.6161791 -0.20967357 -0.40972584 -0.28947482 0.62484926 -0.029696053
-0.0021235435 -0.0047652232 -0.5834132 -0.34065118 -0.24604458 -0.08529387 0.13811323 0.26450542
-0.5931064 -0.18328285 1.0302793 0.14358506 0.39577743 -0.28511378 -1.6343477 -0.49670213
-0.31441733 0.2629387 -1.3699694 -0.124245845 -0.24291454 -0.21973674 1.1014174 0.14121003
0.51054937 -0.4538463 -1.5291281 -0.6059451 -0.584113 0.3720637 1.1513942 0.5645541
0.44527465 0.054862358 -0.29594305 0.11480666 0.46623853 0.22101007 -0.5512058 -0.109524004
0.49541244 -0.2586727 -1.030855 -0.4513263 -0.0055374578 -0.41582116 0.45064095 -0.17251702
0.23466651 -0.10179667 -0.2618297 -0.019043392 0.1338627 0.059332386 0.9218099 0.34572557
-0.14765401 0.2769062 0.5120074 0.58155984 0.25304478 -0.5330292 -0.62795407 -0.7239964
0.0338618 0.20826356 -0.1447289 -0.09555962 -0.5178755 -0.30685586 0.49674863 0.13973078

net.0.bias f4 [64]
00000000: 66c8 2cbf 66d0 67bf 5c3c 1fbf a54b e83e
00000010: bb6e 5ebf 9a83 5a3f 9263 06bf 7ea5 383f
00000020: 46b2 763f da79 3a3e c24b f6be 55c0 4abe
00000030: e767 573f deb8 033f 0387 e0be c72e 1a3f
00000040: a038 06bf f89b 2fbf e14a 5bbf eabd 62be
00000050: 02d1 2f3f 1c3e 643f e30d 5d3f 9fca 47bf
00000060: d3a0 5dbf 9856 09bf dcf1 39bf 6db5 4fbf
00000070: 145a 0f3f 5030 4cbf 3874 4f3f 0c84 e13e
00000080: ffd5 193f 8309 193f ca5f 40bf 799d 003f
00000090: 0603 223f dfda 60bf 0a74 ffbe 109a 48bf
000000a0: d864 02bf 506f 0f3f f619 34bf 52a6 2f3f
000000b0: 9010 443f b7cb 1b3e 56da 53bf b08d cb3e
000000c0: 80bc 3abf 0af1 3dbf d449 583f 2035 583f
000000d0: 10b1 52bf 3dbc 2b3f 1435 fe3e 4c3b 15bf
000000e0: 4790 dabe dd94 e43e c05a 513f 2efa 67bf
000000f0: 56e5 273f 309c 4fbf 0f73 203f 793f 3a3f
-0.67493284 -0.90552366 -0.62201476 0.45370212 -0.8688771 0.8535706 -0.5249568 0.7212752
0.96365774 0.18210545 -0.48104674 -0.19799931 0.8414292 0.5145396 -0.43853006 0.60227627
-0.5243015 -0.68597364 -0.8566113 -0.22142759 0.68678296 0.8915727 0.86349314 -0.7804355
-0.86573523 -0.53647757 -0.72634673 -0.8113621 0.55996823 -0.7976122 0.8103671 0.44046056
0.6009216 0.5978014 -0.7514616 0.50240284 0.63285863 -0.8783397 -0.49893218 -0.7836008
-0.50935125 0.56029224 -0.70352113 0.6861316 0.7658777 0.1521443 -0.8275503 0.39756536
-0.7294388 -0.7419592 0.8448765 0.8445606 -0.82301426 0.67084104 0.4964987 -0.58293605
-0.426882 0.44644824 0.817791 -0.9061612 0.65584314 -0.810977 0.62675565 0.727531

net.2.weight f4 [2, 64]
00000000: ca4e 9cbe 8264 c6be 6419 b7be 1d70 4a3e
00000010: 48ee 8cbe 8dca 013f b4e0 c9be 22be da3e
00000020: 67b5 d53e df12 033d 12da b6be 10df 07be
00000030: 0582 093f ba4f 053f 4ed0 54be 8f25 c63e
00000040: e4f4 8dbe 88a2 cbbe f588 04bf 3865 5cbd
00000050: 80ee de3e ba48 e33e 06df ab3e 5c44 10bf
00000060: 0736 febe 2774 93be fa41 1fbf b7b7 c5be
00000070: e48a e73e 12ed 0bbf 1faf 0c3f e02c fe3e
00000080: c433 ba3e 77db 433e 5a27 08bf 2172 ed3e
00000090: 1050 c33e 43a7 debe e405 e9be 8d04 0bbf
000000a0: 218a 41be f340 9f3e 299d a6be f6c8 8b3e
000000b0: 9baf e83e def5 7ebc 5bb1 bbbe 409e 193e
000000c0: 7ebc fbbe 31af 0abf aad4 013f c255 8b3e
000000d0: 65bc c5be 5e93 093f a586 993e fd1a a0be
000000e0: 5b81 0bbe 15d9 743e 2082 bf3e 413d d7be
000000f0: a75a c43e 62af edbe efc9 993e a72f d43e
00000100: 549a b4be 431f d7be 192e 9bbe 436f bb3e
00000110: 749c d3be 00ff cf3e a342 01bf 4aca d13e
00000120: 07a1 0a3f c14b 463e 8e5c f7be 930a 96bd
00000130: 05ff d53e 98f0 f93e a87a cbbe 5826 f53e
00000140: a274 88be e21e 10bf fb3e 0fbf 2e73 60be
00000150: fa6a ed3e 9824 da3e 909b e83e 2946 e6be
00000160: 5a1d aebe f8b9 9cbe 6cb2 a0be 834c bdbe
00000170: 9f0a 043f ac73 0abf a56a c03e e4b6 cb3e
00000180: 47ac e63e 29c3 e53e 0216 d0be 1f73 ef3e
00000190: ff9f cf3e 1aff bbbe 5b23 cabe 4817 f4be
000001a0: 5fb2 94be bfa9 cd3e 621d aebe d882 423e
000001b0: 5161 b23e 25bb 113e 42d1 cabe d294 8e3e
000001c0: 73c1 b1be 91fd ecbe 383a a53e c2f8 c73e
000001d0: 3f78 e0be 6fe2 fc3e 7fd4 e53e a315 a7be
000001e0: 0172 d4be ad24 6b3e 0437 b63e f028 01bf
000001f0: e1f6 983e 356e 0cbf 51bc 8b3e 0a18 6d3e
-0.3052886 -0.38748556 -0.3576156 0.1976933 -0.27525544 0.5069969 -0.39429247 0.42723185
0.41739962 0.03200042 -0.3571325 -0.13268685 0.5371402 0.5207478 -0.20782587 0.3870053
-0.277259 -0.3977244 -0.5177148 -0.053807467 0.43541336 0.44391423 0.3356859 -0.5635431
-0.49650595 -0.28799555 -0.6221005 -0.38616726 0.45223153 -0.54658616 0.54954714 0.49643612
0.3636762 0.19126688 -0.53185046 0.46376136 0.3814702 -0.43486986 -0.45512307 -0.5430382
-0.18900348 0.3110424 -0.3254178 0.2730176 0.45446476 -0.015561549 -0.3665875 0.15001774
-0.49167246 -0.5417357 0.50715125 0.27213866 -0.38620296 0.5374049 0.29985538 -0.3127059
-0.13623564 0.23910935 0.37403965 -0.4203892 0.38350412 -0.4642287 0.30036876 0.41442606
-0.35273993 -0.42016038 -0.30308607 0.36608323 -0.41330302 0.40624237 -0.50492305 0.40974647
0.5415196 0.19364835 -0.483128 -0.073262356 0.41796127 0.4881637 -0.39742017 0.47880816
-0.26651484 -0.56297123 -0.55955476 -0.21918938 0.4637068 0.42606044 0.45431185 -0.44975403
-0.34006768 -0.30610633 -0.31386125 -0.36972436 0.51578707 -0.5408275 0.37581363 0.39787972
0.45053312 0.44875458 -0.4064179 0.46767518 0.40551755 -0.36718065 -0.394801 -0.47674012
-0.29042336 0.40168568 -0.34006792 0.18995225 0.34839872 0.14231546 -0.39612776 0.27847916
-0.34717903 -0.46287206 0.3227098 0.39056975 -0.4384174 0.49391505 0.44888684 -0.32633695
-0.41493228 0.2296321 0.3558885 -0.5045309 0.29875854 -0.5485566 0.27292112 0.23153701

net.2.bias f4 [2]
00000000: f107 e43e 6540 b73e
0.4453731 0.35791317
