models/20000.pth (torch_old, 2645 bytes, 4 tensors)

net.0.weight f4 [64, 4]
0	0x3ec657bd	0.38738814
1	0xbe3c9890	-0.18417573
2	0xbf8cb626	-1.0993087
3	0xbed6b092	-0.41931587
4	0x3f052eea	0.5202471
5	0x3d9699bf	0.073535435
6	0xbf9fa30e	-1.2471635
7	0xbe8b15e0	-0.27165127
8	0xbf5a401c	-0.85254073
9	0x3d4b4bc8	0.049632818
10	0x3f680a3b	0.9064061
11	0x3e754610	0.23952508
12	0x3ecafd3a	0.39646322
13	0xbe59ba71	-0.21262528
14	0x3e1b96b2	0.15194204
15	0xbdff0400	-0.12451935
16	0x3b1f53fd	0.0024311536
17	0x3e1f61c4	0.15564638
18	0x3eeb7162	0.45984942
19	0x3e81d8e7	0.25360796
20	0xbaf6e2fd	-0.0018835958
21	0xbe374bce	-0.17900011
22	0xbf7c5af1	-0.98576266
23	0xbee6e342	-0.4509526
24	0xbe1eee6b	-0.15520637
25	0xbe7f1e27	-0.24913846
26	0xbf60ac5f	-0.8776302
27	0xbefb6a9a	-0.49104768
28	0x3e121c45	0.14268596
29	0xbd8a6312	-0.067571774
30	0xbf6b268e	-0.91855705
31	0xbe738115	-0.2377971
32	0x3e712944	0.23550898
33	0xbea245b6	-0.3169381
34	0xbfaebae4	-1.3650784
35	0xbf0ccf40	-0.5500374
36	0xbe3abe84	-0.18236738
37	0xbe23e909	-0.16006865
38	0xbca1979e	-0.019725617
39	0x3e81eccc	0.25375974
40	0xbeaffcef	-0.3437266
41	0x3e02a5f7	0.12758623
42	0xbecbf95b	-0.3983868
43	0xbd79b5ea	-0.060964502
44	0xbec872a6	-0.3914997
45	0x3d678e45	0.056532163
46	0x3ece3eef	0.4028239
47	0x3deb00f2	0.1147479
48	0x3da4e1c5	0.080508746
49	0xbed7210f	-0.4201741
50	0xbf2b2827	-0.6685814
51	0xbf22b6a3	-0.6355993
52	0x3f1670a2	0.58765614
53	0xbe4c4181	-0.19946863
54	0xbf1b9466	-0.60773313
55	0xbe98ab85	-0.2981836
56	0x3f0f6b53	0.5602314
57	0xbec471f7	-0.38368198
58	0xbef2048a	-0.47269088
59	0xbf0a34d3	-0.53986853
60	0xbd65044f	-0.055912312
61	0xbe1f49ed	-0.15555544
62	0xbeeb0ac0	-0.4590664
63	0xbea4a055	-0.32153574
64	0xbf7422b1	-0.95365435
65	0xbcbc4856	-0.022983711
66	0x3ec31bc5	0.38107124
67	0x3e367acb	0.1782028
68	0x3ebf80b0	0.37402868
69	0xbea3968c	-0.31950796
70	0xbf91a340	-1.1377945
71	0xbf01426a	-0.50491965
72	0xbe08a79d	-0.1334519
73	0x3e7bbed7	0.24584518
74	0x3fa3952d	1.27799
75	0x3eeebce0	0.46628475
76	0xbed824f2	-0.42215687
77	0xbef01bed	-0.46896306
78	0x3ea82ef3	0.3284832
79	0xbee80db0	-0.45322943
80	0xbe153741	-0.14571859
81	0xbe3ea1d6	-0.18616423
82	0x3ea2edcf	0.3182206
83	0x3dfc96aa	0.123334244
84	0x3ede4bcc	0.43417203
85	0xbe293b30	-0.16526484
86	0xbfa72884	-1.3059239
87	0xbed4d55a	-0.41569024
88	0x3d97e82a	0.07417329
89	0xbea545fa	-0.3227995
90	0xbf207206	-0.62673986
91	0xbf07efc9	-0.5310026
92	0xbf5057f5	-0.8138421
93	0x3e16333e	0.14667985
94	0x3fa26b9d	1.2689091
95	0x3eb34f9d	0.35021678
96	0xbee6a3e9	-0.4504693
97	0x3e8cab3a	0.27474385
98	0x3f0d22d2	0.55131257
99	0x3f051ff5	0.5200189
100	0xbe5ec642	-0.21755317
101	0x3ed1a2a6	0.40944403
102	0x3d9824ec	0.07428917
103	0x3ef8f1d8	0.48622012
104	0xbea7fccd	-0.3281006
105	0x3ebda15c	0.3703717
106	0x3f8b8b39	1.0901862
107	0x3f075847	0.52869076
108	0xbe847da5	-0.2587711
109	0x3e3cf305	0.1845208
110	0x3f716f87	0.943108
111	0x3ed41541	0.41422465
112	0xbeae5337	-0.34047863
113	0x3dca7b0d	0.09886751
114	0x3e35d296	0.17756113
115	0x3e8b2e50	0.2718377
116	0x3e6c8ece	0.2310135
117	0xbdb605bd	-0.08887813
118	0xbfb4ed6b	-1.4134954
119	0xbebe0497	-0.37112877
120	0x3e58c0b9	0.21167268
121	0xbe897e12	-0.26853997
122	0xbf6c529d	-0.9231356
123	0xbefe80ec	-0.49707735
124	0xbebc23b3	-0.36745986
125	0x3d834887	0.06410318
126	0xbf3d29ed	-0.738921
127	0xbd973e0d	-0.07384882
128	0xbf2b5d3f	-0.6693916
129	0x3f05d34a	0.52275527
130	0x3f18956d	0.59603006
131	0x3f294e96	0.6613554
132	0xbd6172a7	-0.05504098
133	0x3e252d82	0.16130641
134	0x3e2a6c9a	0.1664299
135	0x3d8032e0	0.06259704
136	0xbe9ee110	-0.31031084
137	0xbd0cfec5	-0.034422655
138	0x3f906b71	1.1282789
139	0x3e6b84f7	0.22999941
140	0x3f721bc9	0.94573647
141	0x3d99d8ae	0.075120315
142	0xbed1c383	-0.40969476
143	0xbdf1eb4e	-0.11812459
144	0xbc8955ba	-0.01676451
145	0xbe827a59	-0.2548397
146	0x3e9a47c0	0.30132866
147	0x3c6e13d1	0.014531092
148	0x3e143781	0.14474298
149	0xbe7826a0	-0.24233484
150	0xbf9a464f	-1.2052706
151	0xbf0613af	-0.52373785
152	0xbdca1e56	-0.09869067
153	0x3e787754	0.2426427
154	0x3cac57a1	0.021037878
155	0x3e9adc4d	0.302462
156	0xbe9f1412	-0.3107
157	0x3e918946	0.28425044
158	0x3f31b6a2	0.694193
159	0x3ef4c98e	0.47810024
160	0xbea68639	-0.3252428
161	0x3db79eea	0.08965857
162	0xbeab591e	-0.3346643
163	0x3dbdf54b	0.092753015
164	0x3d561b52	0.05227215
165	0xbea3828b	-0.31935534
166	0xbe60329c	-0.21894306
167	0xbedf1987	-0.43574163
168	0x3f143edb	0.5790841
169	0x3e802ce9	0.25034264
170	0xbf80a50d	-1.005037
171	0xbdb18715	-0.08668343
172	0x3eed4cae	0.46347564
173	0xbd94f6b2	-0.07273616
174	0xbf803bae	-1.0018213
175	0xbe97235a	-0.2951916
176	0x3dc23dd6	0.094844505
177	0xbd75a9b6	-0.059976302
178	0xbf3dbaf6	-0.74113405
179	0xbe7c9360	-0.24665594
180	0xbed8fe35	-0.42381445
181	0xbe7dc463	-0.24781947
182	0x3f455eb2	0.7709762
183	0x3b7d7537	0.0038674602
184	0x3c4096be	0.01175469
185	0xbce6bef1	-0.02816722
186	0xbf394420	-0.72369576
187	0xbeb13965	-0.346141
188	0xbe8e7a74	-0.278278
189	0xbd4b15f9	-0.0495815
190	0x3e795a4f	0.24350856
191	0x3e865a33	0.26240692
192	0xbf32753a	-0.69710124
193	0xbe2158e7	-0.1575657
194	0x3f93d71c	1.1550021
195	0x3e0afd26	0.13573131
196	0x3ed8b6e1	0.42327026
197	0xbe86d3df	-0.2633352
198	0xbfd43c83	-1.6580967
199	0xbeed772e	-0.4637999
200	0xbeb3dbe3	-0.35128698
201	0x3e619cf1	0.22032525
202	0xbfc5e942	-1.546181
203	0xbe123e14	-0.14281493
204	0xbe9548ae	-0.29157013
205	0xbe4a5b9d	-0.1976151
206	0x3f9e5b9a	1.2371705
207	0x3e192bd0	0.1495812
208	0x3f0bc2ae	0.5459393
209	0xbed50465	-0.41604915
210	0xbfc7f30b	-1.5621046
211	0xbf1340a8	-0.5752053
212	0xbf21bef3	-0.6318199
213	0x3eb19105	0.34680954
214	0x3f956f10	1.1674519
215	0x3f06d066	0.5266174
216	0x3ef82676	0.48466843
217	0x3d95928b	0.073033415
218	0xbe86bd7f	-0.2631645
219	0x3df09a0e	0.117481336
220	0x3efe4510	0.49662066
221	0x3e3af1e3	0.18256335
222	0xbf2a3a0d	-0.6649483
223	0xbe017869	-0.12643589
224	0x3f07234d	0.5278824
225	0xbe87c571	-0.26517823
226	0xbf8fb9ca	-1.1228573
227	0xbeddabc5	-0.43295112
228	0xbccc2902	-0.024921898
229	0xbec73b40	-0.38912392
230	0x3f0296bc	0.5101125
231	0xbe178025	-0.14794977
232	0x3e7db6cc	0.24776763
233	0xbd850410	-0.064949155
234	0xbe888191	-0.2666135
235	0xbd0fd59d	-0.035115827
236	0x3e210412	0.15724209
237	0x3d89257a	0.06696601
238	0x3f85daed	1.0457436
239	0x3eb744c4	0.35794652
240	0xbe3920a5	-0.18078859
241	0x3e8e10f0	0.27747297
242	0x3f110a8d	0.56656724
243	0x3f0b1c12	0.54339707
244	0x3e98f8cc	0.29877317
245	0xbefee7f9	-0.49786356
246	0xbf301c28	-0.68792963
247	0xbf30a658	-0.6900382
248	0x3d12b63b	0.03581832
249	0x3e1a3f1d	0.15063138
250	0xbe7ecb8c	-0.24882334
251	0xbda7cf8f	-0.081938855
252	0xbf0bb3dc	-0.5457132
253	0xbe80ea83	-0.25178918
254	0x3f1c46f5	0.6104577
255	0x3e12ab33	0.1432312

net.0.bias f4 [64]
0	0xbf41a593	-0.7564327
1	0xbf7aa10c	-0.9790199
2	0xbf3655e9	-0.7122484
3	0x3f0860d1	0.5327273
4	0xbf71bfe6	-0.9443344
5	0x3f7277b8	0.94713926
6	0xbf1bf3b4	-0.60918736
7	0x3f4d61cf	0.8022737
8	0x3f888b90	1.0667591
9	0x3e7c726d	0.24653025
10	0xbf0fa76f	-0.5611486
11	0xbe8cd16e	-0.27503532
12	0x3f718b25	0.9435294
13	0x3f1a1c5c	0.6019952
14	0xbf039342	-0.5139657
15	0x3f2f96a4	0.68589234
16	0xbf1d798b	-0.61513585
17	0xbf44cf34	-0.76878667
18	0xbf747274	-0.9548714
19	0xbe98939e	-0.29800123
20	0x3f42d035	0.7609895
21	0x3f7dcb1f	0.99138063
22	0x3f7447af	0.9542188
23	0xbf605f93	-0.87645835
24	0xbf759001	-0.9592286
25	0xbf1e7456	-0.61896265
26	0xbf538043	-0.82617587
27	0xbf67a6d4	-0.90488935
28	0x3f22ce23	0.6359579
29	0xbf617afe	-0.88078296
30	0x3f684178	0.907249
31	0x3f051c01	0.51995856
32	0x3f2e9ed9	0.6821113
33	0x3f2cd906	0.6751865
34	0xbf57851f	-0.841875
35	0x3f17c24e	0.5928086
36	0x3f3519ea	0.70742667
37	0xbf77e1c1	-0.9682885
38	0xbf13916b	-0.57643765
39	0xbf601213	-0.8752758
40	0xbf16b549	-0.5887037
41	0x3f250e97	0.6447539
42	0xbf488e35	-0.7834199
43	0x3f47a18b	0.7798087
44	0x3f57f7fc	0.8436277
45	0x3e6c1101	0.23053361
46	0xbf6794ae	-0.9046124
47	0x3ef20da9	0.47276047
48	0xbf50db9c	-0.815851
49	0xbf55594b	-0.83339375
50	0x3f6d84ec	0.9278095
51	0x3f6ab0d6	0.9167608
52	0xbf6a5725	-0.9153922
53	0x3f41dce1	0.7572766
54	0x3f13e3fb	0.57769746
55	0xbf29a244	-0.6626322
56	0xbf0046d9	-0.50108105
57	0x3f05119e	0.51980007
58	0x3f654a14	0.8956616
59	0xbf7da892	-0.9908534
60	0x3f3d5d5f	0.739706
61	0xbf66e1c2	-0.9018823
62	0x3f351ffd	0.70751935
63	0x3f4dffc4	0.8046839

net.2.weight f4 [2, 64]
0	0xbec15670	-0.3776126
1	0xbeefe1af	-0.4685187
2	0xbee4b900	-0.44672394
3	0x3e87bec2	0.26512724
4	0xbeb2fc4d	-0.34958115
5	0x3f198677	0.599708
6	0xbee8c6f6	-0.45464295
7	0x3f02efd3	0.5114719
8	0x3f048d12	0.51777756
9	0x3dcd1363	0.10013463
10	0xbed7de76	-0.42161912
11	0xbe503c16	-0.20335421
12	0x3f210362	0.62895787
13	0x3f1b21b5	0.6059831
14	0xbe8a13d7	-0.26968262
15	0x3eeff23f	0.46864507
16	0xbeb64220	-0.35597324
17	0xbeee682a	-0.46563846
18	0xbf1d9eb1	-0.6157027
19	0xbdc298ab	-0.09501775
20	0x3f023b8f	0.5087213
21	0x3f0a69ff	0.5406799
22	0x3ed91178	0.4239614
23	0xbf28de06	-0.6596378
24	0xbf158c49	-0.58417183
25	0xbebbe9f2	-0.36701924
26	0xbf38207e	-0.7192458
27	0xbef47ace	-0.47749943
28	0x3f057e90	0.52146244
29	0xbf1f39f0	-0.6219778
30	0x3f249294	0.6428616
31	0x3f13ecfe	0.57783496
32	0x3edabb80	0.42721176
33	0x3e7ec5c3	0.24880128
34	0xbf1eaf80	-0.6198654
35	0x3f0a7a91	0.5409327
36	0x3ee752f2	0.4518047
37	0xbf023b7b	-0.5087201
38	0xbf072076	-0.52783906
39	0xbf21cbc2	-0.63201535
40	0xbe802d51	-0.25034574
41	0x3ec89561	0.39176467
42	0xbecf7fcc	-0.4052719
43	0x3eb99191	0.3624387
44	0x3f08e93f	0.53480905
45	0x3d014a1a	0.03156481
46	0xbee1ad20	-0.44077396
47	0x3e66aee6	0.22527656
48	0xbf13ef25	-0.5778678
49	0xbf1c8e6e	-0.6115483
50	0x3f1913f5	0.59796077
51	0x3eb30aac	0.3496908
52	0xbee91e55	-0.45530954
53	0x3f1b393b	0.606342
54	0x3eba82c3	0.36427888
55	0xbec7d8b1	-0.3903251
56	0xbe482d2d	-0.19548483
57	0x3e9d2342	0.30690962
58	0x3ee24a1b	0.44197163
59	0xbf029c66	-0.51019895
60	0x3ee80d57	0.45322677
61	0xbf07e005	-0.530762
62	0x3ebb06a1	0.36528495
63	0x3efda184	0.4953729
64	0xbee0ada8	-0.4388249
65	0xbf01d252	-0.5071155
66	0xbec07b04	-0.37593853
67	0x3eddc9ce	0.43318027
68	0xbef9ed67	-0.48813936
69	0x3ef6f491	0.48233464
70	0xbf15e69d	-0.5855501
71	0x3ef696b2	0.48161846
72	0x3f1e8c2a	0.61932623
73	0x3e77b59a	0.24190369
74	0xbf0e6dd5	-0.5563634
75	0xbdf1d36e	-0.11807905
76	0x3efb4a3c	0.49080074
77	0x3f0d1281	0.5510636
78	0xbef7321f	-0.48280427
79	0x3f0d230c	0.551316
80	0xbeae97ca	-0.3410018
81	0xbf2647dc	-0.649534
82	0xbf2296cb	-0.6351134
83	0xbe8f02be	-0.2793178
84	0x3f09a25a	0.53763354
85	0x3efff984	0.49995053
86	0x3f079303	0.529587
87	0xbf05ef8d	-0.5231865
88	0xbed27977	-0.41108295
89	0xbebd317e	-0.36951822
90	0xbec21d33	-0.37912902
91	0xbee21116	-0.4415366
92	0x3f189dd3	0.5961582
93	0xbf207ced	-0.6269062
94	0x3ee503f0	0.44729567
95	0x3ef332c6	0.47499675
96	0x3f08972f	0.5335569
97	0x3f062b96	0.52410257
98	0xbef48083	-0.47754297
99	0x3f0ae343	0.54253024
100	0x3ef45a4f	0.4772515
101	0xbee6eb5f	-0.4510145
102	0xbeedba58	-0.46431231
103	0xbf0c003e	-0.5468787
104	0xbeba824a	-0.36427528
105	0x3ef078fe	0.4696731
106	0xbedb3c9c	-0.4281968
107	0x3e8430b1	0.258184
108	0x3ed7d0d9	0.42151526
109	0x3e5a1cb1	0.21300007
110	0xbef2debf	-0.47435567
111	0x3eb40925	0.35163227
112	0xbed88673	-0.42290077
113	0xbf0da51d	-0.5533007
114	0x3ecda43b	0.4016436
115	0x3ef2f92e	0.47455734
116	0xbf06f9c2	-0.5272485
117	0x3f15254b	0.5826003
118	0x3f053c1c	0.52044845
119	0xbed28652	-0.41118103
120	0xbf02136f	-0.50810903
121	0x3e99d90b	0.30048403
122	0x3edb1fc0	0.4279766
123	0xbf158234	-0.584018
124	0x3ec0ca69	0.37654427
125	0xbf210e9e	-0.6291293
126	0x3eb02e46	0.34410304
127	0x3e9fdbc5	0.31222358

net.2.bias f4 [2]
0	0x3f031497	0.5120329
1	0x3eddf0ea	0.43347865
