models/25000.pth (torch_old, 2645 bytes, 4 tensors)

net.0.weight f4 [64, 4]
0.41127443 -0.16216579 -1.0954351 -0.38029128 0.5739645 0.080468595 -1.2734438 -0.24020888
-0.94799775 0.042224705 0.9438579 0.22322418 0.42665997 -0.19081993 0.2110086 -0.111083835
0.026236236 0.14974943 0.50615454 0.2676665 -0.030108582 -0.18240492 -1.0715158 -0.45278925
-0.14260022 -0.22172932 -0.8913128 -0.44090438 0.12562974 -0.065997176 -0.9819206 -0.24758306
0.21400088 -0.3004599 -1.423554 -0.55477303 -0.19282007 -0.123208046 0.06584456 0.23347186
-0.36704952 0.115441665 -0.48457012 -0.076606676 -0.4055064 0.06041195 0.44485706 0.10959915
0.06797721 -0.39974216 -0.72762 -0.6278081 0.63690233 -0.177529 -0.61481935 -0.28340584
0.58652943 -0.3543512 -0.4810564 -0.49886972 -0.07651615 -0.16609636 -0.49389952 -0.30604345
-1.058759 0.000840449 0.4417854 0.16391003 0.37871593 -0.2868749 -1.1281221 -0.46183714
-0.10918483 0.23590966 1.3312668 0.46495852 -0.41241136 -0.42770332 0.2791213 -0.45562768
-0.18133414 -0.16540748 0.3906767 0.11523687 0.44167206 -0.15403508 -1.3674083 -0.41848394
0.057126697 -0.3161267 -0.6778111 -0.5239116 -0.8891528 0.12012767 1.2960814 0.33870122
-0.47073558 0.26190382 0.632598 0.5229172 -0.20680664 0.3970215 0.08960611 0.46784323
-0.3068887 0.34692448 1.1379102 0.5229007 -0.24549747 0.18284924 1.006341 0.4119752
-0.37996402 0.07553438 0.21620774 0.2733328 0.23403011 -0.078858025 -1.4238526 -0.3402588
0.1893557 -0.26089495 -0.99533105 -0.4965381 -0.39749742 0.048317708 -0.797864 -0.07418849
-0.7084155 0.4701215 0.54983056 0.604694 -0.05397948 0.102237865 0.20495397 0.104257725
-0.32451025 -0.024360042 1.2011889 0.22956754 1.0483637 0.048558988 -0.47362566 -0.109582625
-0.04414785 -0.23118182 0.37347585 0.016985735 0.13487531 -0.22567701 -1.2111288 -0.48709762
-0.08160613 0.24188879 0.05670687 0.29803696 -0.30228078 0.27354446 0.75004905 0.4741386
-0.3568081 0.103052214 -0.37643123 0.06317806 0.04037716 -0.31466448 -0.23218144 -0.41306534
0.6068706 0.22039309 -1.0731907 -0.07980896 0.49537042 -0.07031777 -1.0518003 -0.28523383
0.07486081 -0.060821507 -0.83092695 -0.26377237 -0.4228831 -0.21729666 0.88340455 0.011729905
0.0019465587 -0.043710753 -0.79522777 -0.3277655 -0.30295435 -0.02971985 0.30673215 0.23822714
-0.7830929 -0.14558882 1.2348062 0.12860818 0.43678385 -0.22116293 -1.6089457 -0.42112654
-0.4021699 0.1855441 -1.6820871 -0.16046071 -0.3297609 -0.18734312 1.2979215 0.12790155
0.5638818 -0.359079 -1.5101862 -0.52737564 -0.67866874 0.2958801 1.1082541 0.47614676
0.52085483 0.0700741 -0.23446007 0.11495273 0.52766526 0.15933576 -0.7259523 -0.11950944
0.54224813 -0.24974412 -1.1390897 -0.38367936 -0.046096876 -0.36703214 0.56561023 -0.13252214
0.27005064 -0.043770198 -0.26457483 -0.043198716 0.1856932 0.0801601 1.132512 0.36233395
-0.18940885 0.26258746 0.56896573 0.5023865 0.306402 -0.45426553 -0.67574394 -0.641138
0.035120714 0.09999966 -0.32104215 -0.068100415 -0.5868742 -0.21956661 0.66869 0.1346037
00000000: 9092 d23e ca0e 26be 3837 8cbf 8ab5 c2be
00000010: 56ef 123f b8cc a43d 3500 a3bf 51f9 75be
00000020: fbaf 72bf d0f3 2c3d aca0 713f e194 643e
00000030: 2d73 da3e 4d66 43be a312 583e ec7f e3bd
00000040: 60ed d63c ea57 193e 5893 013f 950b 893e
00000050: 46a6 f6bc 5bc8 3abe 6e27 89bf fed3 e7be
00000060: cb05 12be 030d 63be 132d 64bf 38be e1be
00000070: 15a5 003e 8729 87bd 265f 7bbf 6a86 7dbe
00000080: 0c23 5b3e e1d5 99be 0437 b6bf 9b05 0ebf
00000090: a072 45be 8054 fcbd 83d9 863d 3f13 6f3e
000000a0: eaed bbbe ae6c ec3d 9319 f8be f6e3 9cbd
000000b0: 899e cfbe 8572 773d 4ec4 e33e 8575 e03d
000000c0: a337 8b3d 01ab ccbe 4e45 3abf 08b8 20bf
000000d0: 080c 233f 2aca 35be cd64 1dbf 921a 91be
000000e0: cb26 163f 856d b5be 064d f6be da6b ffbe
000000f0: 80b4 9cbd 2a15 2abe 66e0 fcbe bab1 9cbe
00000100: 6a85 87bf 9451 5c3a b231 e23e 08d8 273e
00000110: 0ee7 c13e 44e1 92be 4e66 90bf eb75 ecbe
00000120: 4c9c dfbd 4d92 713e f366 aa3f 0b0f ee3e
00000130: 9527 d3be eefb dabe fde8 8e3e 0848 e9be
00000140: a8af 39be 9460 29be c706 c83e 4f01 ec3d
00000150: d722 e23e 5fbb 1dbe 3c07 afbf 8743 d6be
00000160: affd 693d 5cdb a1be 0785 2dbf 121f 06bf
00000170: 859f 63bf 7f05 f63d ffe5 a53f 3f6a ad3e
00000180: 4104 f1be 4218 863e f1f1 213f e7dd 053f
00000190: 1fc5 53be 6746 cb3e 6883 b73d 2689 ef3e
000001a0: 8420 9dbe 16a0 b13e 0ba7 913f d2dc 053f
000001b0: b063 7bbe d53c 3b3e c8cf 803f 6aee d23e
000001c0: a58a c2be c5b1 9a3d 9065 5d3e 47f2 8b3e
000001d0: 97a5 6f3e 5180 a1bd cd40 b6bf 6736 aebe
000001e0: 76e6 413e 0694 85be 04ce 7ebf 3e3a febe
000001f0: c884 cbbe cae8 453d d140 4cbf 23f0 97bd
00000200: b85a 35bf c4b3 f03e b2c1 0c3f 3acd 1a3f
00000210: 9619 5dbd 1662 d13d 74df 513e 1385 d53d
00000220: 3526 a6be b68e c7bc 8fc0 993f c113 6b3e
00000230: c830 863f cae5 463d 107f f2be db6c e0bd
00000240: 60d4 34bd edba 6cbe 3a38 bf3e ab25 8b3c
00000250: c11c 0a3e e017 67be 4506 9bbf dc64 f9be
00000260: 1d21 a7bd b2b1 773e 7745 683d 4d98 983e
00000270: 8cc4 9abe 050e 8c3e 3703 403f 4bc2 f23e
00000280: 8daf b6be 0a0d d33d 98bb c0be 8063 813d
00000290: 8562 253d b41b a1be f9c0 6dbe 4d7d d3be
000002a0: df5b 1b3f baae 613e 505e 89bf e172 a3bd
000002b0: 31a1 fd3e c302 90bd 64a1 86bf 2b0a 92be
000002c0: a050 993d f91f 79bd a1b7 54bf 2c0d 87be
000002d0: 2284 d8be 0483 5ebe cd26 623f ca2e 403c
000002e0: ac23 ff3a 0c0a 33bd 0c94 4bbf e1d0 a7be
000002f0: d51c 9bbe 0b77 f3bc ff0b 9d3e d1f1 733e
00000300: c778 48bf 3c15 15be 210e 9e3f ddb1 033e
00000310: 22a2 df3e 8978 62be eff1 cdbf e69d d7be
00000320: 37e9 cdbe 46ff 3d3e a14e d7bf d04f 24be
00000330: 6cd6 a8be e0d6 3fbe 4b22 a63f a0f8 023e
00000340: 8f5a 103f 34d9 b7be c84d c1bf 1702 07bf
00000350: 3cbd 2dbf 997d 973e 45db 8d3f 82c9 f33e
00000360: be56 053f 0283 8f3d 4d16 70be 566c eb3d
00000370: 1215 073f ea28 233e 03d8 39bf 5ec1 f4bd
00000380: c6d0 0a3f ecbc 7fbe b1cd 91bf 9f71 c4be
00000390: 14d0 3cbd a3eb bbbe d5cb 103f e2b3 07be
000003a0: 1444 8a3e 6148 33bd 5a76 87be 23f1 30bd
000003b0: 5c26 3e3e fa2a a43d 27f6 903f d683 b93e
000003c0: 65f4 41be dd71 863e bda7 113f 679c 003f
000003d0: b9e0 9c3e 7e95 e8be 8efd 2cbf 9f21 24bf
000003e0: bdda 0f3d 9fcc cc3d a35f a4be 3b78 8bbd
000003f0: 633d 16bf 12d6 60be 452f 2b3f 8dd5 093e

net.0.bias f4 [64]
-0.8285761 -1.0440885 -0.79118466 0.60362524 -1.0125458 1.0305434 -0.6842726 0.876683
1.1634907 0.30574262 -0.63295466 -0.34457088 1.0351291 0.67906123 -0.58120877 0.7591405
-0.69435096 -0.8444316 -1.0439949 -0.36556607 0.8267848 1.084373 1.0361849 -0.9619537
-1.0471631 -0.6914536 -0.91706526 -0.9892616 0.7037262 -0.9550827 0.9947966 0.5906169
0.7554631 0.7469163 -0.92271703 0.67224944 0.7738179 -1.048896 -0.6454337 -0.95904547
-0.66007274 0.71843594 -0.85235494 0.86170036 0.9154279 0.29978913 -0.974331 0.5395089
-0.8917938 -0.91403514 0.99987864 0.980928 -1.0021801 0.8327423 0.6523475 -0.7319091
-0.5667288 0.5857297 0.9657677 -1.0677004 0.81276643 -0.9868734 0.77978873 0.87168616
00000000: 901d 54bf b1a4 85bf 148b 4abf 2f87 1a3f
00000010: 1a9b 81bf d9e8 833f 7d2c 2fbf 4c6e 603f
00000020: 43ed 943f 4c8a 9c3e 5109 22bf 986b b0be
00000030: 1c7f 843f f5d6 2d3f 19ca 14bf 0857 423f
00000040: fcc0 31bf ab2c 58bf a0a1 85bf 7a2b bbbe
00000050: 2ba8 533f bccc 8a3f b5a1 843f 9942 76bf
00000060: 7109 86bf 1a03 31bf cac4 6abf 4040 7dbf
00000070: 6627 343f 4d80 74bf fdaa 7e3f ab32 173f
00000080: 0866 413f e835 3f3f 2f37 6cbf 8a18 2c3f
00000090: ee18 463f 3942 86bf 253b 25bf 0184 75bf
000000a0: 87fa 28bf 6beb 373f ef33 5abf 6598 5c3f
000000b0: 7c59 6a3f f67d 993e c26d 79bf 411d 0a3f
000000c0: 994c 64bf 35fe 69bf 0cf8 7f3f 191e 7b3f
000000d0: 7047 80bf 992e 553f 3f00 273f 655e 3bbf
000000e0: 2315 11bf 62f2 153f 8d3c 773f 68aa 88bf
000000f0: 7611 503f bca3 7cbf 3ca0 473f d326 5f3f

net.2.weight f4 [2, 64]
-0.4378997 -0.5383906 -0.5236852 0.31909811 -0.41570354 0.6816135 -0.5077553 0.58469284
0.60390985 0.17218421 -0.4755227 -0.2631372 0.7094874 0.67532283 -0.32853913 0.54062635
-0.42716178 -0.5218672 -0.6996487 -0.13665813 0.57285094 0.62270564 0.50084805 -0.7407925
-0.6593902 -0.43241188 -0.7997126 -0.5551028 0.5862424 -0.6824327 0.7227149 0.656807
0.48455748 0.30180293 -0.6957408 0.6115591 0.51248646 -0.56882304 -0.5902263 -0.7070833
-0.30237255 0.46109337 -0.47915596 0.4379368 0.6060823 0.08559812 -0.50193185 0.29394323
-0.6551484 -0.6680699 0.68302757 0.41554132 -0.51139796 0.66600126 0.4206315 -0.462814
-0.24880819 0.3657415 0.50031835 -0.59122026 0.51236546 -0.5875321 0.42455134 0.57091826
-0.50919396 -0.5809911 -0.44226235 0.50410074 -0.556489 0.5462077 -0.65265244 0.54491603
0.683889 0.2880843 -0.62927055 -0.17232604 0.5527234 0.61310524 -0.5456247 0.61603194
-0.40979695 -0.71845406 -0.69828475 -0.3289599 0.6060816 0.56226885 0.5946481 -0.5871908
-0.47331056 -0.43200487 -0.43589833 -0.5037874 0.66457254 -0.6995732 0.5086106 0.5380295
0.5947628 0.5937063 -0.53876776 0.6107036 0.5462322 -0.5210665 -0.53127563 -0.608847
-0.4372658 0.53315765 -0.5036729 0.31868494 0.48604798 0.2855031 -0.5445546 0.4160046
-0.48803708 -0.6247252 0.4662102 0.54884785 -0.59611475 0.65079665 0.5887048 -0.48414525
-0.578986 0.37178156 0.4967467 -0.6506392 0.44109342 -0.69332516 0.4088316 0.38189372
00000000: 6434 e0be f7d3 09bf 3c10 06bf d460 a33e
00000010: 18d7 d4be 397e 2e3f 40fc 01bf 6eae 153f
00000020: d699 1a3f 0f51 303e b677 f3be ebb9 86be
00000030: f7a0 353f f5e1 2c3f 4836 a8be 7d66 0a3f
00000040: f3b4 dabe 1799 05bf 2d1c 33bf 1cf0 0bbe
00000050: 5ca6 123f a369 1f3f 9437 003f 94a4 3dbf
00000060: cccd 28bf 1765 ddbe f7b9 4cbf 381b 0ebf
00000070: fb13 163f e9b3 2ebf d803 393f 8124 283f
00000080: eb17 f83e ea85 9a3e 121c 32bf 238f 1c3f
00000090: 5032 033f 639e 11bf 1219 17bf 6903 35bf
000000a0: 93d0 9abe 6e14 ec3e ee53 f5be 4139 e03e
000000b0: 3628 1b3f 114e af3d 9b7e 00bf ba7f 963e
000000c0: ceb7 27bf a106 2bbf e5da 2e3f d5c1 d43e
000000d0: faea 02bf 0f7f 2a3f 035d d73e f5f5 ecbe
000000e0: 93c7 7ebe 7842 bb3e dd14 003f 365a 17bf
000000f0: 622a 033f 8168 16bf cb5e d93e b327 123f
00000100: 895a 02bf d5bb 14bf 3670 e2be bf0c 013f
00000110: 1076 0ebf 45d4 0b3f 3b14 27bf 9e7f 0b3f
00000120: 5913 2f3f c97f 933e e017 21bf 3d76 30be
00000130: 487f 0d3f 77f4 1c3f 0fae 0bbf 45b4 1d3f
00000140: e8d0 d1be 9bec 37bf cac2 32bf 6f6d a8be
00000150: 2a28 1b3f daf0 0f3f dc3a 183f 2352 16bf
00000160: c355 f2be be2f ddbe 112e dfbe 36f8 00bf
00000170: 6d21 2a3f 3b17 33bf 4e34 023f 4dbc 093f
00000180: 6042 183f 23fd 173f afec 09bf 1257 1c3f
00000190: e0d5 0b3f 9d64 05bf ae01 08bf 66dd 1bbf
000001a0: 4ee1 dfbe 057d 083f b5f0 00bf ac2a a33e
000001b0: 48db f83e 762d 923e ee67 0bbf 8efe d43e
000001c0: ffdf f9be feed 1fbf 1ab3 ee3e 4b81 0c3f
000001d0: fa9a 18bf 9c9a 263f 5cb5 163f e3e1 f7be
000001e0: 6d38 14bf 275a be3e 9555 fe3e 4a90 26bf
000001f0: ffd6 e13e c27d 31bf 6052 d13e 9387 c33e

net.2.bias f4 [2]
0.570078 0.50376815
00000000: a2f0 113f f3f6 003f
