models/30000.pth (torch_old, 2645 bytes, 4 tensors)

net.0.weight f4 [64, 4]
000000 ad a6 b4 bd 47 24 0c bd 39 d0 04 bf fd b0 3c be
       -0.088208534 -0.034214284 -0.5188022 -0.1842689
000010 54 e0 fc 3b c9 3e 4c be af c2 1e 3f 4b 6b 99 bb
       0.0077171717 -0.19945826 0.62015814 -0.00468198
000020 87 17 3b bd 9a a0 a1 be 9f ae c8 be 2f e3 cd be
       -0.045676734 -0.31567842 -0.39195725 -0.4021239
000030 d0 cb ad 3d da 16 54 3e 2e 63 a9 3f ea f3 e7 3e
       0.0848614 0.20711842 1.3233392 0.4530328
000040 60 67 99 3e 84 fb 4e 3d 88 de 06 3e d4 50 5e 3d
       0.2996168 0.050532833 0.13170826 0.054276302
000050 2b 83 f6 3d 40 7e 1f be 34 e0 44 bf 27 a6 c3 be
       0.12036737 -0.15575504 -0.76904607 -0.38212702
000060 3b f6 fa 3e a5 68 b3 3d 26 45 9e bf 9c c7 3f be
       0.49015984 0.08760194 -1.2364852 -0.18728489
000070 5b d7 cf bd fa 79 ad 3e 3f db 01 bf 79 ff 20 be
       -0.10148498 0.33882123 -0.5072517 -0.15722455
000080 c6 1f de 3e 74 30 82 3d 56 9d 35 3f b0 37 56 3e
       0.43383616 0.06356898 0.709432 0.2091968
000090 cc 48 11 bf bc 57 cc bc 59 99 90 3f 94 04 5b 3e
       -0.56751704 -0.024944179 1.1296798 0.21388465
0000a0 20 50 48 3e 37 58 9e be 7b 56 b9 bf b9 49 09 bf
       0.19561815 -0.30926678 -1.4479517 -0.53628117
0000b0 f2 08 f1 3e 39 1a 44 3e f5 55 0f bf 98 53 fc 3c
       0.47077137 0.19150628 -0.55990535 0.03080158
0000c0 73 5d 80 3e bd 5e 87 be 12 80 86 bf 1d 01 01 bf
       0.25071296 -0.26439467 -1.0507834 -0.50392324
0000d0 26 d6 0b 3f 68 34 e0 bd c1 86 27 bf 82 0c 86 be
       0.5462364 -0.10947496 -0.65439993 -0.26181418
0000e0 f9 db d4 3e 3e 3c 05 3e 8f 20 bb be c2 e5 82 bd
       0.41574076 0.13011262 -0.36548278 -0.06391479
0000f0 88 5c c7 be 71 ef 8e 3e 85 3a c1 3f 2e 8c 10 3f
       -0.38937783 0.27917054 1.5095984 0.564639
000100 76 ac 9d be e2 9b a7 3e 72 42 24 3f 22 21 0d 3f
       -0.3079564 0.32736117 0.6416389 0.5512868
000110 31 e7 7f 3e cb fb 52 3d de 37 8a 3f f9 9b 9e 3e
       0.24990536 0.05150966 1.0798299 0.30978373
000120 91 95 0d bc d3 36 6d be 0d 2b c7 bf 70 6f fc be
       -0.008641616 -0.23165445 -1.5560013 -0.4930377
000130 21 d0 6d 3e 6e c0 31 bd 51 ca 15 bf 75 a5 6e be
       0.23223926 -0.043396406 -0.58511835 -0.23305304
000140 21 6e ed 3e 1c 24 45 bd 09 3f ad bf de 8a 9b be
       0.46373084 -0.04813014 -1.3534862 -0.30379385
000150 8f 24 85 3e 72 a4 82 3d 66 f4 83 3f 57 8d a8 3e
       0.26004454 0.06379022 1.030896 0.32920334
000160 a3 81 a2 be 3e ce c7 3e 71 92 02 3f 5c d8 08 3f
       -0.3173953 0.39024538 0.510047 0.5345514
000170 72 f4 5a be 7a 19 1f be a8 3c 91 3e 8d 0c 81 be
       -0.21382311 -0.15537062 0.2836659 -0.25204888
000180 28 ee c6 bd e0 19 4f 3e f0 30 ca 3f f5 79 06 3f
       -0.097133934 0.20224714 1.5796185 0.5252984
000190 d2 d6 36 bf 0a 6e be 3d cf a8 10 3f cb e9 bc 3e
       -0.7142154 0.09298332 0.5650758 0.3689712
0001a0 91 75 38 be f9 68 22 3d b7 9f ae 3f e6 ed 8c 3e
       -0.18013598 0.03965089 1.3642491 0.27525252
0001b0 33 05 70 bf 4d 30 5e 3e cd 57 36 3f 58 0c f5 3e
       -0.93757933 0.21698113 0.71227723 0.4786098
0001c0 49 6f c3 bd 64 a0 bc 3d c2 7f 7b 3f 03 d6 b2 3e
       -0.0954271 0.092102796 0.9824182 0.34928903
0001d0 7a 13 41 be a8 d0 e9 bd 81 ef 50 bf 97 a7 a4 be
       -0.18855086 -0.11416751 -0.81615454 -0.3215911
0001e0 5d c9 bf 3e 3c 69 40 3d de 84 c0 3e ef cc 9c 3b
       0.37458315 0.04697536 0.3760137 0.004785172
0001f0 5d 4f 55 bf d9 e6 25 3c 4b dc a2 3f 7f 1b 96 3e
       -0.83324224 0.010125839 1.2723478 0.29317853
000200 1e 77 fa 3d b0 76 25 3e db f7 c9 be 6f 64 dd bc
       0.12229751 0.16158557 -0.3944691 -0.02702543
000210 4b dc a4 3e 38 80 82 be cb c0 11 bf e6 9a ee be
       0.3219932 -0.25488448 -0.56934804 -0.46602553
000220 ac 72 7c 3d ba e0 45 bc a2 94 86 bf 1e 11 75 be
       0.061632797 -0.012077505 -1.0514109 -0.23932311
000230 c6 61 32 bf be e1 5a bd 3f 17 51 3f 48 d3 30 3e
       -0.6968044 -0.05343794 0.81676096 0.17268097
000240 c3 cd a7 be 14 52 16 3e 82 c6 df 3e 9f bb 91 3e
       -0.3277417 0.14679748 0.43706137 0.28463456
000250 9e af b1 bc d8 fe 46 be 78 b2 17 bf 75 09 b9 be
       -0.021690186 -0.19433153 -0.59256697 -0.36140028
000260 11 be 06 3d 48 c7 cc 3c 7f 00 84 bf c5 ad 7c be
       0.032896105 0.024997368 -1.0312651 -0.24675663
000270 9c 9f 5a 3e 21 04 89 3d f0 91 ac 3e 08 85 08 3e
       0.21349949 0.06690241 0.3370509 0.13331997
000280 b7 6d a8 3e 57 4c 5d bd e9 72 6b 3f be 4d 1e 3e
       0.32896206 -0.05402788 0.91972214 0.15459344
000290 3b 90 01 3f f7 ad 10 3d 2d da b6 3d 65 cb d8 3b
       0.50610703 0.035322156 0.089283325 0.0066160434
0002a0 a2 39 62 3e 4c c9 c5 bd ca 49 ad bf 7d f5 a5 be
       0.22092298 -0.09657535 -1.3538144 -0.32413855
0002b0 0d 44 77 be d8 59 78 3e 64 00 8f 3f ff eb fe 3e
       -0.24147053 0.24253023 1.1171994 0.49789426
0002c0 84 6d ba bd 98 cc df 3d 19 92 32 3e 72 cb 79 3e
       -0.0910292 0.10927695 0.17438544 0.24394014
0002d0 93 ee ba 3e 85 a8 2b be 5b 73 8b bf 20 66 b2 be
       0.36510143 -0.16763504 -1.0894579 -0.3484354
0002e0 85 c0 67 3e aa 8e a1 3b 45 ab 43 bf 63 43 5b be
       0.22632034 0.004930337 -0.7643321 -0.21412425
0002f0 33 ef 60 ba 88 14 d7 3d bc 89 62 3f 84 74 d3 3e
       -0.00085805653 0.10501963 0.88491416 0.41299832
000300 ea 9b a0 be fb b0 b3 bd e1 92 c1 be 10 3b 81 be
       -0.31368953 -0.08773991 -0.37807372 -0.25240374
000310 08 02 c7 3e a9 de 11 bc 7e 09 ca 3e fa e0 37 3d
       0.38868737 -0.008903184 0.39460367 0.04489229
000320 23 27 d4 3e 78 ca ac be c4 13 58 bf 7f 88 b5 be
       0.4143611 -0.3374822 -0.8440516 -0.354557
000330 3f 5a b8 3e 3b e0 9d 3e cb 0c 3d 3f 68 24 e4 3e
       0.36006352 0.30835137 0.73847646 0.44559026
000340 19 34 b3 3c 12 71 8e be 7c f4 05 bf d3 6e df be
       0.021875428 -0.2782064 -0.5232618 -0.4363924
000350 ba 7b fc 3d 7e b8 0e 3e 0e 28 60 3b b6 d7 8b 3d
       0.123282865 0.13937566 0.0034203562 0.06828253
000360 b1 36 b1 bd 1a c8 93 3e f6 d6 5d 3f 50 cf dc 3e
       -0.0865301 0.28863603 0.8665613 0.43126917
000370 2d 43 1b bf 0b 9c 0e bd a5 8d 9c 3f a1 c0 94 3e
       -0.6064938 -0.034816783 1.2230726 0.29053214
000380 ad f5 41 3f 46 c4 79 bd 2a 8b 88 bf 8f ed 89 be
       0.75765496 -0.060978197 -1.066747 -0.26939055
000390 8a dc 06 bf 07 69 ab bd df 01 25 3f 29 a0 a4 3d
       -0.52680266 -0.08369642 0.6445598 0.080383606
0003a0 a8 65 3e 3d cb 2e 09 3e f1 d3 b5 bb a2 e7 8d 3e
       0.046483666 0.13396756 -0.005548947 0.27715784
0003b0 5a b9 e4 3e 5e 27 aa 3d f1 85 10 be 8a a7 b4 ba
       0.44672662 0.0830829 -0.14113595 -0.0013782841
0003c0 1c 2c e4 be 3c 39 9a bc 3d fe 71 3f 8c e6 98 3e
       -0.44564903 -0.01882612 0.9452856 0.29863393
0003d0 86 ad 57 3e 76 f9 6f 3d cd 5b c4 bf 95 24 44 be
       0.21062288 0.058587514 -1.5340515 -0.1915458
0003e0 45 57 73 be f2 d8 74 3e e4 16 3e bf 73 fc 93 3d
       -0.2376376 0.23910883 -0.7425368 0.07225885
0003f0 fc f1 92 3e 6e e1 07 3e 11 9e 37 3e a5 73 8f 3e
       0.28700244 0.13269588 0.17931391 0.28017917

net.0.bias f4 [64]
000000 bc ab 61 bf cf b6 c8 3e 46 75 f8 be 9c 2d 8f 3f
       -0.8815267 0.39201972 -0.48526973 1.1185794
000010 40 01 41 3f 06 61 8b bf 28 d8 81 3f 8c d6 02 3e
       0.7539253 -1.0888984 1.0144091 0.12777156
000020 58 3d 2b bf ce 90 75 bf d5 39 91 bf 41 03 25 bf
       -0.6689048 -0.9592408 -1.1345774 -0.6445809
000030 13 98 87 3f 54 b3 3d 3f 0f 5d 6b 3f a5 f8 9c bf
       1.0593284 0.7410176 0.9193887 -1.226338
000040 5d 2a 93 3f 43 0d 81 bf 0a 5e 97 bf 8a 7a 76 bf
       1.1497303 -1.0082172 -1.1825573 -0.9628073
000050 ba bb 82 bf f4 9c 80 bf 0d 1e 79 3f bf 5e e4 3e
       -1.021354 -1.0047898 0.9731148 0.44603536
000060 52 2d 9d bf 73 7d 8d bf 66 e0 81 3f 00 7a 92 bf
       -1.2279456 -1.1053909 1.0146606 -1.1443481
000070 2a 38 88 bf 1c 9d 7a bf c8 65 06 bf 6b 94 90 bf
       -1.064214 -0.9789598 -0.52499056 -1.1295294
000080 b9 45 59 3f 81 9f 7f 3f 9e cc 5f bf 48 03 3a 3f
       0.84872013 0.9985276 -0.87421596 0.72661257
000090 1f d9 39 bf 15 cc 4c bf a0 62 88 3f d8 0e 27 3f
       -0.72596925 -0.79998904 1.0655098 0.65257025
0000a0 b9 e2 5f bf 62 1b 68 bf e6 b0 76 bf 81 db 93 3f
       -0.87455326 -0.9066678 -0.96363676 1.1551362
0000b0 4e 79 4a 3f 12 04 4e bf bc 1d f5 3e eb 5e 98 bf
       0.79091346 -0.8047496 0.47874248 -1.1903967
0000c0 35 b9 6b bf 88 5f 63 3f f0 48 96 be a6 e1 3a bf
       -0.9207948 0.88817644 -0.29352522 -0.7300056
0000d0 17 2e 42 bf 39 81 3d 3f 8d f9 40 3f a9 57 93 bf
       -0.7585158 0.74025303 0.75380784 -1.1511127
0000e0 90 ff 7a bf ba 3f 48 bf d6 b9 48 bf c1 dd 66 bf
       -0.9804621 -0.7822224 -0.78408563 -0.9018212
0000f0 81 38 91 bf 1a fc 78 bf 17 72 31 3f b7 e3 55 bf
       -1.1345369 -0.97259676 0.6931471 -0.8355059

net.2.weight f4 [2, 64]
000000 97 6b 23 bf 00 6b 55 3e d2 c9 92 be 21 cc 40 3f
       -0.63836044 0.20841599 -0.28669602 0.75311476
000010 98 87 25 3f 57 9c 27 bf b0 e5 48 3f b3 61 2c 3e
       0.64660025 -0.6547293 0.78475475 0.16834144
000020 0f 25 1f bf 06 5e 44 bf 69 34 22 bf e1 8e c9 be
       -0.6216592 -0.7670597 -0.6336122 -0.3936682
000030 c8 98 33 3f 19 cb 35 3f 9f 6d 2e 3f d9 15 43 bf
       0.70155 0.7101303 0.6813602 -0.7620521
000040 2e 69 1c 3f e7 98 2a bf b0 3b 24 bf 92 bc 2c bf
       0.6109799 -0.6663956 -0.64153576 -0.67475235
000050 b0 66 0c bf fc 8c 2a bf bf e0 36 3f cf 6c 92 3e
       -0.5484419 -0.66621375 0.71436685 0.2859864
000060 86 bc 5b bf 4e e4 39 bf 04 a2 21 3f 38 60 4d bf
       -0.8583454 -0.7261399 0.6313784 -0.80224943
000070 cb 91 12 bf 25 0f 23 bf 77 77 bf be 71 ff 31 bf
       -0.5725371 -0.63694984 -0.37395832 -0.695304
000080 d1 c3 f7 3e 8f d4 45 3f 42 f1 f4 be ad 35 cf 3e
       0.48391584 0.77277464 -0.47840315 0.4047064
000090 eb 65 05 bf 6c d2 24 bf 9e 99 2e 3f 83 da e3 3e
       -0.5210864 -0.6438358 0.6820315 0.4450265
0000a0 aa f1 05 bf 71 6a 24 bf e7 4f 16 bf 03 6d 1c 3f
       -0.52321875 -0.64224917 -0.5871567 0.6110384
0000b0 ac 7f ef 3e e3 30 15 bf 99 f8 ec 3e 6e cc 0e bf
       0.46777093 -0.5827772 0.46283415 -0.55780685
0000c0 8b b9 31 bf 69 67 f1 3e d6 b3 aa bd e8 75 18 bf
       -0.6942374 0.47149208 -0.08335082 -0.5955491
0000d0 e9 83 ea be 79 45 20 3f a4 73 21 3f 31 0c 37 bf
       -0.45803764 0.62606007 0.6306708 -0.7150298
0000e0 f9 a8 1a bf d5 a0 10 bf 02 c1 f0 be fd 5f 0b bf
       -0.6041408 -0.5649541 -0.47022253 -0.5444334
0000f0 b8 f6 20 bf 92 60 fc be 32 96 dd 3e 6a 1a 01 bf
       -0.6287646 -0.49292427 0.43278652 -0.5043093
000100 05 33 15 bf e5 2c 95 3e b8 2b 09 bf 06 c4 4b 3f
       -0.58280975 0.29135814 -0.53582335 0.79595983
000110 01 5a 28 3f d6 99 2a bf c3 74 2d 3f 97 53 9e bd
       0.65762335 -0.66640985 0.6775629 -0.07730787
000120 96 28 c7 be 4d a7 3d bf c3 a2 59 bf f1 30 c4 be
       -0.38898152 -0.74083406 -0.8501398 -0.3831859
000130 45 21 ea 3e 07 de 17 3f 32 9d 3b 3f 57 06 22 bf
       0.45728508 0.5932316 0.73286736 -0.63290924
000140 02 93 21 3f af 3d 1c bf f8 9f 3b bf 2e a7 34 bf
       0.6311494 -0.6103162 -0.7329097 -0.70567596
000150 46 a3 43 bf 68 7d e0 be d1 52 0c 3f e9 77 83 3e
       -0.7642101 -0.43845677 0.5481387 0.25677422
000160 16 0f 21 bf f8 09 15 bf 49 84 23 3f 9c 1a 26 bf
       -0.62913644 -0.58218336 0.63873726 -0.6488435
000170 a9 f3 29 bf fa 8a 07 bf 69 74 97 be 7f 56 27 bf
       -0.6638742 -0.52946436 -0.29581 -0.6536636
000180 e5 cf 16 3f e8 fe 30 3f 94 7b 28 bf 9e da 2d 3f
       0.5891097 0.69138956 -0.65813565 0.6791171
000190 35 98 10 bf 6d d0 12 bf 29 8a 2e 3f 7b 7a 15 3f
       -0.5648225 -0.5734928 0.68179566 0.58390015
0001a0 30 5c 08 bf 67 48 2c bf 47 e9 42 bf e8 08 36 3f
       -0.53265667 -0.6729798 -0.761372 0.7110734
0001b0 9c 34 eb 3e b4 48 41 bf b4 d8 c3 3d 27 ca 3a bf
       0.45938575 -0.7550156 0.09562817 -0.7296471
0001c0 ac 4f 1e bf b8 5f 05 3f 56 2c b9 be f3 20 b0 be
       -0.6184032 0.5209918 -0.36166638 -0.34400138
0001d0 82 10 07 bf 35 bf 26 3f 18 17 50 3f 00 5c 27 bf
       -0.52759564 0.6513551 0.8128524 -0.65374756
0001e0 f6 61 13 bf 63 56 0b bf 1f 38 13 bf 4d 8e 2a bf
       -0.5757135 -0.5442869 -0.5750751 -0.66623384
0001f0 67 f7 2e bf b5 3a 16 bf b2 4f db 3e f2 d0 1c bf
       -0.68346256 -0.5868333 0.4283424 -0.61256325

net.2.bias f4 [2]
000000 a0 c1 1f 3f ac 12 fc 3e
       0.62404823 0.49232996
