models/35000.pth (torch_old, 2645 bytes, 4 tensors)

net.0.weight f4 [64, 4]
00000000: 017c e5bd b9ec 45bd 1ca6 12bf 6a51 41be
00000010: dd6f 163c 005e 38be 8971 313f 1e89 313b
00000020: 3496 43bd 5939 95be 0d1f dcbe b18f cabe
00000030: 112d e73d 5b1b 503e b749 af3f 0020 e93e
00000040: ae04 a13e ded0 653d 1813 2d3e c1d5 803d
00000050: 14d1 b83d d407 22be 1c8a 52bf 0a7a c3be
00000060: af54 023f 930f d73d 30b9 9dbf 133f 39be
00000070: 20c0 dabd fcb2 993e 5411 1dbf 5b95 04be
00000080: 8ca4 ed3e 11a9 5b3d e804 423f d7e2 563e
00000090: 7f8f 15bf b4b1 35bd a94a 8e3f 6d19 523e
000000a0: 5bfd 1b3e 1f2a 96be 1d0b bebf 19d3 0abf
000000b0: 0347 fe3e 1931 343e c97a 18bf e5ac e13c
000000c0: 211c 6e3e 8505 6ebe 4230 89bf b999 febe
000000d0: ce9f 0f3f 20db b1bd dda0 20bf 95f9 7cbe
000000e0: f2d1 db3e 6555 043e 05db b8be d22d 65bd
000000f0: fb88 c3be 1f0d 6f3e c53a c33f d80a 113f
00000100: d784 8ebe 53a8 a03e 05d2 2d3f e868 0b3f
00000110: 33a5 963e d87e 2a3d 1a1c 8f3f 26f0 9c3e
00000120: 89c6 3abd 7a2e 68be c594 cdbf 479b 00bf
00000130: 687e 723e 1636 15bd 3f20 20bf 1422 68be
00000140: 661f f43e 76f8 9dbc 70d3 afbf eadc 95be
00000150: a022 9a3e c8d0 663d b97c 8b3f a334 a73e
00000160: 8ac9 95be 618e c03e 1df2 033f 0135 043f
00000170: f795 6ebe 4881 26be 03f4 8c3e d463 74be
00000180: 1582 93bd f212 2b3e 4741 cf3f 8e65 073f
00000190: 75fb 3bbf d88c 983d d2a3 103f ecf5 b63e
000001a0: 0f0a 1fbe 5bb7 093d 7d1c b33f e705 8c3e
000001b0: 3ced 73bf cbc4 453e 8757 343f abc5 f03e
000001c0: fdb3 9dbd a447 963d 2a62 7e3f 32af b03e
000001d0: 0033 56be 7ee3 f7bd 4baf 5cbf da2e a2be
000001e0: 0378 cf3e 2986 f93c b039 c33e cae5 b63c
000001f0: 35fd 56bf ac60 88bb e674 a23f 9cff 963e
00000200: 2ef3 123e c3eb 253e 977b c6be 447f 7fbc
00000210: 2698 a43e cc6f 67be 5d7e 11bf 06c6 e7be
00000220: 39b0 143d d5b2 89bc 9222 8ebf 79bc 76be
00000230: ab46 39bf 2880 55bd efa8 5c3f 9bd6 293e
00000240: 280d afbe bcdf f43d ad84 ce3e bdea 893e
00000250: 213f 27bd 428e 47be fd67 1fbf f7c8 b2be
00000260: ca58 863c d1e2 fb3c e55e 88bf 6c30 7fbe
00000270: a619 6a3e 53e9 8a3d 9b77 c93e 4f9f 153e
00000280: f269 bf3e a1b3 49bd 0f57 753f a04e 213e
00000290: 005b 0c3f b265 133d 6885 b13d 5121 253c
000002a0: 779f 473e c843 abbd 3a5f b1bf 50e7 a3be
000002b0: 99d2 50be 5e5c 6d3e 07d0 943f 548d ff3e
000002c0: 613f a2bd 0dca eb3d 50f4 5d3e 8625 733e
000002d0: 59f3 b73e dc63 11be 5955 8cbf d2bc a9be
000002e0: 3624 683e 51e5 26bb c2bb 4dbf 52ff 46be
000002f0: efe3 d23c 305f b83d 912c 6a3f 78a9 d23e
00000300: 475b a6be 5224 c1bd bdf7 dabe cb83 7bbe
00000310: b322 d03e 5856 1db6 9271 e63e 8780 793d
00000320: fd81 d03e f4b8 a2be 8740 68bf 78be babe
00000330: d018 c83e 270c 8d3e 23da 423f 54a2 da3e
00000340: dd9d b43b eddf 89be 8a0b 0dbf e207 d7be
00000350: 1749 113e f1aa 0c3e bfbf cd3c f292 a73d
00000360: fc6c 88bd 5f5c 8b3e c56f 623f dddb d53e
00000370: 6874 21bf 3c26 6dbd c866 9c3f eac6 913e
00000380: 6e99 4b3f b1df 05bd 7229 87bf a113 80be
00000390: c947 07bf ede3 aabd 5e77 233f bd8a a63d
000003a0: 7bbe 853d be73 093e a83a eabb 73cd 853e
000003b0: 1bb0 f93e f48f a83d 6d5f 30be 791e 59bb
000003c0: 1041 f3be 0979 2fbd 81bd 713f 3d62 943e
000003d0: 74c1 493e 1e96 883d f32c c9bf 772b 43be
000003e0: f7ee 81be b665 5e3e 6fc8 45bf dca9 833d
000003f0: a081 a33e 464a 033e 3fd0 413e ac7e 883e
-0.112052925 -0.04832146 -0.5728471 -0.18878713 0.009181944 -0.18004608 0.69313866 0.0027089785
-0.047750667 -0.29145315 -0.4299244 -0.39562753 0.112878926 0.20322935 1.3694371 0.45532227
0.31448883 0.056107394 0.16901815 0.0629077 0.090242535 -0.15823299 -0.8224199 -0.38179046
0.50910467 0.105010174 -1.232214 -0.18090467 -0.10681176 0.30019367 -0.61354566 -0.129476
0.46414602 0.05362803 0.75788736 0.2098497 -0.5842208 -0.044358924 1.1116534 0.20517512
0.15233366 -0.2932901 -1.4847142 -0.5422836 0.49663553 0.17596854 -0.59562355 0.027548263
0.23252918 -0.23244293 -1.0717852 -0.49726656 0.5610322 -0.08684373 -0.6274546 -0.24704583
0.42933613 0.129232 -0.361046 -0.0559519 -0.38190445 0.23344849 1.525231 0.5665717
-0.27835724 0.3137842 0.6789859 0.5445695 0.29422912 0.041624874 1.1180451 0.3065197
-0.045599494 -0.2267398 -1.6061026 -0.50236934 0.23681033 -0.036428533 -0.62549204 -0.2266925
0.47680205 -0.019283514 -1.3736401 -0.29270107 0.30104542 0.056351453 1.0897437 0.32657346
-0.29255325 0.37608626 0.5154131 0.5164338 -0.23299395 -0.16260254 0.27529916 -0.23866206
-0.072025456 0.16706446 1.6191796 0.52889335 -0.7343057 0.07448739 0.5649997 0.35734499
-0.15531181 0.033622127 1.3993069 0.27348253 -0.95283866 0.19313352 0.70446056 0.4702581
-0.07700346 0.07337883 0.99368536 0.34508663 -0.20917892 -0.121039376 -0.86204976 -0.3167637
0.4052125 0.03045948 0.3812995 0.022326369 -0.83980113 -0.004161915 1.2691925 0.2949189
0.14350578 0.16203217 -0.38766167 -0.015594307 0.3214733 -0.22601241 -0.5683344 -0.45268267
0.03630087 -0.016808907 -1.11043 -0.24095334 -0.72373456 -0.052124172 0.8619527 0.16585772
-0.34189725 0.119567364 0.403356 0.26936904 -0.04083169 -0.19487861 -0.6226805 -0.3491895
0.01639976 0.030747803 -1.065396 -0.24920815 0.22861347 0.06782784 0.39349064 0.14611553
0.37385517 -0.049243573 0.95835966 0.1575265 0.54826355 0.035985656 0.08668023 0.010078744
0.19494425 -0.083625376 -1.3857186 -0.32012415 -0.20392837 0.23179767 1.1625985 0.49912512
-0.07922245 0.115131475 0.21675229 0.23744783 0.35927847 -0.1419825 -1.0963546 -0.3315187
0.22670063 -0.0025466273 -0.8036462 -0.19433334 0.025743453 0.090025306 0.9147425 0.4114492
-0.32491514 -0.09430756 -0.42767134 -0.24561994 0.40651473 -2.3445082e-06 0.45008522 0.06091359
0.40724173 -0.31781733 -0.9072346 -0.3647344 0.3908143 0.27548334 0.761141 0.42701972
0.005511983 -0.26928654 -0.5509573 -0.41998202 0.14188038 0.13737084 0.025115846 0.081823245
-0.06661412 0.2721891 0.88451797 0.41769305 -0.63068247 -0.05789779 1.2218866 0.28472072
0.7953099 -0.032684032 -1.0559523 -0.25014976 -0.5284391 -0.08344255 0.63854015 0.08131931
0.06530472 0.13423058 -0.0071481057 0.26133308 0.4876717 0.08230582 -0.17223902 -0.0033129735
-0.47510576 -0.042840037 0.94429785 0.289812 0.19702703 0.066692576 -1.5716842 -0.1905955
-0.25377628 0.21718487 -0.7725896 0.064288825 0.31934834 0.12821302 0.18927096 0.26659143

net.0.bias f4 [64]
00000000: 4123 70bf 0f03 e73e 6fd6 0abf d5c3 963f
00000010: dae0 4f3f 48b8 92bf 9b8a 893f 7e8a 1e3e
00000020: 7cd9 3bbf 9aaa 82bf 8f6c 99bf 249e 35bf
00000030: a073 913f 536c 4d3f 652e 7a3f fc56 a8bf
00000040: 5239 9b3f fb9b 89bf bd12 9fbf ecfc 82bf
00000050: fbba 8abf d5ef 88bf e287 843f 5018 023f
00000060: 2fd3 a7bf 7006 95bf 2e8b 893f 37a9 9abf
00000070: 4a25 91bf 9c96 84bf 7fdc 16bf e7de 98bf
00000080: ec17 683f a3eb 883f 2b67 6ebf 1544 4a3f
00000090: 3ad8 49bf aad2 5bbf 60c0 903f 82cd 353f
000000a0: 7953 70bf e3ab 78bf 8b17 83bf d2ca 9b3f
000000b0: 4e97 593f e6c5 5dbf fd54 093f df58 a1bf
000000c0: e290 7abf dfb0 713f b77d adbe 1b23 4cbf
000000d0: 155e 51bf 6f4e 4c3f ac40 503f b720 9bbf
000000e0: 1e75 85bf 87d3 57bf 7616 59bf cf39 77bf
000000f0: 7af4 98bf 382d 84bf 8242 413f 11cb 66bf
-0.93803793 0.4511952 -0.5423345 1.1778513 0.8120247 -1.1462488 1.0745424 0.15482518
-0.7337873 -1.0208313 -1.1986254 -0.7094443 1.1363411 0.80243415 0.9772704 -1.3151546
1.2126868 -1.0750726 -1.2427593 -1.0233436 -1.0838312 -1.0698191 1.0353968 0.5081835
-1.3111323 -1.164259 1.0745599 -1.208289 -1.1339505 -1.0358462 -0.589302 -1.1943024
0.906615 1.0696911 -0.9312617 0.79010135 -0.7884556 -0.8586832 1.1308708 0.71016705
-0.9387737 -0.9713728 -1.024156 1.2171271 0.849965 -0.86630094 0.53645307 -1.2605246
-0.97877324 0.9441051 -0.33884975 -0.79741067 -0.8178418 0.7980718 0.8134868 -1.2119359
-1.0426366 -0.8430714 -0.847999 -0.96572584 -1.1949608 -1.03263 0.7549211 -0.90153605

net.2.weight f4 [2, 64]
00000000: 02b1 31bf 2dd3 803e b277 abbe df04 503f
00000010: 7886 343f f39d 35bf 4611 593f 0951 513e
00000020: c469 2ebf 7b98 54bf 4e66 30bf 8110 e3be
00000030: 2a18 433f 6787 453f 05ef 3d3f 4d4f 53bf
00000040: 2a22 2a3f a220 3abf ad62 33bf a145 3abf
00000050: f954 19bf b707 3abf 097b 443f 23bc ab3e
00000060: 8608 6cbf 8e93 49bf 9d11 2f3f bf5a 5dbf
00000070: 94eb 21bf e217 32bf 5ac4 dbbe fe88 42bf
00000080: 12c2 0a3f c8b4 543f 2df3 07bf 2a11 e83e
00000090: ef3e 14bf fa1d 33bf e2ea 3d3f 227a 003f
000000a0: 5a4b 15bf 309f 32bf 8f8c 23bf 6d38 2a3f
000000b0: 399b 053f 4fb6 21bf 0bec 053f 6113 1ebf
000000c0: 67f1 40bf f3d0 073f 7324 eabd aba3 27bf
000000d0: 915c 03bf edf6 2e3f 071e 2f3f 2a38 47bf
000000e0: 2fc2 27bf 0f95 20bf 785b 06bf cc45 19bf
000000f0: 6784 30bf a141 0bbf 285c fb3e 846c 0fbf
00000100: 5d7a 24bf 58a1 b23e 2413 1abf 1ca2 5c3f
00000110: bdd8 373f 6fe2 39bf d004 3c3f 165b 91bd
00000120: 9759 debe 2634 4cbf 0bd0 69bf e19f e0be
00000130: b1fa 003f 6e9b 253f bd00 4b3f 1e54 2ebf
00000140: b57e 303f a41d 29bf ae8b 4cbf e85d 43bf
00000150: d46a 53bf af41 fabe dfde 1a3f ddaa 9b3e
00000160: ab96 2dbf 2094 24bf a779 333f e9bb 35bf
00000170: 01be 36bf 76fb 17bf ca87 aebe 2f0c 37bf
00000180: 37e4 243f 957d 3d3f c575 38bf fa74 3d3f
00000190: 5854 1dbf 3cc6 22bf 1fa4 3b3f 2b91 253f
000001a0: 2628 15bf 9f0a 3abf 5bed 52bf f8b3 453f
000001b0: b4f2 033f 14d5 50bf f9d6 0d3e a100 48bf
000001c0: 825c 2ebf 3c47 153f 5b94 dabe cb86 c4be
000001d0: d1e7 16bf 7476 353f 2f49 603f 1e77 36bf
000001e0: 861e 23bf 6f89 1abf 042b 20bf 7684 38bf
000001f0: eb7c 3dbf 005d 26bf 1f16 f43e b5c6 29bf
-0.6941072 0.25161114 -0.33489758 0.8125743 0.70517683 -0.70944136 0.8479198 0.20441069
-0.68130136 -0.83045167 -0.68906105 -0.4434853 0.76208746 0.7715973 0.7419284 -0.8254288
0.6645838 -0.72706044 -0.7007244 -0.72762495 -0.59895283 -0.7266802 0.76750237 0.33541974
-0.92200506 -0.78740776 0.6838625 -0.8646659 -0.6325009 -0.6956769 -0.42923242 -0.75990283
0.5420238 0.8308835 -0.5310543 0.45325595 -0.5790853 -0.69967616 0.7418653 0.5018636
-0.583181 -0.6977415 -0.6388635 0.6649235 0.52189976 -0.63168806 0.523133 -0.6174832
-0.7536835 0.53053206 -0.114327334 -0.6548411 -0.5131312 0.6834553 0.68405193 -0.77820075
-0.65530676 -0.62727445 -0.5248332 -0.59872127 -0.6895203 -0.54397017 0.49093747 -0.56024957
-0.6424921 0.3488872 -0.60185456 0.8618486 0.7181509 -0.72611135 0.73444843 -0.070974514
-0.43427727 -0.7976707 -0.91333073 -0.43871978 0.50382525 0.6469029 0.79298 -0.680971
0.6894334 -0.66060853 -0.79900634 -0.76315165 -0.8258488 -0.48878238 0.60496324 0.30403796
-0.67808026 -0.6428852 0.701075 -0.70989853 -0.7138367 -0.59368074 -0.34087974 -0.71502966
0.6441073 0.7401975 -0.720547 0.7400662 -0.61456823 -0.6358373 0.73297304 0.64674634
-0.58264387 -0.72672457 -0.82393426 0.77227736 0.5154221 -0.8157513 0.13851537 -0.7812596
-0.68109906 0.5831182 -0.4269131 -0.3838409 -0.58947474 0.7088387 0.8761167 -0.7127551
-0.6371845 -0.6036596 -0.62565637 -0.7207712 -0.74018735 -0.64985657 0.47673127 -0.6631883

net.2.bias f4 [2]
00000000: f32c 2e3f 01ec 0b3f
0.6803734 0.5465699
