models/40000.pth (torch_old, 2645 bytes, 4 tensors)

net.0.weight f4 [64, 4]
-0.14539567 -0.058266066 -0.6114956 -0.20008196 0.013972052 -0.16668905 0.7520115 0.0070677926
-0.05214428 -0.27027085 -0.4490826 -0.37565196 0.14654773 0.19736044 1.3990256 0.46463716
0.33622876 0.05885712 0.19626161 0.07395286 0.049404003 -0.16051024 -0.861611 -0.38882452
0.53818554 0.12699199 -1.2235987 -0.17425342 -0.101604305 0.25952142 -0.73234314 -0.0977073
0.5058386 0.042474125 0.8059139 0.21269736 -0.60998994 -0.0657595 1.0909064 0.19530618
0.10331675 -0.2824116 -1.5096577 -0.55147415 0.53736126 0.17269094 -0.6180107 0.024933953
0.22696781 -0.19544303 -1.0913329 -0.49860156 0.5856925 -0.065043956 -0.6032453 -0.23183271
0.45145938 0.13280587 -0.3562749 -0.048588395 -0.39109874 0.18774974 1.5376413 0.5726744
-0.24030536 0.3002942 0.7055574 0.5458201 0.343033 0.02684524 1.1456637 0.30714747
-0.08730017 -0.2215651 -1.640632 -0.51755553 0.24611533 -0.021692565 -0.6465686 -0.21819615
0.5107521 0.012111612 -1.3743175 -0.274589 0.34519997 0.0376126 1.1392331 0.33107123
-0.2616012 0.35647646 0.5092486 0.5089929 -0.25993934 -0.170578 0.26158354 -0.23172922
-0.06024181 0.12684843 1.6519037 0.53843814 -0.76351684 0.050882906 0.5628506 0.3487594
-0.12592112 0.02427228 1.4181155 0.27350444 -0.97719145 0.16604945 0.69472814 0.46313092
-0.06240576 0.053578574 0.99698496 0.3436808 -0.2369755 -0.12177696 -0.8904117 -0.32224324
0.44522324 0.023947608 0.39889306 0.0386401 -0.85682636 -0.02322729 1.2600598 0.29428568
0.17179763 0.16667038 -0.37939143 -0.005712081 0.33181772 -0.19523735 -0.5647937 -0.44457498
0.003945974 -0.021143632 -1.148904 -0.24039297 -0.7654844 -0.059147105 0.8834959 0.1521422
-0.36649442 0.09388463 0.3696931 0.25293344 -0.06656791 -0.1900151 -0.6366616 -0.34429663
0.0020597663 0.042160783 -1.0924205 -0.25608656 0.24819577 0.06631751 0.43523118 0.1554609
0.42796043 -0.04776564 0.988878 0.16247155 0.6067926 0.043402117 0.08878005 0.013640053
0.1655905 -0.070998535 -1.4004365 -0.3143511 -0.15743709 0.22433437 1.1967213 0.506214
-0.06047621 0.11513193 0.24396896 0.23512247 0.36037958 -0.111984745 -1.0837053 -0.30983227
0.23832731 -0.0039246012 -0.84696215 -0.1799449 0.05143317 0.07190678 0.93242943 0.41324186
-0.34396264 -0.09502227 -0.4599356 -0.24823709 0.4301274 0.005083577 0.49188069 0.07934961
0.40308565 -0.3055445 -0.9446865 -0.34716898 0.4315273 0.24100931 0.7833893 0.4142845
-0.015941923 -0.25757393 -0.56171644 -0.4065501 0.16746196 0.13611989 0.041482303 0.095487654
-0.04236768 0.2558203 0.88592905 0.4034001 -0.6635135 -0.08552468 1.2144428 0.27884954
0.86079305 0.002316916 -1.0324191 -0.23013714 -0.5407682 -0.08630439 0.6334076 0.08118925
0.088903025 0.13459 -0.01055318 0.2508629 0.5440942 0.08898882 -0.19354345 -0.0021462892
-0.513556 -0.072608195 0.9345912 0.28189558 0.1860533 0.0790227 -1.5890629 -0.18550417
-0.27877286 0.19384925 -0.807789 0.051238034 0.3613428 0.12482531 0.19396405 0.25616023
00000000: 9ae2 14be 66a8 6ebd fa8a 1cbf 49e2 4cbe
00000010: 09eb 643c 89b0 2abe d383 403f f198 e73b
00000020: 3e95 55bd f160 8abe 28ee e5be 7455 c0be
00000030: 9c10 163e db18 4a3e 4513 b33f ece4 ed3e
00000040: 2d26 ac3e 2a14 713d cef8 483e 9974 973d
00000050: da5b 4a3d cc5c 24be 8a92 5cbf 0214 c7be
00000060: 87c6 093f 300a 023e e29e 9cbf 7d6f 32be
00000070: eb15 d0bd fedf 843e d77a 3bbf c41a c8bd
00000080: a37e 013f 59f9 2d3d 6050 4e3f 56cd 593e
00000090: 4d28 1cbf ebac 86bd d2a2 8b3f 58fe 473e
000000a0: bb97 d33d 4198 90be 773c c1bf 692d 0dbf
000000b0: 8290 093f e5d5 303e f335 1ebf 4a42 cc3c
000000c0: 406a 683e 3822 48be ccb0 8bbf b448 ffbe
000000d0: f2ef 153f c435 85bd 496e 1abf 8e65 6dbe
000000e0: af25 e73e 43fe 073e aa69 b6be a004 47bd
000000f0: 183e c8be 7841 403e 6ed1 c43f ca9a 123f
00000100: 9c12 76be 29c0 993e 699f 343f deba 0b3f
00000110: 05a2 af3e 8cea db3c 1ca5 923f 6f42 9d3e
00000120: 6eca b2bd f6e1 62be 3b00 d2bf 857e 04bf
00000130: a805 7c3e 9bb4 b1bc 8585 25bf d06e 5fbe
00000140: a6c0 023f c86f 463c a3e9 afbf ee96 8cbe
00000150: 0dbe b03e ab0f 1a3d 64d2 913f 2b82 a93e
00000160: 98f0 85be 1584 b63e 1e5e 023f 5c4d 023f
00000170: c516 85be 00ac 2ebe 47ee 853e 6d4a 6dbe
00000180: 1ec0 76bd 8ee4 013e 9571 d33f 15d7 093f
00000190: d775 43bf 986a 503d fa16 103f 9890 b23e
000001a0: 77f1 00be a9d6 c63c cf84 b53f c608 8c3e
000001b0: 3829 7abf de08 2a3e b4d9 313f 7f1f ed3e
000001c0: 2f9d 7fbd 3575 5b3d 683a 7f3f eef6 af3e
000001d0: b5a9 72be 3366 f9bd 05f2 63bf 11fd a4be
000001e0: 4df4 e33e c62d c43c b63b cc3e 1545 1e3d
000001f0: f958 5bbf 2847 bebc a449 a13f 9dac 963e
00000200: b8eb 2f3e a4ab 2a3e 983f c2be 692c bbbb
00000210: 03e4 a93e 4dec 47be 5296 10bf 559f e3be
00000220: 3b4d 813b 6935 adbc 490f 93bf 9329 76be
00000230: c9f6 43bf 3c44 72bd ca2c 623f 2acb 1b3e
00000240: 28a5 bbbe 9646 c03d 6a48 bd3e 7e80 813e
00000250: c254 88bd 5293 42be 41fc 22bf a647 b0be
00000260: 25fd 063b c9b0 2c3d 6fd4 8bbf c71d 83be
00000270: 0827 7e3e 7ad1 873d 9fd6 de3e 2431 1f3e
00000280: a11d db3e e7a5 43bd 1c27 7d3f f15e 263e
00000290: c356 1b3f 6bc6 313d 51d2 b53d 877a 5f3c
000002a0: 8e90 293e ae67 91bd 8141 b3bf a1f2 a0be
000002b0: 3037 21be e9b7 653e 2a2e 993f 3e97 013f
000002c0: e7b5 77bd 4aca eb3d 00d3 793e f2c3 703e
000002d0: ac83 b83e 4258 e5bd dbb6 8abf 56a2 9ebe
000002e0: 130c 743e f199 80bb 83d2 58bf 7a43 38be
000002f0: 96ab 523d dd43 933d b2b3 6e3f 7094 d33e
00000300: df1b b0be 099b c2bd ae7c ebbe dd31 7ebe
00000310: a939 dc3e 2294 a63b c9d7 fb3e 0c82 a23d
00000320: 3e61 ce3e 5470 9cbe f9d6 71bf 22c0 b1be
00000330: 25f1 dc3e 25cb 763e 338c 483f 191d d43e
00000340: a398 82bc bbe0 83be a6cc 0fbf 5627 d0be
00000350: 267b 2b3e 0363 0b3e 59e9 293d 088f c33d
00000360: bc89 2dbd e1fa 823e 3fcc 623f 758a ce3e
00000370: 05dc 29bf 9027 afbd dd72 9b3f 5ec5 8e3e
00000380: ef5c 5c3f 66d7 173b 4f26 84bf 12a9 6bbe
00000390: c96f 0abf 5bc0 b0bd 0027 223f 8d46 a63d
000003a0: ca12 b63d f6d1 093e 3fe7 2cbc 1a71 803e
000003b0: c249 0b3f c53f b63d 4130 46be c2a8 0cbb
000003c0: 6878 03bf 9bb3 94bd 5e41 6f3f 9e54 903e
000003d0: c284 3e3e a7d6 a13d 6a66 cbbf cef4 3dbe
000003e0: 51bb 8ebe 6b80 463e 43cb 4ebf f9de 513d
000003f0: ec01 b93e 6aa4 ff3d 839e 463e 6f27 833e

net.0.bias f4 [64]
-0.9892067 0.50575745 -0.5970923 1.236468 0.86521655 -1.1995978 1.1271136 0.1873546
-0.7922472 -1.0748496 -1.2626287 -0.7696623 1.2085493 0.8565104 1.0289595 -1.4009218
1.2729418 -1.1361521 -1.3035247 -1.0800891 -1.1436232 -1.1290112 1.0947597 0.5658747
-1.3928657 -1.2140075 1.1315119 -1.2622701 -1.1991421 -1.0895189 -0.6489235 -1.2507685
0.95907676 1.1344626 -0.9846256 0.8502978 -0.8441354 -0.91386276 1.1918718 0.76373744
-0.99715763 -1.0305369 -1.0825851 1.2770687 0.9044195 -0.9256663 0.58847994 -1.3266993
-1.0328541 0.9953023 -0.38184744 -0.8571013 -0.8745071 0.85094035 0.8708694 -1.2650096
-1.099625 -0.8977553 -0.9068395 -1.0241035 -1.2479784 -1.0900581 0.8125317 -0.96182925
00000000: a63c 7dbf 5279 013f 0adb 18bf 9544 9e3f
00000010: d57e 5d3f 6c8c 99bf 4245 903f e2d9 3f3e
00000020: b6d0 4abf ac94 89bf d19d a1bf 9708 45bf
00000030: beb1 9a3f 4444 5b3f f2b4 833f 6851 b3bf
00000040: c2ef a23f 6f6d 91bf e6d9 a6bf 5c40 8abf
00000050: 3f62 92bf 7083 90bf 1621 8c3f 2add 103f
00000060: 6c49 b2bf 9964 9bbf 62d5 903f 1192 a1bf
00000070: 7d7d 99bf 5b75 8bbf da1f 26bf 2f19 a0bf
00000080: 0e86 753f 1236 913f 6c10 7cbf 1ead 593f
00000090: 4219 58bf e9f2 69bf 418f 983f 4c84 433f
000000a0: b945 7fbf a2e8 83bf 2692 8abf fd76 a33f
000000b0: 0988 673f 77f8 6cbf 9fa6 163f 48d1 a9bf
000000c0: 9034 84bf 22cc 7e3f 8281 c3be fe6a 5bbf
000000d0: b3df 5fbf 3ad7 593f 4cf1 5e3f d6eb a1bf
000000e0: 83c0 8cbf 4bd3 65bf a226 68bf d315 83bf
000000f0: c2bd 9fbf 0687 8bbf 1402 503f 713a 76bf

net.2.weight f4 [2, 64]
-0.74548376 0.2907712 -0.37945542 0.8687633 0.76060486 -0.75911295 0.91045195 0.24279043
-0.73637974 -0.8938694 -0.7396742 -0.48873025 0.8192569 0.8331332 0.80048454 -0.88645625
0.7126278 -0.7829472 -0.7564612 -0.7745741 -0.64426285 -0.782607 0.81449974 0.38013345
-0.9827344 -0.8490182 0.7306221 -0.92917335 -0.68810743 -0.75137836 -0.4795769 -0.8265794
0.59557724 0.8852985 -0.5786124 0.4984604 -0.6341367 -0.7510931 0.797244 0.55513996
-0.6380156 -0.74761486 -0.68476343 0.7136247 0.57033575 -0.67448395 0.58193034 -0.67285347
-0.81084466 0.58714104 -0.13402489 -0.7095658 -0.56365675 0.7361296 0.7320673 -0.841522
-0.702569 -0.6893252 -0.5739544 -0.6473663 -0.7486006 -0.589272 0.5431979 -0.61070967
-0.69879496 0.40517208 -0.66100395 0.9220895 0.77497643 -0.7819332 0.78626657 -0.06624146
-0.47856522 -0.84940463 -0.971806 -0.49344862 0.5465866 0.6968595 0.84871596 -0.72457546
0.74402237 -0.7080047 -0.85968757 -0.81733674 -0.8832907 -0.5360034 0.65821016 0.35156503
-0.72220844 -0.6983821 0.75877506 -0.7647247 -0.760288 -0.65279824 -0.38633612 -0.7694003
0.6961747 0.78600603 -0.7785192 0.7984424 -0.66222394 -0.6933368 0.78045094 0.7053649
-0.6305461 -0.7797462 -0.8816636 0.8292122 0.56851023 -0.8720602 0.17709635 -0.8293196
-0.73905766 0.64135915 -0.4870066 -0.42348745 -0.6462211 0.7632371 0.9339109 -0.7663027
-0.6960402 -0.65785503 -0.6745174 -0.7743865 -0.792726 -0.7081048 0.52310455 -0.71267325
00000000: 06d8 3ebf f6df 943e fb47 c2be 4667 5e3f
00000010: 00b7 423f 3a55 42bf 6113 693f 0e9e 783e
00000020: 6283 3cbf a0d4 64bf 4a5b 3dbf da3a fabe
00000030: d2ba 513f 3848 553f 8eec 4c3f ccee 62bf
00000040: c76e 363f 3a6f 48bf 71a7 41bf 7d4a 46bf
00000050: 69ee 24bf ef58 48bf 0e83 503f daa0 c23e
00000060: 7b94 7bbf 4259 59bf 0d0a 3b3f 4ede 6dbf
00000070: cf27 30bf 555a 40bf 1a8b f5be b59a 53bf
00000080: c077 183f eca2 623f f11f 14bf 3436 ff3e
00000090: c856 22bf a347 40bf 2f18 4c3f a71d 0e3f
000000a0: fe54 23bf b063 3fbf a84c 2fbf 1cb0 363f
000000b0: 8601 123f fbaa 2cbf 63f9 143f 2040 2cbf
000000c0: 8493 4fbf e04e 163f d23d 09be 1ba6 35bf
000000d0: cf4b 10bf fd72 3c3f c368 3b3f fc6d 57bf
000000e0: 90db 33bf 9e77 30bf adee 12bf ccb9 25bf
000000f0: 4aa4 3fbf 88da 16bf 040f 0b3f 7857 1cbf
00000100: 3ae4 32bf b772 cf3e 8e37 29bf 0f0e 6c3f
00000110: db64 463f c62c 48bf c448 493f 9aa9 87bd
00000120: 8006 f5be 9572 59bf 47c8 78bf 4ca5 fcbe
00000130: 19ed 0b3f 6265 323f 7345 593f c77d 39bf
00000140: 4078 3e3f cc3f 35bf 7c14 5cbf fb3c 51bf
00000150: 571f 62bf 8537 09bf 7680 283f 5500 b43e
00000160: a7e2 38bf 2bc9 32bf 153f 423f ffc4 43bf
00000170: 3ca2 42bf c91d 27bf d9cd c5be 6bf7 44bf
00000180: 8138 323f b137 493f 094d 47bf b966 4c3f
00000190: 8287 29bf 857e 31bf a2cb 473f cb92 343f
000001a0: 786b 21bf 729d 47bf b5b4 61bf 4047 543f
000001b0: e389 113f 563f 5fbf bf58 353e 4a4e 54bf
000001c0: e232 3dbf 1d30 243f ee58 f9be 59d3 d8be
000001d0: bf6e 25bf 8263 433f c914 6f3f 6a2c 44bf
000001e0: b12f 32bf 3069 28bf 2cad 2cbf 323e 46bf
000001f0: 17f0 4abf 5b46 35bf 2eea 053f c171 36bf

net.2.bias f4 [2]
0.7305416 0.59836054
00000000: c604 3b3f 282e 193f
