models/45000.pth (torch_old, 2645 bytes, 4 tensors)

net.0.weight f4 [64, 4]
000000 d6 14 37 be ec 73 92 bd 14 0c 28 bf 97 00 58 be
       -0.17879042 -0.071510166 -0.6564343 -0.21093975
000010 10 13 a7 3c a0 e5 21 be 0d d1 4f 3f af 3d 7e 3c
       0.020394832 -0.15810251 0.8117836 0.015517636
000020 00 e6 5f bd 66 26 7a be 38 85 f0 be a8 69 b8 be
       -0.054662704 -0.2442871 -0.46976638 -0.3601811
000030 7b c0 38 3e 11 eb 4d 3e da a9 b7 3f bf 5b f0 3e
       0.18042175 0.20109202 1.434871 0.46944997
000040 93 25 b5 3e 3c 2c 72 3d 0d 28 6e 3e 7c 1d b4 3d
       0.3538023 0.059124216 0.23257466 0.08794686
000050 e5 fa 95 3b 67 8e 31 be 5b 4b 68 bf c3 ee c9 be
       0.004577028 -0.17339478 -0.90739983 -0.39439973
000060 b4 2b 10 3f c7 30 13 3e 37 20 9a bf f1 7a 26 be
       0.56316686 0.14374076 -1.2041081 -0.16257836
000070 c0 03 da bd e4 e9 77 3e 29 94 53 bf 19 85 c2 bd
       -0.106452465 0.24210316 -0.8264795 -0.094980426
000080 e0 92 0e 3f d0 00 19 3d b5 ea 56 3f a7 3d 59 3e
       0.55692863 0.03735429 0.83951885 0.21214925
000090 e7 4c 21 bf 99 c6 a2 bd b7 e3 87 3f 50 01 38 3e
       -0.6300797 -0.07948036 1.0616368 0.1796925
0000a0 6c d8 4a 3d aa fa 92 be 22 ad c5 bf a8 c2 0e bf
       0.049522802 -0.28706867 -1.5443461 -0.5576577
0000b0 d3 c6 15 3f e7 c7 33 3e 8e d6 23 bf 71 be a5 3c
       0.58506507 0.17556725 -0.6399926 0.020232411
0000c0 90 bb 5c 3e 63 e5 26 be c6 b1 8e bf bf f5 01 bf
       0.21555924 -0.16298442 -1.1148002 -0.50765604
0000d0 05 81 1a 3f d0 44 4f bd eb 1d 12 bf 09 59 5b be
       0.6035312 -0.050602734 -0.570769 -0.21420683
0000e0 c2 64 f0 3e d2 36 06 3e 3f c5 ab be 1d 6b ef bc
       0.46951872 0.1310685 -0.33548924 -0.02922588
0000f0 d9 4a c9 be a3 4c 1a 3e ca c6 c7 3f be 0c 16 3f
       -0.39314917 0.15068297 1.5607541 0.58613193
000100 b9 17 4c be 50 87 99 3e 13 90 3d 3f 63 73 0b 3f
       -0.19930924 0.29986048 0.74047965 0.5447294
000110 96 f2 c3 3e da 1d 40 3c 27 06 95 3f d4 3c 9b 3e
       0.38271016 0.011725867 1.1642503 0.30319846
000120 47 bf 04 be 59 60 69 be e6 3d d7 bf f4 09 07 bf
       -0.12963592 -0.2279066 -1.6815765 -0.5274956
000130 b6 6b 86 3e af 6a ff bb 4a 2a 2b bf 02 99 55 be
       0.26254052 -0.0077947 -0.66861403 -0.20859149
000140 19 cb 09 3f 8d 30 09 3d 66 c2 af bf 06 0e 83 be
       0.5382553 0.033493567 -1.3731201 -0.25596637
000150 ea f6 c2 3e 56 87 74 3c 79 20 97 3f f4 b4 ac 3e
       0.38079005 0.014924845 1.1806785 0.33731806
000160 1d 3b 6b be f4 36 b2 3e e8 b6 04 3f d6 c7 00 3f
       -0.22971769 0.3480755 0.5184159 0.50304925
000170 36 ac 99 be 60 de 3e be 68 e4 86 3e f1 a2 5e be
       -0.300142 -0.18639517 0.26346135 -0.21741845
000180 27 fd 4d bd b0 f5 b2 3d db ad d8 3f ef 6c 0e 3f
       -0.050290253 0.087382674 1.6928056 0.5563497
000190 88 55 49 bf cf bc 0a 3d 7a 1b 0d 3f 65 3d ac 3e
       -0.78646135 0.03387147 0.5512005 0.3364059
0001a0 1f f8 c3 bd af b5 b1 3c ad a6 b8 3f 7e 6f 8b 3e
       -0.0956881 0.021693079 1.4425865 0.272335
0001b0 f1 68 7e bf 45 69 16 3e d5 3b 2e 3f 7d 1c e9 3e
       -0.9937888 0.14688595 0.68060046 0.45529547
0001c0 0a ab 33 bd 57 f6 37 3d bf 7d 7e 3f fb 81 ab 3e
       -0.043864287 0.044912662 0.99410623 0.33497605
0001d0 fa 72 86 be d2 40 02 be 7e b3 6c bf 12 55 a6 be
       -0.26259595 -0.1272004 -0.92461383 -0.32486778
0001e0 4b b3 fe 3e a4 b1 db 3c ee 5b cf 3e b0 78 37 3d
       0.49746165 0.026818104 0.40499824 0.04479283
0001f0 cc 21 5e bf cd 98 0f bd f1 53 9f 3f 87 3a 94 3e
       -0.8677032 -0.03505783 1.2447492 0.28950903
000200 0d 4a 4d 3e 3a c6 2b 3e 42 42 b4 be 7a 02 95 3c
       0.2004778 0.16774836 -0.352068 0.018189657
000210 b4 37 ae 3e ec 92 31 be d8 53 0e bf 50 34 de be
       0.34026873 -0.17341202 -0.55596685 -0.43399286
000220 e9 d8 01 bd 88 5b e9 bc f2 20 98 bf d6 26 75 be
       -0.031701002 -0.028486028 -1.1885054 -0.23940596
000230 22 5b 4d bf 10 31 8c bd c6 92 64 3f 4a 31 0d 3e
       -0.8021718 -0.068452954 0.8928646 0.13788334
000240 2f 41 c8 be 15 30 9b 3d ad 3e a6 3e 5f c9 67 3e
       -0.3911223 0.0757753 0.32469693 0.2263541
000250 21 ed ba bd 74 de 41 be bb fd 28 bf 62 85 ae be
       -0.0912726 -0.18932515 -0.6601216 -0.34086138
000260 fd 36 9e bc 94 a4 33 3d 14 0a 8e bf 7a 4f 83 be
       -0.01931333 0.043858126 -1.1096826 -0.25646573
000270 9d 17 87 3e 58 d6 7e 3d 00 b4 f5 3e 76 ff 27 3e
       0.26385203 0.062216133 0.47988892 0.16406044
000280 91 3e f4 3e ee 41 39 bd 7c 54 80 3f 5b 23 20 3e
       0.47703984 -0.04522889 1.0025783 0.15638487
000290 94 7b 28 3f f0 af 4a 3d 7e 46 a1 3d 6f 0c af 3b
       0.65813565 0.049484193 0.078747734 0.0053420584
0002a0 26 53 09 3e fe 49 83 bd 11 a4 b5 bf 1c 61 9d be
       0.13410625 -0.06410597 -1.4190694 -0.3073815
0002b0 49 fc d8 bd d7 d9 6c 3e 03 8b 9e 3f 43 cd 02 3f
       -0.105949946 0.23129974 1.2386173 0.51094455
0002c0 89 19 2c bd 8a 27 ee 3d c9 6d 8e 3e c1 43 70 3e
       -0.04201654 0.11628635 0.27818134 0.23463346
0002d0 d5 85 bb 3e 68 d5 aa bd 5d 71 89 bf 99 65 93 be
       0.36625543 -0.08341485 -1.0737721 -0.2878845
0002e0 7b 42 7a 3e 01 5f 9b 3b d6 1f 5f bf 4a 47 39 be
       0.24439423 0.00474155 -0.8715795 -0.18093601
0002f0 30 27 98 3d 98 96 7f 3d b2 4f 71 3f e6 86 cf 3e
       0.074293494 0.062399477 0.9426223 0.40532607
000300 ca 9c b8 be 2b 23 c9 bd fa 90 fe be 5a a1 7e be
       -0.3605712 -0.09821161 -0.49719983 -0.24866238
000310 41 09 e6 3e cf 83 0b 3c 92 ac 09 3f f8 2d c4 3d
       0.44928935 0.008515312 0.53778946 0.0957908
000320 e7 8a ca 3e fa f1 8e be 19 c1 78 bf c0 d5 ab be
       0.395591 -0.27918988 -0.97169644 -0.33561516
000330 75 dc f7 3e 0d a7 5e 3e 0d 81 4d 3f 60 4a d0 3e
       0.48410383 0.21743412 0.8027504 0.40681744
000340 b3 15 1a bd 06 a8 7f be cd ba 14 bf d6 9b ca be
       -0.03761835 -0.2496644 -0.58097535 -0.39572018
000350 3f 00 44 3e 47 cf 09 3e 52 a1 93 3d 71 7f ea 3d
       0.19140719 0.13457976 0.07208504 0.11450089
000360 9e b2 88 bc 48 fb 79 3e db 7e 65 3f d5 92 c8 3e
       -0.016686734 0.24412262 0.8964669 0.39174524
000370 67 26 31 bf 64 21 db bd 60 59 99 3f 81 35 89 3e
       -0.6919922 -0.10699728 1.19804 0.26798633
000380 4e 82 69 3f bf 70 bb 3c b9 ae 81 bf 91 25 5b be
       0.91214454 0.02288091 -1.0131446 -0.21401049
000390 54 15 0c bf 59 fc a9 bd 92 5b 1d 3f e1 d4 94 3d
       -0.54720044 -0.083000846 0.6146785 0.07267166
0003a0 5e 5f e9 3d bc da 10 3e 11 d7 f6 bc e6 7b 69 3e
       0.11395143 0.1414594 -0.030131849 0.2280117
0003b0 2e 77 17 3f bb 54 bf 3d 07 fe 60 be 81 04 1c bc
       0.5916623 0.09342333 -0.21971904 -0.009522558
0003c0 ef 4d 0d bf b4 c4 c5 bd 4a 1f 69 3f 98 87 86 3e
       -0.5519704 -0.09656659 0.9106337 0.26275325
0003d0 c3 cb 33 3e 51 5f b5 3d ac a3 cd bf e2 5d 37 be
       0.17558198 0.08856071 -1.6065574 -0.17906907
0003e0 5f 01 a2 be 0a 61 29 3e dd f2 52 bf 54 d3 40 3d
       -0.3164167 0.16540924 -0.8240183 0.04707654
0003f0 dd c4 cc 3e f9 41 02 3e 05 f0 3b 3e ec 6a 6e 3e
       0.39993945 0.12720479 0.18353279 0.23282975

net.0.bias f4 [64]
000000 3d 97 84 bf d3 fc 0d 3f 18 e5 25 bf 31 45 a5 3f
       -1.0358654 0.55463904 -0.64802694 1.291174
000010 88 9d 6a 3f 50 86 9f bf c1 fc 96 3f 8c dd 63 3e
       0.91646624 -1.2462864 1.1795884 0.22252482
000020 2c 50 57 bf a6 8c 90 bf 55 cf a8 bf 2c cc 51 bf
       -0.8410671 -1.1292922 -1.3188273 -0.81952167
000030 5d 68 a3 3f 4a ba 68 3f 3f 62 8a 3f be ce bd bf
       1.2766224 0.90909255 1.0811232 -1.4828718
000040 d8 bb a9 3f b2 90 98 bf c0 04 ae bf cb c0 90 bf
       1.326045 -1.1919158 -1.35952 -1.1308836
000050 a8 10 99 bf f7 43 97 bf 3b ef 92 3f 0a e2 1d 3f
       -1.1958208 -1.1817616 1.1479257 0.61673033
000060 bb 27 bc bf e5 e5 a1 bf ee 33 97 3f 47 bd a8 bf
       -1.4699625 -1.2648283 1.1812723 -1.3182763
000070 70 93 a1 bf d9 ff 91 bf e5 54 33 bf a9 b9 a7 bf
       -1.2623119 -1.1406204 -0.70051414 -1.3103534
000080 1c 26 81 3f 64 12 99 3f be f6 83 bf 77 2f 66 3f
       1.0089755 1.1958737 -1.0309675 0.89916176
000090 03 72 65 bf 63 fb 76 bf 59 1a a0 3f a3 6a 50 3f
       -0.89627093 -0.96477336 1.2508041 0.81412715
0000a0 fd 64 86 bf 93 3e 8a bf 77 15 91 bf e6 17 aa 3f
       -1.0499569 -1.0800346 -1.1334676 1.3288543
0000b0 5b 2a 74 3f 82 7b 7a bf fa fd 22 3f d9 26 b2 bf
       0.9537713 -0.9784471 0.6366879 -1.3918105
0000c0 21 ee 8a bf ed cf 85 3f 82 98 d6 be 4a d6 67 bf
       -1.0853921 1.0454079 -0.4191323 -0.90561354
0000d0 76 36 6d bf bf 99 66 3f aa 44 6c 3f 69 d0 a8 bf
       -0.92661226 0.9007835 0.92292273 -1.3188602
0000e0 79 d2 92 bf 6e da 73 bf b8 30 76 bf 93 61 89 bf
       -1.1470481 -0.9525517 -0.9616809 -1.0732902
0000f0 11 57 a6 bf 34 fa 91 bf 6d ba 5d 3f 45 fd 81 bf
       -1.299532 -1.1404481 0.8661259 -1.0155417

net.2.weight f4 [2, 64]
000000 41 9d 4a bf b3 d9 a6 3e 81 e1 d6 be 0a 88 6b 3f
       -0.791462 0.32587966 -0.4196892 0.92004454
000010 41 13 4f 3f 8f fc 4d bf 87 b3 77 3f 76 2c 96 3e
       0.80888754 -0.804635 0.9675831 0.29330796
000020 3c 29 4a bf b9 86 73 bf d2 a3 49 bf ca 45 08 bf
       -0.7896917 -0.95127445 -0.78765595 -0.5323149
000030 47 ea 5f 3f 4b 73 63 3f 9c 4e 5a 3f 05 25 72 bf
       0.87466854 0.888478 0.852762 -0.9458774
000040 b9 d0 41 3f 60 ff 55 bf a4 e1 4e bf c1 3d 51 bf
       0.7570911 -0.83592796 -0.8081305 -0.81734854
000050 9a f6 2f bf 71 15 56 bf 8f b3 5b 3f 4c 2d d9 3e
       -0.6873566 -0.83626467 0.8582086 0.4241737
000060 43 6f 85 bf e4 ca 67 bf 79 03 46 3f 27 f8 7c bf
       -1.0424579 -0.9054396 0.7734905 -0.9881615
000070 89 81 3d bf 1d 0c 4d bf e1 24 07 bf d4 0b 63 bf
       -0.7402578 -0.8009661 -0.5279065 -0.88689923
000080 67 df 24 3f 05 c6 6f 3f d1 37 1f bf e8 09 0b 3f
       0.64403385 0.9366153 -0.62194544 0.5431199
000090 a0 3f 2f bf 0a 12 4c bf 40 5b 59 3f 31 e2 19 3f
       -0.6845646 -0.79715025 0.8490486 0.60110766
0000a0 7e 7d 30 bf 60 45 4b bf d8 2c 3a bf ed 50 42 3f
       -0.68941486 -0.7940273 -0.72724676 0.7590473
0000b0 5b 19 1d 3f 7b 11 37 bf 06 eb 22 3f 69 a1 39 bf
       0.61366814 -0.7151105 0.6363987 -0.7251192
0000c0 bd 57 5c bf ff f7 22 3f 45 b3 22 be 15 69 43 bf
       -0.8607138 0.6365966 -0.15888698 -0.7633222
0000d0 87 f5 1b bf 10 6f 48 3f 85 bd 46 3f 86 65 66 bf
       -0.6092152 0.7829447 0.77632934 -0.8999866
0000e0 df ab 3f bf eb 7a 3e bf 16 95 1e bf fa 4d 31 bf
       -0.7487163 -0.7440631 -0.6194624 -0.6925961
0000f0 57 b6 4d bf b5 87 21 bf 45 71 17 3f cf 6a 28 bf
       -0.80356354 -0.630977 0.5915721 -0.65787977
000100 87 c0 40 bf 51 73 ec 3e a1 a9 37 bf 75 9d 7a 3f
       -0.75293773 0.4618173 -0.7174321 0.9789651
000110 d5 59 54 3f 0e 8f 55 bf 2b c4 54 3f cc ee a7 bd
       0.8294957 -0.8342141 0.8311183 -0.08199844
000120 d4 d4 03 bf 34 00 65 bf 4b 53 83 bf b1 4f 0b bf
       -0.51496625 -0.89453435 -1.0259794 -0.54418474
000130 42 94 14 3f cf ac 3d 3f bf 50 66 3f a7 54 42 bf
       0.58038723 0.7409181 0.8996696 -0.7591042
000140 d8 57 4b 3f fb 3f 3f bf 05 ad 6a bf 16 34 5e bf
       0.79430914 -0.74707 -0.91670257 -0.86798227
000150 9b 82 6f bf 10 f2 12 bf fa 13 35 3f ba 90 c9 3e
       -0.93558663 -0.5740061 0.70733607 0.3936823
000160 d4 9a 41 bf 18 55 3f bf 1d 03 50 3f 5e 0e 50 bf
       -0.75626874 -0.7473922 0.8125475 -0.8127192
000170 76 a1 4c bf 21 96 35 bf 62 d9 da be 98 0d 51 bf
       -0.7993387 -0.70932204 -0.42743975 -0.8166137
000180 ff 60 3e 3f 5c 1a 53 3f a2 5f 55 bf ee dc 59 3f
       0.74366754 0.82462096 -0.8334905 0.85102737
000190 aa 71 34 bf f9 7a 3f bf 06 07 52 3f c3 24 43 3f
       -0.7048594 -0.74797016 0.82041967 0.7622797
0001a0 90 e1 2b bf 90 f0 53 bf ba 70 6f bf 03 be 61 3f
       -0.67141056 -0.82788944 -0.9353138 0.8818056
0001b0 ba 71 1e 3f 19 96 6c bf 4e 5e 53 3e 4a 9f 5e bf
       0.6189228 -0.9241653 0.20641443 -0.86961806
0001c0 34 80 4b bf fa a4 32 3f 48 fd 0a bf 97 08 e9 be
       -0.794925 0.69782984 -0.54292727 -0.45514366
0001d0 29 2d 33 bf e4 90 50 3f 29 00 7d 3f 3c 0b 50 bf
       -0.69990784 0.81471086 0.9882837 -0.8126714
0001e0 d2 84 3f bf 85 b6 34 bf ec d8 37 bf cc cf 52 bf
       -0.7481204 -0.70591 -0.7181537 -0.8234832
0001f0 79 a8 56 bf 78 23 43 bf 9f 6c 10 3f 87 97 41 bf
       -0.8385082 -0.76225996 0.5641574 -0.7562184

net.2.bias f4 [2]
000000 d8 86 46 3f a7 88 25 3f
       0.77549505 0.6466164
