models/5000.pth (torch_old, 2645 bytes, 4 tensors)

net.0.weight f4 [64, 4]
0.35441744 0.075545795 -0.4309058 -0.37888348 0.38857728 0.23340096 -0.5490187 -0.18065009
-0.5953297 -0.043949626 0.4223264 0.23214681 0.41967106 -0.2928902 0.10404272 -0.121677324
-0.05107548 0.26955903 0.16237953 0.066823564 -0.011682344 0.042381722 -0.2778812 -0.42793384
-0.31951067 -0.11719375 -0.31753868 -0.4568014 0.15944394 -0.16609083 -0.45923844 -0.017697906
0.23499675 -0.22555703 -0.6661974 -0.41510695 -0.083075486 -0.33271992 -0.32830423 0.2509283
-0.37451372 0.15428841 -0.21456438 0.01485636 -0.37345785 -0.018100215 0.20167859 0.13206683
-0.17428009 -0.3377138 -0.02448121 -0.61311513 0.53304577 -0.23922127 -0.26775938 -0.20255694
0.43258858 -0.41121343 -0.015770966 -0.37666905 -0.015309688 0.002629903 -0.074342884 -0.35581115
-0.58643776 -0.21704581 0.014613637 0.30182374 0.30486542 -0.13338447 -0.44067794 -0.4297496
-0.1648043 0.05615361 0.64820474 0.43741757 -0.46356353 -0.47639197 0.48863548 -0.38230002
-0.058942437 -0.3190516 -0.033653636 0.093157716 0.4666938 0.01754412 -0.6024061 -0.33644563
0.037962288 -0.2333674 -0.030990088 -0.4522447 -0.67834413 0.054999724 0.6591572 0.26909086
-0.3859275 0.247134 -0.18577833 0.34236997 -0.1886908 0.38808024 -0.2802544 0.45591682
-0.24474654 0.25375322 0.473883 0.49206835 -0.3136077 -0.0409042 0.3035077 0.3963464
-0.23458919 0.20748514 -0.019283308 0.11383364 0.22409816 0.19386719 -0.7003585 -0.33683974
0.2077082 -0.071232274 -0.23959017 -0.46742496 -0.39868528 0.083461456 -0.42540812 -0.016771583
-0.55028117 0.38554403 -0.011498526 0.61244196 -0.055158503 0.36295238 0.19613996 -0.12795901
-0.28750047 -0.25211278 0.51978564 0.21513411 0.5804591 0.1629202 -0.068529435 -0.15498067
0.052381415 -0.3555373 0.08223312 -0.0073297145 0.012617321 0.022696486 -0.44590035 -0.5309992
-0.08309491 0.25449926 -0.27275917 0.23709089 -0.2758847 0.26204857 0.06741024 0.3326517
-0.30836034 0.046983585 -0.37812722 0.15969433 0.06171282 -0.19585305 0.09473885 -0.49658257
0.5217884 0.41175783 -0.5177325 -0.0013461625 0.42015633 0.3508777 -0.4483264 -0.46774414
0.08700938 -0.13659017 -0.25072193 -0.03934889 -0.32396197 -0.36516124 0.43290514 -0.06538932
-0.0785295 0.14362575 -0.03697527 -0.2580188 -0.18592022 -0.2584311 -0.11356926 0.27963507
-0.40964356 -0.36282364 0.56889457 0.16768245 0.4300312 -0.023770964 -1.0121977 -0.43758264
-0.31361267 0.40074128 -0.7731835 -0.02892945 -0.15519483 -0.3723253 0.6055974 0.07596863
0.49177396 -0.20306846 -0.7875541 -0.5095871 -0.6104771 0.15742801 0.5794422 0.4872605
0.4199668 -0.010023845 -0.32515615 0.123215824 0.46580076 0.28542256 -0.2971773 -0.033927884
0.45954224 -0.049122162 -0.5772332 -0.39085352 -0.044023927 -0.43651646 0.46514335 -0.18335268
0.2911255 -0.17494157 -0.22619577 0.055015452 0.16322589 -0.059152238 0.3604766 0.2519447
-0.042660534 0.05364404 -0.02016926 0.5716159 0.039660472 -0.3868783 0.04551529 -0.6469879
0.008866104 0.3973383 0.17355858 -0.15543845 -0.55732435 -0.4240113 0.18810132 0.09300822
00000000: 3476 b53e c1b7 9a3d af9f dcbe 04fd c1be
00000010: 9af3 c63e a900 6f3e 7d8c 0cbf 56fc 38be
00000020: 8767 18bf 8604 34bd 2a3b d83e e5b7 6d3e
00000030: 20df d63e b4f5 95be 5914 d53d f631 f9bd
00000040: 8634 51bd a403 8a3e d246 263e cbda 883d
00000050: 4d67 3fbc 7598 2d3d 7246 8ebe 251a dbbe
00000060: e796 a3be 4703 f0bd 6e94 a2be e0e1 e9be
00000070: 4645 233e b713 2abe 4d21 ebbe 33fb 90bc
00000080: fda2 703e 6cf8 66be ea8b 2abf e688 d4be
00000090: 7b23 aabd 445a aabe 7e17 a8be ad79 803e
000000a0: 43c0 bfbe c8fd 1d3e c4b6 5bbe 1768 733c
000000b0: de35 bfbe e746 94bc d584 4e3e 873c 073e
000000c0: 7b76 32be d3e8 acbe d28c c8bc 1df5 1cbf
000000d0: b075 083f 6cf6 74be c217 89be 166b 4fbe
000000e0: 407c dd3e 918a d2be 1d32 81bc c4da c0be
000000f0: 7cd5 7abc 735a 2c3b 1541 98bd e12c b6be
00000100: c920 16bf 4241 5ebe 096e 6f3c a488 9a3e
00000110: 5217 9c3e f095 08be 8aa0 e1be 2408 dcbe
00000120: 75c2 28be 5401 663d bff0 253f 32f5 df3e
00000130: 3358 edbe a6e9 f3be 6e2e fa3e d4bc c3be
00000140: a06d 71bd bb5a a3be 65d8 09bd 79c9 be3d
00000150: 7df2 ee3e b0b8 8f3c 4937 1abf 9a42 acbe
00000160: 587e 1b3d ddf7 6ebe edde fdbc 9e8c e7be
00000170: f6a7 2dbf 6447 613d 87be 283f 47c6 893e
00000180: 4a98 c5be b210 7d3e ad3c 3ebe 1e4b af3e
00000190: 2938 41be 74b2 c63e 817d 8fbe ee6d e93e
000001a0: d69e 7abe f1eb 813e cba0 f23e 62f0 fb3e
000001b0: 3091 a0be 2a8b 27bd 5c65 9b3e eaed ca3e
000001c0: 2638 70be fc76 543e 07f8 9dbc 9d21 e93d
000001d0: fd79 653e 1f85 463e b24a 33bf 4276 acbe
000001e0: 75b1 543e 3ae2 91bd 2057 75be 5352 efbe
000001f0: 7a20 ccbe d7ed aa3d 18cf d9be 8f64 89bc
00000200: 3adf 0cbf 0766 c53e 5064 3cbc ffc8 1c3f
00000210: e2ed 61bd e5d4 b93e ead8 483e b007 03be
00000220: 4333 93be ed14 81be ac10 053f 1e4c 5c3e
00000230: f898 143f 8ed4 263e 2959 8cbd 41b3 1ebe
00000240: e58d 563d fc08 b6be d769 a83d 1a2e f0bb
00000250: e1b8 4e3c fbed b93c 0d4d e4be 90ef 07bf
00000260: aa2d aabd ba4d 823e 17a7 8bbe f4c7 723e
00000270: c240 8dbe 3b2b 863e 610e 8a3d 5351 aa3e
00000280: 68e1 9dbe dc71 403d e499 c1be e986 233e
00000290: 95c6 7c3d b48d 48be 7106 c23d 1240 febe
000002a0: ed93 053f ecd1 d23e 1e8a 04bf b871 b0ba
000002b0: bb1e d73e 3ea6 b33e 0a8b e5be 297c efbe
000002c0: f931 b23d 4bde 0bbe a05e 80be 4d2c 21bd
000002d0: 58de a5be 6af6 babe bea5 dd3e d6ea 85bd
000002e0: 13d4 a0bd a112 133e 6173 17bd 0a1b 84be
000002f0: df61 3ebe 1551 84be 0097 e8bd 542c 8f3e
00000300: cdbc d1be 05c4 b9be 13a3 113f f3b4 2b3e
00000310: 0d2d dc3e 53bb c2bc b28f 81bf d50a e0be
00000320: d791 a0be f62d cd3e 5bef 45bf 74fd ecbc
00000330: 65eb 1ebe 6ca1 bebe 6e08 1b3f 7195 9b3d
00000340: ccc9 fb3e 2ef1 4fbe 259d 49bf 4d74 02bf
00000350: 3a48 1cbf cf34 213e 5356 143f 357a f93e
00000360: e305 d73e 0e3b 24bc de7a a6be 9458 fc3d
00000370: 707d ee3e e822 923e a027 98be f7f7 0abd
00000380: 1f49 eb3e 5234 49bd 8ec5 13bf f41d c8be
00000390: 6f52 34bd 167f dfbe 4527 ee3e cec0 3bbe
000003a0: 670e 953e e223 33be dd9f 67be e257 613d
000003b0: b024 273e 9e49 72bd 6490 b83e e5fe 803e
000003c0: d0bc 2ebd dab9 5b3d 013a a5bc 6b55 123f
000003d0: 0573 223d ea14 c6be 3e6e 3a3d 00a1 25bf
000003e0: 2343 113c ed6f cb3e 57b9 313e 422b 1fbe
000003f0: cfac 0ebf 0218 d9be a29d 403e 187b be3d

net.0.bias f4 [64]
-0.4382138 -0.69979686 -0.38037056 0.25461456 -0.6733276 0.6023133 -0.28274596 0.52643025
0.7178207 0.07656442 -0.28215754 -0.038704753 0.5651413 0.2879533 -0.19622435 0.3705303
-0.30165058 -0.4495034 -0.5864641 0.0009045604 0.49243468 0.64004505 0.63111687 -0.53377366
-0.66077757 -0.29474786 -0.43750182 -0.5578635 0.36097562 -0.56990755 0.54814714 0.24033923
0.34632608 0.4102529 -0.517607 0.28837723 0.44051856 -0.6468526 -0.29938823 -0.5617458
-0.31423992 0.31044754 -0.4875758 0.4229824 0.579332 0.03396848 -0.62621397 0.21486121
-0.5052043 -0.47570285 0.6349738 0.63776004 -0.5764549 0.4105435 0.30110058 -0.37286124
-0.19197851 0.25814503 0.6251102 -0.6961649 0.4227598 -0.5852454 0.4301361 0.5298825
00000000: 8f5d e0be e325 33bf eebf c2be d75c 823e
00000010: 335f 2cbf 3431 1a3f 14c4 90be 22c4 063f
00000020: 19c3 373f cecd 9c3d f476 90be e088 1ebd
00000030: 1aad 103f 9d6e 933e 09ef 48be 26b6 bd3e
00000040: f271 9abe 4f25 e6be 8322 16bf 0520 6d3a
00000050: 6620 fc3e fed9 233f e090 213f 64a5 08bf
00000060: b828 29bf 31e9 96be 3d00 e0be 24d0 0ebf
00000070: ccd1 b83e 76e5 11bf 5f53 0c3f 7d1b 763e
00000080: a751 b13e ab0c d23e e481 04bf 2ea6 933e
00000090: a68b e13e 2298 25bf 6a49 99be 93ce 0fbf
000000a0: 0ee4 a0be fbf2 9e3e 89a3 f9be 2691 d83e
000000b0: 1a4f 143f 8822 0b3d 8f4f 20bf 9404 5c3e
000000c0: 1255 01bf 538f f3be a58d 223f 3e44 233f
000000d0: 8c92 13bf c232 d23e db29 9a3e abe7 bebe
000000e0: 0496 44be 962b 843e 3907 203f dd37 32bf
000000f0: f973 d83e a4d2 15bf cd3a dc3e 61a6 073f

net.2.weight f4 [2, 64]
-0.09805511 -0.18362121 -0.11808595 0.015070353 -0.099110276 0.2486887 -0.21323583 0.22749478
0.113947205 -0.07501194 -0.19671468 0.0016867667 0.26200673 0.27694058 -0.05839581 0.16981801
-0.101592906 -0.18128924 -0.22206682 0.006557097 0.266251 0.16493921 0.08368248 -0.28532645
-0.26433012 -0.05490836 -0.3167494 -0.12846191 0.3018048 -0.32580236 0.27827862 0.3108213
0.15936504 0.05851547 -0.30221716 0.28301838 0.21581975 -0.20292923 -0.2663517 -0.29513893
-0.032564253 0.08476017 -0.15670386 0.0577343 0.26742008 -0.05999027 -0.17541285 -0.00077024463
-0.27713948 -0.30549908 0.28768903 0.082077004 -0.13866147 0.31752324 0.1399117 -0.15202445
0.02168076 0.08306203 0.20829935 -0.18590032 0.180304 -0.24509674 0.15584902 0.24501106
-0.13424282 -0.20831628 -0.103323855 0.20059763 -0.21809542 0.19136836 -0.29360119 0.21236421
0.28470436 0.13072455 -0.30609855 -0.018350491 0.18516827 0.30203113 -0.14906727 0.28885952
-0.100932576 -0.31806788 -0.3196552 -0.06631203 0.2898732 0.19901302 0.22966191 -0.22426187
-0.13436885 -0.121047005 -0.08869714 -0.1615396 0.30528653 -0.3231096 0.16054893 0.18992338
0.19824345 0.2657794 -0.208598 0.27632964 0.23207565 -0.14340968 -0.20802261 -0.26297158
-0.106467016 0.22127298 -0.13917777 0.03553696 0.15202236 0.07041393 -0.20573138 0.13984492
-0.14639199 -0.20214686 0.1142766 0.19157021 -0.16298676 0.23964994 0.2675416 -0.13364702
-0.19062908 0.0609188 0.17234029 -0.28756267 0.10277598 -0.30259317 0.09922828 0.048433542
00000000: 1ed1 c8bd 3307 3cbe 0cd7 f1bd a4e9 763c
00000010: 54fa cabd 40a8 7e3e 7e5a 5abe 64f4 683e
00000020: 275d e93d dc9f 99bd 936f 49be 8016 dd3a
00000030: bf25 863e 28cb 8d3e 7230 6fbd c6e4 2d3e
00000040: f10f d0bd e3a3 39be 7c65 63be ebdc d63b
00000050: 0d52 883e d3e5 283e b861 ab3d 4f16 92be
00000060: 4756 87be 97e7 60bd fa2c a2be 858b 03be
00000070: 2986 9a3e 91cf a6be 897a 8e3e f823 9f3e
00000080: 9730 233e ebad 6f3d 35bc 9abe c9e7 903e
00000090: daff 5c3e aecc 4fbe 405f 88be 731c 97be
000000a0: 1862 05bd bd96 ad3d fa76 20be cd7a 6c3d
000000b0: 49eb 883e 5bb8 75bd 6d9f 33be 3eea 49ba
000000c0: 3ae5 8dbe 606a 9cbe fa4b 933e fd17 a83d
000000d0: 46fd 0dbe 6892 a23e 0345 0f3e 4cac 1bbe
000000e0: d99b b13c 6d1c aa3d 6d4c 553e a75c 3ebe
000000f0: 9da1 383e a4fa 7abe e396 1f3e 2ee4 7a3e
00000100: f376 09be dd50 55be 759b d3bd 7769 4d3e
00000110: 6854 5fbe 11f6 433e e552 96be 0176 593e
00000120: c5c4 913e a8dc 053e f3b8 9cbe c553 96bc
00000130: c09c 3d3e d3a3 9a3e 17a5 18be 65e5 933e
00000140: bdb5 cebd cbd9 a2be d9a9 a3be 9ace 87bd
00000150: 436a 943e 12ca 4b3e 7e2c 6b3e e7a4 65be
00000160: fd97 09be 7ee7 f7bd d9a6 b5bd a36a 25be
00000170: 844e 9c3e 9f6e a5be f066 243e 467b 423e
00000180: 5500 4b3e 3d14 883e b79a 55be 147b 8d3e
00000190: 3da5 6d3e fdd9 12be e103 55be 36a4 86be
000001a0: 610b dabd 6295 623e 9e84 0ebe 348f 113d
000001b0: c0ab 1b3e 2e35 903d 3fab 52be 8233 0f3e
000001c0: c8e7 15be 96ff 4ebe da09 ea3d fb2a 443e
000001d0: 00e6 26be cb66 753e 36fb 883e c4da 08be
000001e0: 4534 43be fe85 793d f979 303e 6a3b 93be
000001f0: 377c d23d 7eed 9abe 3238 cb3d 4062 463d

net.2.bias f4 [2]
0.2832856 0.16297401
00000000: cf0a 913e a9e2 263e
