models/50000.pth (torch_old, 2645 bytes, 4 tensors)

net.0.weight f4 [64, 4]
00000000: 3105 57be 138b b4bd e237 33bf 2c11 59be
00000010: 1fd5 e43c fa49 1dbe ea48 5c3f 2857 a13c
00000020: f80f 7fbd c7bc 6abe f34c 01bf f2f5 b4be
00000030: 7bdc 5a3e 4a25 583e 14ec be3f 721c f73e
00000040: 83f8 be3e 31f3 893d fe57 873e f883 b13d
00000050: 39ca 1abd ab46 42be fc80 77bf 4b4f cfbe
00000060: 4176 163f 6038 243e ad63 99bf 780a 26be
00000070: 99ce c7bd 9982 6a3e b0fb 6dbf e8e3 d9bd
00000080: 2006 193f 9b71 573d 2918 663f 1e34 5c3e
00000090: 80a3 26bf d553 c3bd f84c 863f 4df0 373e
000000a0: 2beb 80b9 665a 97be c268 cebf 6db4 15bf
000000b0: ac7b 213f bf3b 463e d34f 24bf 8c9b b73c
000000c0: f20d 5f3e b188 1dbe 8487 94bf 5000 03bf
000000d0: d7f0 1e3f b104 16bd 87b7 0ebf eb99 59be
000000e0: 622b fb3e 5516 0f3e 24f7 a3be 2f42 e4bc
000000f0: f2d0 cfbe 511e 0a3e d849 ce3f c858 193f
00000100: d6f4 23be c227 9b3e 412d 4c3f 41e9 0d3f
00000110: ec68 ca3e 4e15 d43b 42df 9a3f f610 9c3e
00000120: d027 2dbe 79e8 73be c0c5 dfbf 9818 0dbf
00000130: 83d6 8a3e df52 fa3b b0dc 31bf 1c50 50be
00000140: ca3f 0b3f b411 6b3d 3458 b3bf bdf1 86be
00000150: ed94 c83e a362 553c 3abc 9e3f ef49 ad3e
00000160: 620c 4bbe 976b b23e b385 093f 64bc fb3e
00000170: 5f71 aabe 823f 54be b3b3 783e 7c95 5bbe
00000180: c096 71bd b32b 9b3d 38ce e03f 645c 113f
00000190: 84fc 4ebf 7aba 913c 7de7 0c3f 52e0 aa3e
000001a0: 7dd8 87bd 2d50 993c 81fc bd3f 79a7 8f3e
000001b0: 5469 81bf 7aa4 043e 561c 2e3f e1ab e93e
000001c0: b2d8 1abd 38b8 203d d945 833f 7f22 ae3e
000001d0: 1d88 93be b8ee 0ebe f80f 77bf 8d26 a4be
000001e0: c216 0a3f 1b90 273d e48a e03e dcbb 753d
000001f0: 8e11 62bf 3ed0 4ebd 0107 9f3f 4091 973e
00000200: e644 6c3e 6c1d 373e f56e aabe f6dd c23c
00000210: 7d18 b63e af0e 23be 4df4 12bf d15e ddbe
00000220: f9f2 86bd 9032 13bd 8a2c 9fbf 0a1c 80be
00000230: e0a0 58bf 68bc c8bd ef4a 673f 1d2a 0c3e
00000240: 2e6e d5be a845 683d 5456 9b3e c600 603e
00000250: 8d63 eebd 03d4 48be 1f63 30bf f167 a9be
00000260: 25f4 e0bc 3dad 303d 3e98 93bf bbff 87be
00000270: 6afc 8f3e 22dc 853d f661 063f d9ff 293e
00000280: 239d 003f 218c 21bd 10ab 853f 748e 243e
00000290: 013c 323f 6d5a 893d 7a03 ba3d f7e8 b93b
000002a0: e508 d63d bd55 65bd 3537 bbbf baad a2be
000002b0: 8c65 6cbd 174e 763e 6579 a73f b759 083f
000002c0: db87 b7bc 6973 f73d 9477 9e3e 1961 683e
000002d0: aaba bc3e 3c94 64bd 27bb 8abf 27b0 8fbe
000002e0: 497f 823e 6131 ff3b 488a 67bf aaf4 3bbe
000002f0: f17f 9d3d 5e78 583d acc6 7c3f db37 d33e
00000300: 05af c2be 1040 e2bd 0d6c 09bf 4c9b 74be
00000310: 4ed0 f03e a7a1 a53c 203b 153f 41ec cb3d
00000320: 6f38 c83e 6299 82be 8641 81bf 9b12 adbe
00000330: 1e09 073f 11f9 643e 8b7e 593f c8eb cb3e
00000340: 848b 7bbd c765 80be d7ec 1cbf 221b c6be
00000350: 3ffa 5c3e 7ed1 103e 109b c93d 3b27 f03d
00000360: 5ffb 293c f600 773e b91e 6d3f d5c5 c63e
00000370: 643b 38bf 5044 02be 9af3 983f 67c7 883e
00000380: 85b3 743f 5ebb 633d 3367 7fbf 5b47 53be
00000390: 9d0f 0fbf b1df b5bd ba38 1b3f f865 a33d
000003a0: bb03 013e 8ca7 163e 698c c0bc 5d74 613e
000003b0: 459e 1f3f 2fe1 dc3d ee3a 6bbe 97d6 61bc
000003c0: 2133 17bf d081 fbbd e28d 663f f8b8 833e
000003d0: e202 283e 72f1 d53d 6647 d2bf cc7e 40be
000003e0: 9419 aebe d3f0 143e 84d9 5bbf f832 f73c
000003f0: d4dc d73e 33b4 083e 65a9 4f3e 5c53 653e
-0.20998074 -0.08815589 -0.70007145 -0.21197957 0.027933655 -0.15360251 0.8604876 0.01969488
-0.06227109 -0.22923575 -0.5050804 -0.3534389 0.21373169 0.21107975 1.4915795 0.4826389
0.37298974 0.06735838 0.2643432 0.08667749 -0.03779051 -0.1897227 -0.9668119 -0.40490183
0.5877419 0.1603713 -1.1983544 -0.16214931 -0.09756202 0.22901382 -0.9296217 -0.10639173
0.5977497 0.052598577 0.89880615 0.21504256 -0.6509323 -0.09537474 1.0492239 0.17962761
-0.00024589276 -0.29561156 -1.612572 -0.5847843 0.63079333 0.19358729 -0.641843 0.022413038
0.21782663 -0.15384175 -1.1603856 -0.5117235 0.6208624 -0.036625568 -0.5574879 -0.21250121
0.49056536 0.13973363 -0.3202449 -0.02786359 -0.405891 0.13488127 1.6116285 0.59901094
-0.16011366 0.3030377 0.7975655 0.5543404 0.39533174 0.0064722663 1.2099383 0.3048169
-0.16909719 -0.2381915 -1.7482224 -0.5511565 0.27116784 0.0076392735 -0.6947737 -0.2034306
0.5439421 0.05738993 -1.4011292 -0.26356307 0.3917612 0.013024005 1.2401192 0.3384547
-0.19828942 0.3484771 0.53719634 0.49167168 -0.3328962 -0.20727351 0.242873 -0.21443743
-0.058981657 0.07576694 1.7562933 0.567816 -0.8085406 0.017789114 0.55040723 0.33374268
-0.06633089 0.018714989 1.4842683 0.2805746 -1.0110269 0.12953368 0.6801199 0.45638946
-0.037804313 0.039238185 1.0255691 0.34010693 -0.28814784 -0.13958251 -0.9650874 -0.32060662
0.53940976 0.040908914 0.43855965 0.05999361 -0.88308036 -0.050491564 1.2424012 0.29603004
0.23073158 0.17882317 -0.33287778 0.02378748 0.35565558 -0.1592357 -0.57404023 -0.43236402
-0.06589312 -0.035936892 -1.2435467 -0.25021392 -0.84620476 -0.09801561 0.90348715 0.1368794
-0.41685623 0.056707054 0.303393 0.21875295 -0.116400816 -0.19612126 -0.68901247 -0.33087113
-0.027460167 0.043133963 -1.1530836 -0.26562294 0.28122264 0.065361276 0.52493227 0.16601504
0.5023977 -0.039440278 1.0442829 0.16069967 0.6962281 0.067067005 0.09082694 0.0056735235
0.10450915 -0.05598997 -1.4626223 -0.31773168 -0.05771403 0.24053226 1.3083922 0.53261894
-0.022403648 0.120825596 0.30950606 0.2269329 0.36861163 -0.05580543 -1.0838364 -0.2806408
0.25487736 0.007787869 -0.90445375 -0.1835505 0.076904185 0.052849166 0.9874065 0.41253552
-0.38024154 -0.11047375 -0.536805 -0.23887366 0.47033924 0.020218683 0.5829334 0.09957171
0.39105555 -0.25507647 -1.0098121 -0.33803257 0.52748287 0.22360636 0.84958714 0.39828324
-0.06141235 -0.2507765 -0.6129889 -0.38692576 0.21579836 0.14142415 0.09844029 0.117262326
0.010374873 0.2412146 0.92625004 0.3882281 -0.7196562 -0.12721372 1.1949341 0.26714632
0.95586425 0.05559861 -0.99766845 -0.20632689 -0.558832 -0.088805564 0.6063343 0.07978433
0.1259908 0.14712352 -0.023504453 0.22017045 0.62350875 0.10785138 -0.22971699 -0.013784072
-0.5906239 -0.12280619 0.90060246 0.25727057 0.1640735 0.10446443 -1.6428039 -0.18798369
-0.3400389 0.14544992 -0.8587878 0.030175671 0.42160666 0.1334999 0.20279463 0.2239508

net.0.bias f4 [64]
00000000: 1152 8abf 70d4 193f 988a 32bf fcb1 ab3f
00000010: 40e9 763f ac2c a5bf 66ba 9c3f dd0a 803e
00000020: ca35 62bf d88e 96bf fa2a afbf 61fd 5cbf
00000030: a3e0 aa3f 8592 743f eb6f 903f 6397 c6bf
00000040: 2824 b03f 2996 9ebf 0e7c b4bf 011d 97bf
00000050: 9752 9fbf b334 9dbf 57ba 993f 1cae 293f
00000060: 60c1 c4bf 9073 a7bf 045b 9d3f 85bf aebf
00000070: af50 a8bf 2634 98bf f241 3fbf 3b1d aebf
00000080: 42f3 863f b0a1 9f3f 9a8e 89bf ab05 703f
00000090: d219 71bf 1fcc 81bf 4e8c a63f b8ab 5c3f
000000a0: ca20 8cbf 3d99 8fbf 893d 97bf a519 b03f
000000b0: c72e 803f a0cf 83bf 36c8 2d3f cff1 b8bf
000000c0: aa30 91bf 43d4 8b3f 6db4 eabe 3f6c 72bf
000000d0: 0002 7abf 6199 723f b208 793f 1fa2 aebf
000000e0: aa16 98bf 1330 80bf d46f 81bf 7fc0 8ebf
000000f0: 3eca abbf ee38 98bf 6972 6a3f 79da 87bf
-1.0806295 0.6008978 -0.6974273 1.3413692 0.9644966 -1.2904258 1.2244384 0.25008288
-0.88363326 -1.1762342 -1.368499 -0.86324126 1.3349804 0.9553607 1.1284155 -1.551495
1.3761034 -1.2389575 -1.4100358 -1.1805726 -1.244708 -1.2281708 1.2009991 0.66281295
-1.5371513 -1.3082142 1.2293401 -1.3652197 -1.3149623 -1.1890914 -0.7471 -1.360267
1.0542986 1.2471218 -1.0746644 0.9375865 -0.94180024 -1.0140418 1.3011568 0.8619952
-1.0947506 -1.121864 -1.1815654 1.3757826 1.0014275 -1.0297737 0.6788362 -1.4448794
-1.1342976 1.0924152 -0.4584078 -0.9469642 -0.976593 0.9476529 0.97278893 -1.3643225
-1.1881917 -1.0014671 -1.0112252 -1.1152495 -1.3421094 -1.1892374 0.91580826 -1.0613548

net.2.weight f4 [2, 64]
00000000: 3f97 55bf c46b b73e 976c e8be 7aa7 763f
00000010: c0fc 5a3f 8a80 58bf 77a8 823f ec07 b23e
00000020: e881 56bf 83a0 80bf e6ff 53bf cc0d 12bf
00000030: c2f9 6c3f da2e 713f 8e19 673f f700 80bf
00000040: 4cdb 4b3f f866 62bf f2f6 59bf f03c 5bbf
00000050: 5769 39bf 6994 62bf ed88 653f 82ce ed3e
00000060: 0851 8cbf b20d 75bf 10c2 4f3f e246 85bf
00000070: 8afb 49bf f34e 58bf 4a5b 12bf b5f3 70bf
00000080: 46fb 303f 9938 7c3f 131e 29bf 626d 143f
00000090: 85f7 3bbf 9885 56bf 94ce 653f 6ce9 243f
000000a0: a69f 3cbf 5355 56bf dda0 43bf 4774 4c3f
000000b0: 8c6f 273f bdd8 3fbf 01c5 303f 1901 46bf
000000c0: 3e05 68bf 27e7 2e3f 249a 2dbe 89d6 4fbf
000000d0: f90e 26bf 670a 543f 4852 503f 7103 74bf
000000e0: 8ad6 49bf 6c00 4cbf dfbd 29bf 8905 3cbf
000000f0: 3fcc 5abf a7f4 2abf de24 233f a1b4 33bf
00000100: ca83 4dbf f247 033f a031 45bf 56b9 843f
00000110: 00c8 603f df67 62bf e166 603f df51 a8bd
00000120: 6381 0dbf f4a3 70bf 1293 8abf 3598 17bf
00000130: 17ef 1d3f 829a 483f 1a6d 723f 6d1b 4cbf
00000140: feea 573f 8522 49bf bbee 79bf 051b 6abf
00000150: fe65 7cbf 28bc 1cbf 2040 413f 01ae de3e
00000160: 5a50 4bbf 3d13 4cbf 1024 5d3f 1611 5dbf
00000170: 817b 56bf fc73 43bf df59 efbe 6fcd 5dbf
00000180: 956d 493f 22f1 5c3f 7fb0 62bf 11f1 663f
00000190: 14d8 3ebf bab4 4cbf f8ed 5b3f e930 503f
000001a0: bfda 35bf 20e8 5ebf f9b8 7cbf 0e39 6f3f
000001b0: cb1c 2a3f b472 79bf 0185 723e a8c2 68bf
000001c0: c4c6 58bf 5eca 3f3f 6475 19bf b16b fbbe
000001d0: 5c5e 40bf 6951 5c3f 494d 853f 0b78 5cbf
000001e0: 2f07 4cbf c029 40bf 111b 42bf fa08 5ebf
000001f0: 4595 62bf aa49 50bf 091c 1a3f 3eeb 4bbf
-0.8343391 0.35824406 -0.45395347 0.963493 0.85541916 -0.84571135 1.0207661 0.3477167
-0.8379197 -1.0048984 -0.82812345 -0.570523 0.925686 0.94212115 0.9027337 -1.0000294
0.79631495 -0.8843837 -0.85142434 -0.8563986 -0.7242636 -0.88507706 0.8966206 0.46446615
-1.0962229 -0.9572402 0.8115549 -1.0412257 -0.78899443 -0.84495467 -0.57170546 -0.9412187
0.6913341 0.9852386 -0.66061515 0.57979405 -0.7342456 -0.837976 0.8976834 0.64418674
-0.73681104 -0.83723944 -0.7641733 0.79864925 0.6540458 -0.7494009 0.69050604 -0.77345425
-0.90633 0.6832146 -0.16953331 -0.8118673 -0.64866596 0.8282837 0.8137555 -0.9531775
-0.78842986 -0.79688144 -0.66305345 -0.73445946 -0.85467905 -0.6677956 0.6372813 -0.7019749
-0.8027922 0.51281655 -0.77028847 1.036906 0.87805176 -0.88439745 0.8765698 -0.08218741
-0.55275553 -0.9400017 -1.0826132 -0.59216624 0.6169295 0.7836076 0.94697726 -0.7972935
0.84342945 -0.785683 -0.976299 -0.9144748 -0.9859313 -0.61224604 0.7548847 0.4349213
-0.7941948 -0.79716855 0.8638315 -0.86354196 -0.837822 -0.76348853 -0.46748254 -0.8664159
0.78682834 0.8630544 -0.8855056 0.9021159 -0.7454846 -0.79963267 0.85909986 0.8132463
-0.71036905 -0.87072945 -0.98719746 0.93446434 0.66450185 -0.9744065 0.2368355 -0.9092202
-0.8467829 0.7491816 -0.5994475 -0.491056 -0.7514398 0.8606172 1.041421 -0.8612067
-0.7969846 -0.75063705 -0.7582255 -0.8673245 -0.8850902 -0.813624 0.6019903 -0.79655826

net.2.bias f4 [2]
00000000: 0cc3 513f 3162 303f
0.8193824 0.6889983
