models/55000.pth (torch_old, 2645 bytes, 4 tensors)

net.0.weight f4 [64, 4]
0	0xbe7a339d	-0.24433751
1	0xbdd60756	-0.10450618
2	0xbf34cc78	-0.70624495
3	0xbe4e795a	-0.2016348
4	0x3d1462b8	0.036226958
5	0xbe1b4d2f	-0.15166162
6	0x3f55cb37	0.83513206
7	0xbc93549e	-0.017984685
8	0xbd96bed2	-0.07360615
9	0xbe605aec	-0.21909684
10	0xbeef3d5f	-0.4672651
11	0xbe976261	-0.29567245
12	0x3e815d66	0.2526657
13	0x3e6afa6d	0.22947092
14	0x3fbf2ff7	1.4936513
15	0x3eedcbdd	0.46444598
16	0x3ec9e371	0.39431337
17	0x3d999339	0.074987836
18	0x3e8e47a0	0.2778902
19	0x3da9c571	0.08289612
20	0xbdb18ce8	-0.08669454
21	0xbe5aa318	-0.21351278
22	0xbf785491	-0.9700404
23	0xbec865d4	-0.3914019
24	0x3f1c9c0d	0.61175615
25	0x3e346823	0.1761785
26	0xbf92205e	-1.1416128
27	0xbded62ae	-0.11591087
28	0xbdb26b90	-0.08711922
29	0x3e50e178	0.2039851
30	0xbf6baabd	-0.920574
31	0xbc76078f	-0.015016451
32	0x3f20411a	0.6259934
33	0x3d98d8d4	0.07463232
34	0x3f6439f4	0.8915093
35	0x3e28dd8f	0.16490768
36	0xbf2bd9af	-0.67129034
37	0xbde02c6a	-0.10945971
38	0x3f7e0196	0.9922117
39	0x3e0cf0cf	0.13763736
40	0xbd5ece2e	-0.054395847
41	0xbea38c66	-0.31943053
42	0xbfce43e7	-1.6114472
43	0xbf114a1e	-0.5675372
44	0x3f287e5f	0.65817827
45	0x3e5d592c	0.21616048
46	0xbf12351d	-0.57112294
47	0x3d404a91	0.046946112
48	0x3e522059	0.20520152
49	0xbe1e2929	-0.15445389
50	0xbf8b7193	-1.0894035
51	0xbee93f84	-0.4555627
52	0x3f232371	0.63725954
53	0xbcd6c533	-0.026217079
54	0xbf01d909	-0.50721794
55	0xbe31dfb1	-0.17370488
56	0x3f0343cf	0.5127534
57	0x3e18ac3e	0.14909455
58	0xbe93501a	-0.2877205
59	0xbbb1eb27	-0.0054296437
60	0xbecc5558	-0.39908862
61	0x3e088992	0.13333729
62	0x3fc4b93c	1.5369029
63	0x3f0d1007	0.5510258
64	0xbde0f8d1	-0.10984958
65	0x3ea32c7f	0.31869885
66	0x3f499042	0.78735745
67	0x3f095a0c	0.53653026
68	0x3ed011c5	0.40638557
69	0x3bd7fa31	0.0065911044
70	0x3f95cda3	1.170338
71	0x3e82951a	0.2550438
72	0xbe5a6871	-0.21328904
73	0xbe8505fc	-0.25981128
74	0xbfe058bd	-1.7527081
75	0xbf090046	-0.5351604
76	0x3e8ab379	0.27090052
77	0x3cbd7f62	0.02313203
78	0xbf2177da	-0.63073504
79	0xbe290ac9	-0.1650802
80	0x3f074890	0.52845097
81	0x3d7141b1	0.05890054
82	0xbfa814a4	-1.3131299
83	0xbe5ba792	-0.21450642
84	0x3ece782e	0.40326065
85	0x3c5e4824	0.013567004
86	0x3f9955e5	1.1979338
87	0x3e8e7b4a	0.27828437
88	0xbe239461	-0.15974571
89	0x3eb2f234	0.3495041
90	0x3f02de0e	0.5112008
91	0x3ef22132	0.4729095
92	0xbebb13e4	-0.36538613
93	0xbe737f1a	-0.23778954
94	0x3e57e14f	0.21082042
95	0xbe551651	-0.20809294
96	0xbd350c79	-0.044201348
97	0x3d9b9c5c	0.075981826
98	0x3fd8231b	1.6885713
99	0x3f043931	0.5164977
100	0xbf54af7d	-0.83080274
101	0x3a88ba3a	0.0010431476
102	0x3efdde1a	0.49583513
103	0x3e90ebd2	0.28304917
104	0xbce63a39	-0.028103935
105	0x3cc8aa5a	0.024495292
106	0x3fb9aabc	1.4505229
107	0x3e8270ad	0.2547659
108	0xbf83c4bd	-1.0294415
109	0x3de484d1	0.11158145
110	0x3f1e44a5	0.61823493
111	0x3ece829f	0.4033403
112	0xbc8c8f69	-0.017158227
113	0x3d58cd3b	0.052930098
114	0x3f79f733	0.9764282
115	0x3e99ebc3	0.30062684
116	0xbea37a03	-0.31929025
117	0xbe1d6146	-0.15369138
118	0xbf77e6bc	-0.9683645
119	0xbe9c9fab	-0.30590567
120	0x3f129b1c	0.5726793
121	0x3d934f8b	0.07192906
122	0x3eefe931	0.46857598
123	0x3d4c80ca	0.04992751
124	0xbf66979c	-0.9007509
125	0xbd8747dc	-0.06605503
126	0x3f972bf7	1.1810292
127	0x3e7f0b01	0.24906541
128	0x3e850f98	0.2598846
129	0x3e41f80f	0.18942283
130	0xbe9d145f	-0.30679604
131	0x3d1f4ee6	0.038893603
132	0x3eb9f42b	0.36319098
133	0xbe1ca3e3	-0.15296893
134	0xbf032eef	-0.5124349
135	0xbec4d9ed	-0.38447514
136	0xbdd6f216	-0.10495393
137	0xbd51424f	-0.051088627
138	0xbf9cf6a9	-1.2262775
139	0xbe601f66	-0.21886978
140	0xbf5f2bbf	-0.87176126
141	0xbe01eff6	-0.12689194
142	0x3f4a8b11	0.7911845
143	0x3d9d02ae	0.07666527
144	0xbee0eb79	-0.4392965
145	0x3d2cffc9	0.042236123
146	0x3e833214	0.25624144
147	0x3e3fd555	0.18733723
148	0xbe15c3fb	-0.14625542
149	0xbe4fb535	-0.20283969
150	0xbf2db7de	-0.67858684
151	0xbe9ed742	-0.31023604
152	0xbd491fc9	-0.04910258
153	0x3cb5eef7	0.022208674
154	0xbf8e7dac	-1.1132102
155	0xbe67ceb3	-0.22637443
156	0x3e99eaa4	0.3006183
157	0x3d8ed82e	0.06974827
158	0x3f05ac6f	0.5221624
159	0x3e0ed1de	0.13947245
160	0x3f04ebcd	0.51922303
161	0xbcee8f6a	-0.02912112
162	0x3f843ddf	1.0331382
163	0x3e026c18	0.12736547
164	0x3f355b75	0.7084268
165	0x3d92945c	0.071572036
166	0x3e0e8874	0.1391924
167	0x3c895f5a	0.0167691
168	0x3d88bd29	0.066767044
169	0xbd726241	-0.059175733
170	0xbfb5e2f5	-1.4209887
171	0xbe912fca	-0.28356773
172	0xba4f03bd	-0.00078969804
173	0x3e88404c	0.26611555
174	0x3fa77444	1.3082356
175	0x3f04acd1	0.51826197
176	0x3abb150f	0.0014273244
177	0x3dfa5934	0.122240454
178	0x3e96b31c	0.29433525
179	0x3e533117	0.20624195
180	0x3eb9a103	0.36255655
181	0xbcfaf084	-0.030632265
182	0xbf7e62a4	-0.99369264
183	0xbe6a6f23	-0.22893958
184	0x3e88c442	0.26712233
185	0x3be97afc	0.0071252566
186	0xbf5d8db4	-0.86544347
187	0xbdf8b06b	-0.12143024
188	0x3dbe7488	0.0929957
189	0x3d80b1a1	0.0628388
190	0x3f710562	0.9414884
191	0x3ebe4199	0.37159422
192	0xbecf9d6f	-0.405498
193	0xbdfbceb5	-0.122952856
194	0xbf0c279e	-0.5474795
195	0xbe67fccf	-0.22655033
196	0x3efd0fa3	0.49425992
197	0x3d086d3f	0.03330731
198	0x3f196a16	0.599275
199	0x3db9e61a	0.090770915
200	0x3ec61c0f	0.38693282
201	0xbe731b46	-0.23740873
202	0xbf6cb872	-0.9246894
203	0xbe7c59ff	-0.24643706
204	0x3f0e1b9e	0.5551089
205	0x3e6d0394	0.23145896
206	0x3f4fc2ab	0.81156415
207	0x3ea8c3ec	0.32961977
208	0xbdb828a5	-0.08992127
209	0xbe821cb2	-0.25412518
210	0xbf182b86	-0.5944141
211	0xbeb5bcad	-0.3549551
212	0x3e7713f2	0.24128702
213	0x3e17addb	0.14812414
214	0x3ddd70db	0.10812541
215	0x3ded4df0	0.11587131
216	0x3d2af657	0.041738834
217	0x3e794d0b	0.24345796
218	0x3f65cfc1	0.8977013
219	0x3eb3d99f	0.3512697
220	0xbf3ef024	-0.74585176
221	0xbe166d53	-0.14690141
222	0x3f91297c	1.1340785
223	0x3e5e3ccf	0.21702884
224	0x3f764cd2	0.9621097
225	0x3d928b11	0.07155431
226	0xbf644309	-0.8916479
227	0xbe2b2411	-0.16712977
228	0xbf12946d	-0.5725773
229	0xbdbeade4	-0.09310511
230	0x3f119fbe	0.5688437
231	0x3d5d9339	0.05409548
232	0x3e0e0528	0.13869154
233	0x3e1eea3a	0.15519038
234	0xbc9d0cb2	-0.019171093
235	0x3e5686ba	0.20949832
236	0x3f218b74	0.63103414
237	0x3ddb00dd	0.10693524
238	0xbe319ee1	-0.17345764
239	0x3c5a04b4	0.013306785
240	0xbf1fefb7	-0.6247515
241	0xbe1669e1	-0.14688827
242	0x3f56c051	0.838872
243	0x3e5670ae	0.20941421
244	0x3e137d2a	0.14403215
245	0x3de6245b	0.11237403
246	0xbfc9d818	-1.5769072
247	0xbe17d366	-0.14826736
248	0xbeba5bc3	-0.36398134
249	0x3de60536	0.11231463
250	0xbf6130c4	-0.87965035
251	0x3d176701	0.036963467
252	0x3edde35f	0.43337533
253	0x3e0b5723	0.13607459
254	0x3e574f47	0.21026336
255	0x3e53cd5b	0.20683806

net.0.bias f4 [64]
0	0xbf8fc48f	-1.123186
1	0x3f254a94	0.6456692
2	0xbf3fb850	-0.74890614
3	0x3fb25ec5	1.3935171
4	0x3f8133c5	1.0093924
5	0xbfaae18a	-1.3350079
6	0x3fa23d44	1.2674947
7	0x3e930814	0.287171
8	0xbf6cecb2	-0.9254867
9	0xbf9c40a1	-1.2207223
10	0xbfb66d33	-1.4252075
11	0xbf66a659	-0.90097576
12	0x3fb2c047	1.3964928
13	0x3f7fd372	0.99932015
14	0x3f9614e5	1.1725127
15	0xbfcf5c03	-1.6199955
16	0x3fb6a6a4	1.4269605
17	0xbfa47c29	-1.2850391
18	0xbfbb8208	-1.4649057
19	0xbf9d8441	-1.2305986
20	0xbfa6a0bb	-1.3017801
21	0xbfa37e22	-1.2772868
22	0x3fa00066	1.2500122
23	0x3f342bf6	0.7037958
24	0xbfcd9ff0	-1.6064434
25	0xbfacc5fc	-1.349792
26	0x3fa3c76f	1.2795237
27	0xbfb468e1	-1.4094507
28	0xbfaec204	-1.3652959
29	0xbf9e0efa	-1.234832
30	0xbf49e8b5	-0.7887071
31	0xbfb41359	-1.4068404
32	0x3f8c558a	1.0963604
33	0x3fa5ff6e	1.2968576
34	0xbf8fa22a	-1.1221364
35	0x3f794d23	0.97383326
36	0xbf7bd167	-0.983664
37	0xbf87c93c	-1.0608287
38	0x3facf98c	1.3513656
39	0x3f68be8c	0.9091575
40	0xbf917a7d	-1.1365505
41	0xbf947193	-1.159716
42	0xbf9e0f7e	-1.2348478
43	0x3fb695d4	1.4264474
44	0x3f85f466	1.046521
45	0xbf8abdde	-1.0839193
46	0x3f3918de	0.7230357
47	0xbfbf5b22	-1.4949687
48	0xbf96fa82	-1.1795199
49	0x3f919382	1.1373141
50	0xbf00aa24	-0.50259614
51	0xbf7d3441	-0.9890786
52	0xbf8362d9	-1.0264541
53	0x3f7dd2ff	0.9915008
54	0x3f83265d	1.0246083
55	0xbfb41674	-1.4069352
56	0xbf9d5075	-1.2290179
57	0xbf861021	-1.0473672
58	0xbf873227	-1.056218
59	0xbf93cc0b	-1.1546644
60	0xbfb0d866	-1.381604
61	0xbf9f1f93	-1.2431511
62	0x3f762d78	0.9616313
63	0xbf8d02f2	-1.1016524

net.2.weight f4 [2, 64]
0	0xbf619622	-0.8811971
1	0x3ecc6ec5	0.3992826
2	0xbf00f524	-0.50374055
3	0x3f81b2ea	1.0132725
4	0x3f673acd	0.903241
5	0xbf641b89	-0.89104515
6	0x3f883209	1.064027
7	0x3ebad3c2	0.36489683
8	0xbf5fb1f6	-0.8738092
9	0xbf863b98	-1.0486937
10	0xbf600ee8	-0.87522745
11	0xbf1c2cb4	-0.6100571
12	0x3f7659d6	0.9623083
13	0x3f7c4ecd	0.9855774
14	0x3f72e615	0.9488233
15	0xbf84e60f	-1.0382708
16	0x3f56db18	0.8392806
17	0xbf6bfa16	-0.92178476
18	0xbf66aab7	-0.9010424
19	0xbf65acb0	-0.89716625
20	0xbf43f74b	-0.76549214
21	0xbf6c0f05	-0.9221042
22	0x3f7072ff	0.9392547
23	0x3efeff4f	0.4980416
24	0xbf912d6a	-1.1341984
25	0xbf802011	-1.0009786
26	0x3f5a8d48	0.8537183
27	0xbf8ac947	-1.0842675
28	0xbf53903d	-0.82641965
29	0xbf64fd03	-0.89448565
30	0xbf1bd8a4	-0.6087744
31	0xbf7c2d08	-0.9850621
32	0x3f3c00d1	0.73438746
33	0x3f82dfc7	1.0224541
34	0xbf349a7a	-0.7054821
35	0x3f1f00fb	0.6211087
36	0xbf464fed	-0.7746571
37	0xbf62b950	-0.88564014
38	0x3f6f7531	0.93538195
39	0x3f316da0	0.693079
40	0xbf465e50	-0.7748766
41	0xbf60c65f	-0.8780269
42	0xbf4e6d2d	-0.8063534
43	0x3f57e938	0.8434024
44	0x3f326568	0.69685984
45	0xbf4a3a1b	-0.7899491
46	0x3f39e2d2	0.72611725
47	0xbf4faca0	-0.8112278
48	0xbf74bd80	-0.95601654
49	0x3f3b7e9b	0.7324006
50	0xbe560b21	-0.20902683
51	0xbf5882b1	-0.8457442
52	0xbf32434e	-0.6963395
53	0x3f5fb118	0.873796
54	0x3f5c4f5d	0.860586
55	0xbf7f1103	-0.9963533
56	0xbf54c061	-0.83106047
57	0xbf57b1be	-0.8425559
58	0xbf3329df	-0.69985765
59	0xbf4679ae	-0.7752942
60	0xbf65a5b1	-0.8970595
61	0xbf355dfa	-0.7084652
62	0x3f2cf3ff	0.6755981
63	0xbf3d4cf3	-0.7394554
64	0xbf57d2aa	-0.8430582
65	0x3f0c8ef7	0.5490565
66	0xbf4d5160	-0.80202293
67	0x3f8a258e	1.0792711
68	0x3f6bb7c2	0.9207727
69	0xbf6c5bab	-0.92327374
70	0x3f6c4029	0.922854
71	0xbd02f9ec	-0.031976625
72	0xbf1907c6	-0.59777486
73	0xbf7c8a91	-0.98648936
74	0xbf8fa75a	-1.1222947
75	0xbf21b0a6	-0.6316017
76	0x3f283ed4	0.6572087
77	0x3f544599	0.829187
78	0x3f7e371b	0.99302834
79	0xbf560d9c	-0.83614516
80	0x3f61822e	0.88089263
81	0xbf53ddad	-0.82760125
82	0xbf826ce6	-1.0189483
83	0xbf73bffe	-0.9521483
84	0xbf82b457	-1.0211285
85	0xbf2778d3	-0.6541874
86	0x3f4a7b60	0.79094505
87	0x3ef5e2fb	0.48024735
88	0xbf555866	-0.8333801
89	0xbf58a4fd	-0.8462675
90	0x3f66a75b	0.90099114
91	0xbf69ce7e	-0.9133071
92	0xbf61153e	-0.8792304
93	0xbf4e2ec8	-0.8054013
94	0xbf02ccbb	-0.51093644
95	0xbf6a497f	-0.91518396
96	0x3f546267	0.8296265
97	0x3f67a40c	0.9048469
98	0xbf6c45cf	-0.9229402
99	0x3f702022	0.9379903
100	0xbf4a2e93	-0.78977317
101	0xbf567992	-0.8377925
102	0x3f668784	0.9005053
103	0x3f5a5d14	0.85298276
104	0xbf40af69	-0.75267655
105	0xbf6908b2	-0.91028893
106	0xbf830235	-1.0235049
107	0x3f790b15	0.97282535
108	0x3f33b92e	0.70204437
109	0xbf81267b	-1.0089868
110	0x3e8f52ca	0.2799285
111	0xbf735b4d	-0.9506119
112	0xbf63c063	-0.88965434
113	0x3f4b1630	0.7933073
114	0xbf1e3016	-0.61792123
115	0xbf093db2	-0.53609765
116	0xbf49c256	-0.7881216
117	0x3f66dfd0	0.9018526
118	0x3f89dc9e	1.0770452
119	0xbf68c311	-0.9092265
120	0xbf54bff1	-0.8310538
121	0xbf4bc73f	-0.796009
122	0xbf4cfd66	-0.80074155
123	0xbf67f956	-0.9061483
124	0xbf6e9aee	-0.93205154
125	0xbf59b6b1	-0.8504439
126	0x3f249abe	0.6429862
127	0xbf56c553	-0.8389484

net.2.bias f4 [2]
0	0x3f5c1338	0.85966825
1	0x3f3ad7f3	0.7298576
