models/60000.pth (torch_old, 2645 bytes, 4 tensors)

net.0.weight f4 [64, 4]
000000 6a 41 8c be 7c 48 09 be e2 77 3f bf 75 38 5b be
       -0.27393657 -0.13406557 -0.747923 -0.21408255
000010 c4 40 fd 3c e1 c1 27 be 76 d0 50 3f 12 16 4d bd
       0.030914672 -0.16382553 0.81568086 -0.050069876
000020 ab f6 a9 bd 55 fd 64 be f9 de ee be 8b fa 88 be
       -0.08299001 -0.22362264 -0.4665449 -0.2675365
000030 42 75 91 3e 46 37 86 3e 41 5e c4 3f 44 69 f0 3e
       0.28409773 0.26214045 1.5341264 0.4695531
000040 31 97 d1 3e 0e 4e b9 3d a9 18 9d 3e 25 c6 ae 3d
       0.40935662 0.09048091 0.30682877 0.08533887
000050 1c 60 0a be 11 89 85 be 67 4f 83 bf 63 44 d4 be
       -0.13513225 -0.26081136 -1.0258607 -0.41458425
000060 e5 11 22 3f fc 4f 4b 3e 97 78 8c bf ea fd ac bd
       0.63308555 0.1985473 -1.0974301 -0.08446868
000070 a7 d7 c8 bd f0 71 4f 3e e7 c2 59 bf b9 1d 03 3c
       -0.098067574 0.20258307 -0.8506302 0.008002692
000080 9a 94 27 3f 21 49 e6 3d 83 d1 65 3f 3f d0 26 3e
       0.65461123 0.11244417 0.89772815 0.16290377
000090 42 1f 30 bf e2 7b 02 be 7c 0d 74 3f d2 c5 e7 3d
       -0.68797696 -0.1274257 0.95333076 0.11317028
0000a0 8f 96 d4 bd d3 44 bc be f3 e5 d4 bf 56 cc 14 bf
       -0.10380279 -0.3677126 -1.6632675 -0.5812429
0000b0 be ff 2f 3f de d0 85 3e ae a4 01 bf 39 8c a6 3d
       0.68749607 0.26135916 -0.50641906 0.08132214
0000c0 e3 97 2d 3e a4 f4 41 be e2 81 89 bf 0f 5e e4 be
       0.16952471 -0.18940979 -1.0742762 -0.4460301
0000d0 0a 61 25 3f 52 fa 7e bc f0 88 f2 be ab 4d 22 be
       0.64601195 -0.015562611 -0.473701 -0.1584994
0000e0 48 cb 07 3f d3 19 2b 3e 91 00 82 be aa 13 19 3c
       0.5304456 0.1670907 -0.25391057 0.009343067
0000f0 64 17 c2 be 8b 2b 1b 3e ae 8f c1 3f 49 41 08 3f
       -0.3790847 0.15153329 1.5121973 0.5322462
000100 a8 13 61 bd 98 e5 bd 3e f2 9c 58 3f 76 5a 0f 3f
       -0.054950386 0.3708923 0.8461448 0.5599741
000110 8f 6c cf 3e 6b dd 8d 3c ba 91 95 3f 72 c9 73 3e
       0.4051251 0.017317494 1.1685097 0.23807314
000120 74 b7 7f be 78 41 98 be 74 f7 e5 bf 31 a2 0a bf
       -0.24972326 -0.2973745 -1.7966142 -0.54153734
000130 ac ba 90 3e 42 4d 3c 3d 3e 3f 19 bf a4 03 03 be
       0.2826742 0.045972116 -0.59862125 -0.12794358
000140 01 24 05 3f ea 12 88 3d a6 e9 a2 bf 59 c2 3b be
       0.5200806 0.066442326 -1.2727554 -0.18335856
000150 5c 69 cf 3e 31 d6 cd 3c 26 7c 97 3f 92 2f 81 3e
       0.4051007 0.025126548 1.1834762 0.25231606
000160 15 d4 f6 bd 13 be c5 3e a9 38 0f 3f 5a 9a fa 3e
       -0.1205217 0.38621578 0.5594583 0.48945886
000170 d2 96 d0 be 0c 65 96 be 3d a1 1d 3e 86 af 74 be
       -0.40740067 -0.29373968 0.15393539 -0.23895082
000180 1b 03 84 bc 88 20 e4 3d 64 37 d6 3f 8c 3c fc 3e
       -0.016114762 0.11139017 1.6735654 0.49264944
000190 8d 1d 59 bf 55 3c 90 bc 43 23 e9 3e 35 2d 80 3e
       -0.84810716 -0.017606894 0.45534715 0.2503449
0001a0 50 d0 b8 3b 73 83 5e 3d ec 00 be 3f 6d e4 84 3e
       0.005640067 0.05432458 1.4844031 0.25955525
0001b0 19 7e 85 bf 63 e2 c4 3d 43 66 14 3f 5f 8f bd 3e
       -1.0429107 0.09613492 0.5796854 0.37023446
0001c0 c3 8e 2c 3c 89 a2 b8 3d 78 ec 7e 3f 05 23 9c 3e
       0.010532084 0.09015376 0.9957957 0.30495468
0001d0 18 80 af be ba ec 36 be 96 b7 80 bf dd ea 9f be
       -0.34277415 -0.17863742 -1.0056026 -0.31233874
0001e0 a7 ff 1c 3f 56 54 fe 3d 5f 95 02 3f 49 10 9f 3d
       0.61327595 0.124184296 0.5100917 0.07766778
0001f0 6f 43 6a bf bf 58 a8 bd 07 4c 92 3f 19 19 61 3e
       -0.91509145 -0.08220052 1.1429452 0.2198223
000200 77 17 94 3e 5d 1b 5e 3e 3b 6e 88 be 65 b1 6c 3d
       0.28924152 0.21690126 -0.266466 0.057786364
000210 9d 0b bb 3e 84 23 1a be 72 69 f7 be de 95 bc be
       0.36532298 -0.1505261 -0.48322636 -0.3683309
000220 bb 54 11 be a8 2b ad bd de 73 a1 bf 37 d2 64 be
       -0.14192478 -0.084555924 -1.2613485 -0.22345816
000230 73 b5 65 bf 2c 9a 33 be f4 44 2f 3f 03 79 d6 3c
       -0.89729995 -0.1753928 0.6846459 0.02618075
000240 44 7f eb be ae 2b b3 3c 1e 83 5f 3e a0 a5 2c 3e
       -0.45995533 0.021871414 0.21827361 0.16860056
000250 9a 9c 2e be 6d 39 68 be 70 bd 36 bf 76 19 a1 be
       -0.17051926 -0.22678156 -0.7138281 -0.31464738
000260 cc 89 9c bd 8e 52 6e bc 48 47 90 bf 24 58 6c be
       -0.0764347 -0.01454605 -1.1271753 -0.23080498
000270 18 29 a1 3e be b7 a9 3d ac c4 0a 3f 32 36 05 3e
       0.31476665 0.08286999 0.5420635 0.13008955
000280 0c 95 05 3f 07 69 57 bc f8 00 86 3f 71 6b 01 3e
       0.5218055 -0.013147599 1.0469046 0.12638642
000290 82 f4 34 3f a1 d3 aa 3d 67 ac 2a 3e 27 32 f2 3c
       0.7068559 0.08341146 0.16667329 0.02956493
0002a0 aa e0 0a 3d 00 84 b0 bd 65 0e b9 bf 15 e0 8f be
       0.033905663 -0.08618927 -1.4457518 -0.2810065
0002b0 71 33 69 3d 46 cf a4 3e 59 42 af 3f 13 13 0b 3f
       0.056933824 0.32189387 1.3692123 0.5432598
0002c0 72 ed b2 3c 22 86 0f 3e e7 01 a5 3e 1b fb 51 3e
       0.021841738 0.14016011 0.32228014 0.20505945
0002d0 c9 7a bd 3e 1c 63 ea bb f6 7a 72 bf 0b f3 40 be
       0.3700774 -0.007152928 -0.94718874 -0.18842714
0002e0 ed 27 89 3e 8f 2b 48 3c 89 7f 51 bf 14 64 d4 bd
       0.26788273 0.012217416 -0.8183523 -0.10370651
0002f0 bd d0 db 3d 8d 0e be 3d cc 90 76 3f 12 eb ba 3e
       0.10733173 0.09280119 0.9631469 0.3650747
000300 c0 c6 d8 be b7 1a 12 be d8 a2 14 bf e5 d9 6a be
       -0.42339134 -0.14268003 -0.5806098 -0.22934683
000310 1c e3 02 3f 30 bd 52 3d 81 0f 21 3f 49 54 bd 3d
       0.5112779 0.051449955 0.6291428 0.09244592
000320 5b 0b c5 3e a7 06 61 be 51 5f 5b bf b8 ce 4a be
       0.38485226 -0.21975194 -0.85692316 -0.1980542
000330 72 0a 14 3f 69 dd 85 3e 80 fe 4c 3f bf c0 9e 3e
       0.5782844 0.26145485 0.80075836 0.3100643
000340 6f 95 e9 bd 68 a8 8d be 90 b1 1f bf cc 5c b4 be
       -0.11405455 -0.27667546 -0.62380314 -0.35227048
000350 83 92 86 3e 8c bb 2c 3e 75 d3 10 3e 34 4f fd 3d
       0.26283655 0.16868418 0.14143164 0.123686224
000360 69 a0 8d 3d 61 19 89 3e ed d1 6c 3f e7 1e b2 3e
       0.069153614 0.26777175 0.9250782 0.34789202
000370 b7 21 45 bf 4e 12 30 be 18 3b 8b 3f 14 31 37 3e
       -0.7700457 -0.17194483 1.0877409 0.17889816
000380 b6 ae 76 3f af 28 b5 3d 94 4c 59 bf d5 4d 14 be
       0.9636034 0.088456504 -0.84882474 -0.14482816
000390 c6 89 14 bf a8 08 d1 bd 67 59 0a 3f d3 26 39 3d
       -0.58022726 -0.10206729 0.5404267 0.04520304
0003a0 6c 44 20 3e 2e f3 3e 3e 33 48 9c 3c 6f 3f 6c 3e
       0.15651101 0.18647453 0.019077396 0.23071073
0003b0 9e 70 20 3f 62 6b ef 3d 2a 05 0f be 93 0a 06 3d
       0.6267184 0.116904035 -0.13966814 0.032724928
0003c0 68 bd 28 bf 73 5b 39 be 51 3e 49 3f ce 41 2b 3e
       -0.6591401 -0.18101291 0.7861071 0.16724321
0003d0 12 10 16 3e f4 b9 fe 3d 9f e2 c6 bf ce 6b ef bd
       0.14654568 0.124378115 -1.5537909 -0.11690484
0003e0 98 c5 c5 be 2d f7 9d 3d dd e8 68 bf ae 71 33 3c
       -0.38627315 0.07713161 -0.9098032 0.010952396
0003f0 d7 5a de 3e 51 22 1b 3e 73 b3 73 3e f1 bc 5a 3e
       0.4342868 0.1514981 0.23798923 0.21361138

net.0.bias f4 [64]
000000 ad df 94 bf ff bc 2f 3f 90 ca 4b bf f4 0c b8 3f
       -1.163076 0.6864776 -0.7960596 1.4378953
000010 1f 1a 87 3f 00 23 af bf 98 ec a7 3f 23 3b a5 3e
       1.0554847 -1.3682556 1.3119078 0.3227168
000020 7b 3c 73 bf 05 4e a2 bf 57 4e bb bf 64 14 6c bf
       -0.9501416 -1.268006 -1.4633282 -0.92218614
000030 e7 83 b8 3f 0d f2 85 3f af 23 9c 3f 6e 6a d5 bf
       1.4415253 1.0464493 1.219839 -1.6673105
000040 dd b8 ba 3f 6b cc a8 bf de fd c0 bf d4 d3 a2 bf
       1.4587666 -1.3187383 -1.5077474 -1.2720895
000050 be e7 ab bf ec f2 a7 bf 5c 87 a4 3f 89 9e 3b 3f
       -1.3430097 -1.3121009 1.2853808 0.7328878
000060 70 33 d3 bf ce b7 b2 bf 4e ac a8 3f 72 b2 ba bf
       -1.6500072 -1.3962343 1.3177583 -1.4585707
000070 0c d8 b3 bf 23 c0 a3 bf 21 bb 50 bf 7c 7e ba bf
       -1.4050307 -1.279301 -0.81535536 -1.456985
000080 e3 6f 91 3f 8e 58 ab 3f 28 b3 94 bf 02 80 7d 3f
       1.136227 1.33864 -1.1617174 0.9902345
000090 1e 0d 83 bf f3 3d 8d bf 82 34 b2 3f 6f 8f 74 3f
       -1.0238378 -1.103453 1.3922274 0.9553136
0000a0 76 6c 95 bf e0 98 97 bf da 4b a3 bf bc 92 ba 3f
       -1.1673725 -1.1843529 -1.2757523 1.457603
0000b0 fb 10 8b 3f c1 46 90 bf c9 e7 43 3f 8d 0d c4 bf
       1.0864557 -1.1271592 0.7652555 -1.5316635
0000c0 be 01 9d bf d0 b7 97 3f 4c c8 0b bf 0b 7e 81 bf
       -1.2266157 1.185297 -0.54602504 -1.011659
0000d0 3e 13 89 bf c9 55 84 3f 90 d3 88 3f 4b a7 b9 bf
       -1.0708997 1.033868 1.0689564 -1.4504179
0000e0 c8 c9 9f bf 57 6a 8c bf 70 f4 8b bf 4a 56 97 bf
       -1.2483454 -1.0969952 -1.0933971 -1.1823208
0000f0 f9 b5 b5 bf 52 ae a4 bf ad d7 7f 3f 8a e0 90 bf
       -1.4196159 -1.2865698 0.9993847 -1.1318524

net.2.weight f4 [2, 64]
000000 f5 1e 6d bf 23 53 e0 3e b4 c3 0c bf 39 4e 88 3f
       -0.9262536 0.43813428 -0.5498612 1.0648872
000010 4e 52 72 3f 0b db 6f bf e8 37 8d 3f ba ce c4 3e
       0.94656837 -0.9369361 1.1032686 0.3843897
000020 1a f6 68 bf 21 3d 8b bf 37 33 6d bf ce 88 26 bf
       -0.9100052 -1.087803 -0.9265627 -0.650525
000030 5d f8 7e 3f 13 f7 82 3f fd a9 7d 3f 5b 3e 89 bf
       0.9959772 1.0231651 0.99087507 -1.0722154
000040 39 ee 61 3f e9 fb 74 bf 56 33 74 bf 93 52 6f bf
       0.88254124 -0.95696884 -0.9539083 -0.93485373
000050 e6 09 4e bf cd 08 75 bf 6d 4b 7b 3f 04 f2 08 3f
       -0.80483854 -0.95716554 0.98161966 0.53494287
000060 c7 91 95 bf 9b 54 85 bf 42 08 65 3f 8e e4 8f bf
       -1.1685113 -1.0416445 0.89465725 -1.1241624
000070 9d 56 5c bf 17 66 71 bf 64 57 25 bf 26 2f 83 bf
       -0.8606966 -0.942964 -0.6458647 -1.0248764
000080 40 39 46 3f 3f 38 87 3f a9 ec 3f bf 61 bf 29 3f
       0.77431107 1.056404 -0.7497049 0.66307646
000090 b3 af 4f bf ec 94 6e bf 96 3e 78 3f d0 c8 3c 3f
       -0.8112747 -0.93195987 0.969705 0.73743916
0000a0 44 8d 4f bf 7f af 6a bf 6f 00 59 bf ca f5 63 3f
       -0.8107493 -0.91674036 -0.84766287 0.8904692
0000b0 d2 79 3c 3f 08 3f 54 bf 21 9d 41 3f 8b 9a 58 bf
       0.73623383 -0.8290868 0.75630385 -0.84610814
0000c0 29 54 80 bf 7e 1e 47 3f 0f fd 82 be ec a7 61 bf
       -1.0025684 0.777809 -0.25583693 -0.88146853
0000d0 fe 2a 3e bf 90 72 6a 3f 7d 64 68 3f 0f a9 84 bf
       -0.7428435 0.9158106 0.9077833 -1.0364093
0000e0 36 5c 5f bf 4b c6 61 bf 8f 3c 3c bf 78 6b 50 bf
       -0.8725008 -0.88193196 -0.73529905 -0.81413984
0000f0 24 e6 6f bf 6e 4c 3f bf 6c ed 35 3f ab ae 46 bf
       -0.9371054 -0.74726 0.710654 -0.7761027
000100 c9 cb 61 bf 45 34 15 3f 81 d6 55 bf 94 7b 8f 3f
       -0.88201576 0.5828288 -0.8353043 1.1209588
000110 e5 52 76 3f 3f 1d 76 bf 25 b0 78 3f 96 82 84 3c
       0.96220237 -0.96138376 0.97143775 0.01617555
000120 c1 d7 23 bf 60 81 84 bf 18 b1 94 bf 50 3a 2b bf
       -0.6400109 -1.0351982 -1.1616545 -0.6688585
000130 f1 b8 32 3f 12 24 60 3f 4c fe 84 3f 1e 5c 60 bf
       0.6981345 0.8755504 1.0390105 -0.8764056
000140 a8 de 6a 3f 35 2a 5e bf 2b c7 87 bf 41 fe 7c bf
       0.91745996 -0.8678315 -1.0607656 -0.9882546
000150 20 15 87 bf ed d1 31 bf ed 98 53 3f b9 d1 05 3f
       -1.0553322 -0.69460946 0.8265522 0.52273136
000160 2c ba 5f bf b0 9a 65 bf 3f a3 6f 3f b3 47 77 bf
       -0.8739345 -0.8968916 0.9360847 -0.9659378
000170 d2 6f 6b bf f6 b4 58 bf b7 88 0d bf 3b b0 77 bf
       -0.919675 -0.84651124 -0.55286735 -0.9675328
000180 e1 19 5f 3f 68 0f 72 3f 2e 6f 75 bf 44 02 79 3f
       0.87148863 0.9455476 -0.9587277 0.9726908
000190 28 36 55 bf 7b 18 60 bf 69 d8 70 3f 6a 34 64 3f
       -0.8328576 -0.87537354 0.94080216 0.8914248
0001a0 80 d8 4a bf a5 48 72 bf 8c 6f 87 bf 57 54 81 3f
       -0.792366 -0.94642097 -1.0580916 1.0103863
0001b0 b2 f2 3c 3f 33 7a 85 bf ce cb a5 3e c7 a3 7d bf
       0.73807824 -1.0427917 0.32382053 -0.9907803
0001c0 a3 8f 6e bf 26 14 56 3f d1 8c 23 bf ae 1f 14 bf
       -0.9318792 0.83624494 -0.63886744 -0.5786084
0001d0 7e 2d 53 bf d9 16 71 3f 12 6c 8e 3f c8 c8 75 bf
       -0.8249129 0.9417549 1.112673 -0.9600949
0001e0 de da 5c bf 16 99 57 bf dc 2f 57 bf 4b 2d 71 bf
       -0.86271465 -0.84217966 -0.840574 -0.94209737
0001f0 92 14 7b bf 2d a6 62 bf 9e ba 2e 3f 80 cc 60 bf
       -0.9807826 -0.88534814 0.68253505 -0.8781204

net.2.bias f4 [2]
000000 9d 66 65 3f 6f ab 44 3f
       0.896097 0.76824087
