models/65000.pth (torch_old, 2645 bytes, 4 tensors)

net.0.weight f4 [64, 4]
0	0xbe98b4fb	-0.29825577
1	0xbe23e321	-0.16004612
2	0xbf47bcd8	-0.7802253
3	0xbe627383	-0.22114377
4	0x3cd8e37b	0.026475659
5	0xbe310eb9	-0.17290772
6	0x3f4b403c	0.7939489
7	0xbd8c8dc2	-0.06862976
8	0xbdca7a2f	-0.09886586
9	0xbe734b34	-0.23759156
10	0xbef347f6	-0.4751584
11	0xbe8443e1	-0.25833037
12	0x3e9c5179	0.3053091
13	0x3e92d549	0.2867835
14	0x3fc81cb2	1.5633757
15	0x3ef0a45f	0.47000405
16	0x3eda1e6d	0.42601338
17	0x3ddcd6e4	0.10783175
18	0x3ea90367	0.33010408
19	0x3db52d51	0.08846534
20	0xbe2e4efa	-0.17022315
21	0xbe98b1f4	-0.29823267
22	0xbf88c598	-1.0685301
23	0xbedbe83a	-0.42950612
24	0x3f264a46	0.6495708
25	0x3e5cc13d	0.2155809
26	0xbf890ed8	-1.0707655
27	0xbd831e8d	-0.064023115
28	0xbdd24a9d	-0.102681376
29	0x3e4eb939	0.20187844
30	0xbf4e43df	-0.80572313
31	0x3bae9b47	0.005328569
32	0x3f2b79e9	0.66982895
33	0x3e0e197c	0.13876909
34	0x3f6d8c0a	0.9279181
35	0x3e27f95c	0.16403717
36	0xbf33dbe7	-0.7025742
37	0xbe11ba1c	-0.14231151
38	0x3f6df464	0.92951035
39	0x3dc32d2e	0.09530102
40	0xbe0b082e	-0.13577339
41	0xbece2278	-0.40260673
42	0xbfd9ba06	-1.7009895
43	0xbf16aa67	-0.58853763
44	0x3f338349	0.701222
45	0x3e922ce1	0.28549865
46	0xbee5fd79	-0.44919947
47	0x3de09765	0.10966376
48	0x3e18782d	0.14889593
49	0xbe5fd760	-0.21859503
50	0xbf8be171	-1.0928174
51	0xbee506e3	-0.44731817
52	0x3f289a09	0.6586004
53	0xbb2f6081	-0.0026760402
54	0xbee70b6a	-0.45125896
55	0xbe1960c7	-0.14978324
56	0x3f0be85c	0.5465143
57	0x3e3be267	0.18348084
58	0xbe6bfe2f	-0.23046182
59	0x3cb945fe	0.022616383
60	0xbebea5c9	-0.3723586
61	0x3e274bd8	0.16337526
62	0x3fc1fd2b	1.5155386
63	0x3f0757c1	0.52868277
64	0xbc3d2afa	-0.011545891
65	0x3ed551dd	0.4166402
66	0x3f659aa4	0.8968909
67	0x3f14734c	0.5798843
68	0x3ed657cd	0.41863862
69	0x3d2173d7	0.039417114
70	0x3f9991bf	1.1997603
71	0x3e62d56e	0.2215173
72	0xbe8b9e65	-0.27269283
73	0xbea5ed8b	-0.32407793
74	0xbfe9e210	-1.8272114
75	0xbf0ab54a	-0.54182875
76	0x3e9b4909	0.3032916
77	0x3d95caff	0.07314109
78	0xbf0f215c	-0.5591028
79	0xbdda25a8	-0.106517136
80	0x3f07fb59	0.531179
81	0x3dac5dcb	0.08416327
82	0xbf9e2545	-1.2355124
83	0xbe3309e1	-0.17484237
84	0x3ed799c4	0.421095
85	0x3d4c338d	0.04985385
86	0x3f9ac563	1.2091488
87	0x3e692312	0.22767285
88	0xbdb33505	-0.08750347
89	0x3ed7d309	0.42153195
90	0x3f1a2de9	0.60226303
91	0x3f0020b9	0.5004993
92	0xbedb214e	-0.42798847
93	0xbea77bb5	-0.32711568
94	0x3dbeddf7	0.0931968
95	0xbe87767d	-0.26457587
96	0x3b982ef0	0.0046442673
97	0x3e133cc4	0.14378649
98	0x3fda2e90	1.704546
99	0x3ef51ed5	0.47875085
100	0xbf5c6663	-0.8609373
101	0xbcfcb224	-0.030846663
102	0x3edd1785	0.43182006
103	0x3e694874	0.22781545
104	0x3d18bb67	0.037288096
105	0x3db12abf	0.08650731
106	0x3fc29f86	1.5204933
107	0x3e8964a2	0.2683459
108	0xbf86ca2c	-1.0530448
109	0x3daf7d82	0.085688606
110	0x3f0efa3f	0.55850595
111	0x3eb154be	0.34634966
112	0x3cfa8a14	0.030583419
113	0x3df72f73	0.12069597
114	0x3f853cf9	1.0409232
115	0x3e9f4b03	0.31111917
116	0xbeb8fbc5	-0.36129585
117	0xbe4ccd38	-0.2000016
118	0xbf8450a0	-1.0337105
119	0xbea09522	-0.3136378
120	0x3f21df79	0.6323162
121	0x3e1e176d	0.15438624
122	0x3f0f53ae	0.5598706
123	0x3dd2f986	0.10301499
124	0xbf6d0932	-0.92592156
125	0xbdbf377d	-0.093367554
126	0x3f8f9b46	1.1219261
127	0x3e49f63e	0.1972284
128	0x3ea14a21	0.31501868
129	0x3e782583	0.2423306
130	0xbe71cd68	-0.23613513
131	0x3d97910e	0.07400714
132	0x3ec04e43	0.3755971
133	0xbe121a2a	-0.14267793
134	0xbeefddd0	-0.46848917
135	0xbeb8f6be	-0.3612575
136	0xbe32cf84	-0.17461973
137	0xbdf01d58	-0.11724347
138	0xbfa5cd98	-1.2953367
139	0xbe6f8b1f	-0.23392914
140	0xbf692037	-0.9106478
141	0xbe4a3edf	-0.19750546
142	0x3f1ab669	0.60434586
143	0xbc8ae69b	-0.016955664
144	0xbef673f2	-0.48135334
145	0x3aaab530	0.0013023969
146	0x3e445992	0.19174793
147	0x3e1e963d	0.15486999
148	0xbe448740	-0.19192219
149	0xbe800bbe	-0.2500896
150	0xbf3e45ce	-0.74325264
151	0xbea1a5f6	-0.3157193
152	0xbdc829a1	-0.09773565
153	0xbd3a3ae9	-0.045466337
154	0xbf95731d	-1.1675755
155	0xbe73de1b	-0.23815195
156	0x3eaa2ebd	0.33238783
157	0x3dcd5aad	0.10027061
158	0x3f0fc0a0	0.561533
159	0x3e03e5c9	0.12880625
160	0x3f07c5e5	0.5303634
161	0x3b894901	0.004189611
162	0x3f8a237c	1.0792079
163	0x3df360fa	0.11883731
164	0x3f341da5	0.70357734
165	0x3db45c04	0.08806613
166	0x3e43dfb2	0.19128302
167	0x3cbf9b5c	0.02338951
168	0x3b16bdf7	0.0023001411
169	0xbdf06655	-0.11738268
170	0xbfbd0fe1	-1.4770471
171	0xbe93376b	-0.28753218
172	0x3dc73ef4	0.09728804
173	0x3ebacea0	0.36485767
174	0x3fb545cc	1.4161925
175	0x3f0f69ea	0.5602099
176	0x3d32544e	0.04353743
177	0x3e25f63f	0.16207217
178	0x3eb264ba	0.34842473
179	0x3e51fe36	0.2050713
180	0x3ec5f52f	0.38663623
181	0x3c868312	0.016419921
182	0xbf6748fc	-0.9034574
183	0xbe28c889	-0.16482748
184	0x3e8d151a	0.27555162
185	0x3cb20e81	0.021735432
186	0xbf49a371	-0.78765017
187	0xbddac57d	-0.10682199
188	0x3dfecee7	0.12441807
189	0x3df7b01e	0.120941386
190	0x3f81529a	1.0103333
191	0x3eb8e334	0.36110842
192	0xbee126e3	-0.4397498
193	0xbe2540c6	-0.1613799
194	0xbf1b2a20	-0.6061115
195	0xbe6bcd6d	-0.23027582
196	0x3f072489	0.52790123
197	0x3d8dcacb	0.06923445
198	0x3f270bda	0.6525246
199	0x3dc6842a	0.09693177
200	0x3ec5dff8	0.38647437
201	0xbe5765e5	-0.21034963
202	0xbf4eee06	-0.80831945
203	0xbe37c09d	-0.1794457
204	0x3f17a2f2	0.5923301
205	0x3e92ea12	0.28694206
206	0x3f534193	0.82521933
207	0x3e98ccea	0.29843837
208	0xbe0ba500	-0.13637161
209	0xbe99b26d	-0.3001894
210	0xbf269c82	-0.6508256
211	0xbeb43c0d	-0.35202065
212	0x3e9154bb	0.28384957
213	0x3e4298c9	0.19003595
214	0x3e2c309f	0.16815422
215	0x3e04e7b9	0.1297902
216	0x3dc06c33	0.09395637
217	0x3e9611ea	0.29310542
218	0x3f73c149	0.95216805
219	0x3eb30104	0.34961712
220	0xbf492f42	-0.78587735
221	0xbe409013	-0.1880496
222	0x3f87ec0f	1.0618914
223	0x3e1c08c1	0.15237714
224	0x3f74e26d	0.95658
225	0x3db5540e	0.08853923
226	0xbf543892	-0.8289882
227	0xbe1869b5	-0.14884074
228	0xbf179991	-0.592187
229	0xbdea203d	-0.1143193
230	0x3f0524e9	0.52009445
231	0x3d19fdbd	0.0375955
232	0x3e32daca	0.17466274
233	0x3e5bd4ad	0.21467848
234	0x3d89aa04	0.06721881
235	0x3e74bef5	0.2390097
236	0x3f1fd75b	0.6243798
237	0x3dfa66de	0.122266516
238	0xbde44c51	-0.11147369
239	0x3cf58d6e	0.029974665
240	0xbf2e7d70	-0.6816015
241	0xbe503487	-0.20332538
242	0x3f416404	0.75543237
243	0x3e0bc9a6	0.13651142
244	0x3e20a6d2	0.15688637
245	0x3e0e810a	0.13916412
246	0xbfc3a129	-1.5283557
247	0xbdc18c3d	-0.094505765
248	0xbed02696	-0.4065444
249	0x3d44ea19	0.048074815
250	0xbf73c71c	-0.9522569
251	0xbb5f710a	-0.0034094476
252	0x3ee1829e	0.44044966
253	0x3e2ad4fd	0.16682811
254	0x3e8cb0d4	0.2747866
255	0x3e56dfb9	0.20983781

net.0.bias f4 [64]
0	0xbf997a08	-1.1990366
1	0x3f39d227	0.7258629
2	0xbf566645	-0.837498
3	0x3fbccfff	1.4750975
4	0x3f8c1d84	1.0946507
5	0xbfb31cb5	-1.3993136
6	0x3fac8430	1.347784
7	0x3eb73d2b	0.35788855
8	0xbf7bb0e1	-0.9831677
9	0xbfa71969	-1.305463
10	0xbfbfae16	-1.4975002
11	0xbf73edd6	-0.95284784
12	0x3fbda87a	1.481704
13	0x3f8ad954	1.0847573
14	0x3fa11518	1.2584562
15	0xbfda907b	-1.7075342
16	0x3fbe59c3	1.4871143
17	0xbfad0af5	-1.3518969
18	0xbfc5a50e	-1.5440996
19	0xbfa7cb9e	-1.3109014
20	0xbfb0cb03	-1.3811954
21	0xbfac4aba	-1.3460305
22	0x3fa8c270	1.3184338
23	0x3f445a5a	0.76700366
24	0xbfd8134f	-1.6880893
25	0xbfb75145	-1.4321676
26	0x3fad37b5	1.3532625
27	0xbfbf546a	-1.4947636
28	0xbfb89caf	-1.4422816
29	0xbfa88c44	-1.3167806
30	0xbf59670a	-0.8492285
31	0xbfbf4897	-1.4944028
32	0x3f95fd41	1.1717912
33	0x3fb032cd	1.3765503
34	0xbf994b92	-1.1976187
35	0x3f8217aa	1.0163472
36	0xbf87a311	-1.0596639
37	0xbf9218fa	-1.1413872
38	0x3fb70dbe	1.4301069
39	0x3f7ed0f7	0.99537605
40	0xbf99ce06	-1.2015998
41	0xbf9bf326	-1.2183578
42	0xbfa80fd1	-1.3129827
43	0x3fbe498b	1.4866194
44	0x3f8fdccd	1.1239258
45	0xbf956f1b	-1.1674532
46	0x3f4dc636	0.8038057
47	0xbfc87df0	-1.5663433
48	0xbfa1f69d	-1.2653385
49	0x3f9cbf7b	1.2245935
50	0xbf1617d0	-0.58630085
51	0xbf857c06	-1.0428474
52	0xbf8e1548	-1.1100245
53	0x3f892ace	1.0716188
54	0x3f8ddaa7	1.1082352
55	0xbfbe1e80	-1.4853058
56	0xbfa3ed12	-1.2806723
57	0xbf917ca5	-1.1366163
58	0xbf909c72	-1.1297743
59	0xbf9bd6df	-1.2174948
60	0xbfb9ebbc	-1.4525065
61	0xbfa9f6e4	-1.327847
62	0x3f84ad27	1.0365342
63	0xbf95411e	-1.1660497

net.2.weight f4 [2, 64]
0	0xbf77668c	-0.9664085
1	0x3ef2e89b	0.4744309
2	0xbf16f281	-0.5896378
3	0x3f8dc774	1.1076493
4	0x3f7c649f	0.98591036
5	0xbf7a52bd	-0.977825
6	0x3f9202c6	1.1407096
7	0x3ed10c92	0.40829903
8	0xbf7270e8	-0.9470353
9	0xbf90083b	-1.1252512
10	0xbf783f13	-0.96971244
11	0xbf30ce53	-0.69064826
12	0x3f83d092	1.0298026
13	0x3f87b5ab	1.0602316
14	0x3f83cb9a	1.0296509
15	0xbf8d9b2a	-1.1062977
16	0x3f6c1868	0.9222474
17	0xbf7e0089	-0.99219567
18	0xbf7f4995	-0.9972165
19	0xbf789775	-0.97106105
20	0xbf57c612	-0.84286606
21	0xbf7e0ca4	-0.9923804
22	0x3f829920	1.020298
23	0x3f1269d8	0.57192755
24	0xbf99ef65	-1.2026182
25	0xbf8a34a5	-1.0797316
26	0x3f6ebb54	0.9325459
27	0xbf94b616	-1.1618068
28	0xbf650df4	-0.89474416
29	0xbf7c0403	-0.9844362
30	0xbf2ed3ad	-0.6829174
31	0xbf87fc04	-1.0623784
32	0x3f4fe3f5	0.8120721
33	0x3f8b990a	1.0906079
34	0xbf4a2313	-0.7895977
35	0x3f3455a4	0.7044318
36	0xbf590001	-0.8476563
37	0xbf78f2a0	-0.97245216
38	0x3f807a0c	1.0037246
39	0x3f46f2fa	0.777145
40	0xbf58c26d	-0.8467167
41	0xbf749a87	-0.9554829
42	0xbf62bb0b	-0.88566655
43	0x3f6ea383	0.9321825
44	0x3f45dc1c	0.77288985
45	0xbf5dbad7	-0.8661322
46	0x3f49db6c	0.78850436
47	0xbf6169cf	-0.88052076
48	0xbf858648	-1.0431604
49	0x3f516fb2	0.8181106
50	0xbe96cafd	-0.29451743
51	0xbf6b3622	-0.91879475
52	0xbf48872c	-0.78331256
53	0x3f7452cf	0.95438856
54	0x3f72de3c	0.9487035
55	0xbf897c7f	-1.0741118
56	0xbf69faf0	-0.91398525
57	0xbf6b6b2d	-0.9196041
58	0xbf453b0b	-0.7704322
59	0xbf5a4cbf	-0.85273355
60	0xbf799ba1	-0.97503096
61	0xbf48a5b3	-0.78377837
62	0x3f3ed2a3	0.74540156
63	0xbf500f2a	-0.8127314
64	0xbf6b8d72	-0.92012703
65	0x3f1d5222	0.6145345
66	0xbf5ec11f	-0.8701343
67	0x3f94be27	1.162053
68	0x3f803251	1.0015355
69	0xbf7fda41	-0.99942404
70	0x3f81ec50	1.0150242
71	0x3d6c6d74	0.05772157
72	0xbf2d559b	-0.6770875
73	0xbf8a148c	-1.078752
74	0xbf99cc75	-1.201552
75	0xbf33ac90	-0.70185184
76	0x3f3c1ad9	0.73478466
77	0x3f6acbe4	0.9171736
78	0x3f8a62fe	1.081146
79	0xbf69aa4d	-0.91275483
80	0x3f743977	0.95400184
81	0xbf67b731	-0.905139
82	0xbf8d14e3	-1.1021999
83	0xbf82e045	-1.0224692
84	0xbf8b61d5	-1.0889231
85	0xbf3b658a	-0.7320181
86	0x3f5cb93a	0.86220133
87	0x3f0f2e22	0.5592977
88	0xbf6920e6	-0.91065824
89	0xbf7104ef	-0.94148153
90	0x3f7866dd	0.97031957
91	0xbf817b53	-1.011576
92	0xbf74c9f3	-0.9562065
93	0xbf62f8e8	-0.8866105
94	0xbf16f02e	-0.58960235
95	0xbf81b2aa	-1.0132649
96	0x3f692b66	0.91081846
97	0x3f7b645f	0.9820003
98	0xbf7e8e62	-0.9943601
99	0x3f808921	1.0041848
100	0xbf5f3959	-0.8719688
101	0xbf69b62e	-0.9129361
102	0x3f7a3387	0.97734874
103	0x3f6dcd55	0.92891437
104	0xbf54569d	-0.8294466
105	0xbf7b02a9	-0.98050934
106	0xbf8bc935	-1.0920779
107	0x3f8631f4	1.0483994
108	0x3f45dbb3	0.7728836
109	0xbf89b689	-1.075883
110	0x3eb99f81	0.36254504
111	0xbf837d84	-1.0272679
112	0xbf78edec	-0.9723804
113	0x3f6077f4	0.87683034
114	0xbf2a7053	-0.66577643
115	0xbf1d948d	-0.61554796
116	0xbf5cb3ec	-0.8621204
117	0x3f7ae075	0.97998744
118	0x3f9316dd	1.1491352
119	0xbf80a6a8	-1.005086
120	0xbf649fe0	-0.8930645
121	0xbf6254b0	-0.8841047
122	0xbf606cf3	-0.87666243
123	0xbf79ecaa	-0.97626746
124	0xbf8325c2	-1.0245898
125	0xbf6b2a98	-0.9186187
126	0x3f382cfb	0.71943635
127	0xbf6a1079	-0.91431385

net.2.bias f4 [2]
0	0x3f6e67f2	0.9312736
1	0x3f4dba47	0.8036236
