models/70000.pth (torch_old, 2645 bytes, 4 tensors)

net.0.weight f4 [64, 4]
0	0xbea4c502	-0.32181555
1	0xbe4261c3	-0.18982606
2	0xbf51f46f	-0.820136
3	0xbe6ec2bc	-0.23316473
4	0x3c9bf968	0.019039825
5	0xbe35d073	-0.17755298
6	0x3f4a3ff5	0.7900384
7	0xbd844b1f	-0.06459641
8	0xbde2146c	-0.110390514
9	0xbe822192	-0.25416237
10	0xbeff1fd1	-0.49828961
11	0xbe871cda	-0.263892
12	0x3ea6ac1f	0.32553193
13	0x3ea10950	0.31452417
14	0x3fcc6f9c	1.597156
15	0x3eefc864	0.46832573
16	0x3ee2ecf8	0.44321418
17	0x3e05bda0	0.13060617
18	0x3eba6d80	0.36411667
19	0x3dcaca4c	0.09901866
20	0xbe4f12b6	-0.20221981
21	0xbeac77d6	-0.33685178
22	0xbf8eaa25	-1.1145674
23	0xbee3a37f	-0.44460675
24	0x3f2b9f82	0.67040265
25	0x3e773818	0.24142492
26	0xbf844a47	-1.0335168
27	0xbd2d60ac	-0.04232852
28	0xbdcb22b4	-0.099187285
29	0x3e588c79	0.21147336
30	0xbf413f8a	-0.7548758
31	0x3c3cb8d0	0.011518672
32	0x3f304233	0.6885101
33	0x3e208468	0.15675509
34	0x3f717ab1	0.9432784
35	0x3e263abf	0.16233347
36	0xbf38bea3	-0.7216589
37	0xbe2a4d86	-0.16631135
38	0x3f64e4f7	0.8941187
39	0x3d9a741c	0.07541677
40	0xbe26e087	-0.16296588
41	0xbedfae27	-0.43687555
42	0xbfdeb73f	-1.7399672
43	0xbf1763fa	-0.5913693
44	0x3f3db9a1	0.7411137
45	0x3ea64f33	0.324823
46	0xbeca077b	-0.39458832
47	0x3e084633	0.13308029
48	0x3e0795a8	0.13240683
49	0xbe739db0	-0.23790622
50	0xbf8c3eb3	-1.0956634
51	0xbed690e5	-0.4190742
52	0x3f2c8828	0.6739526
53	0x3c904277	0.017609818
54	0xbed56d01	-0.41684726
55	0xbe085fe5	-0.13317831
56	0x3f10c600	0.56552124
57	0x3e549403	0.20759587
58	0xbe48a21d	-0.19593091
59	0x3d1dfe53	0.03857262
60	0xbeb7b773	-0.35882148
61	0x3e367b40	0.17820454
62	0x3fc0ca1d	1.506168
63	0x3efd5b74	0.49483836
64	0x3cf2d770	0.029643744
65	0x3eede391	0.46462682
66	0x3f73a142	0.95167935
67	0x3f1a29f7	0.60220283
68	0x3ed66e3d	0.4188098
69	0x3d258b9f	0.040416356
70	0x3f9ac29b	1.2090639
71	0x3e42c982	0.19022182
72	0xbe965b96	-0.2936675
73	0xbeb496ca	-0.35271293
74	0xbfee31b4	-1.8608918
75	0xbf09d93c	-0.538471
76	0x3e9ffab2	0.31245953
77	0x3da6ac6b	0.08138355
78	0xbf0afb1f	-0.5428943
79	0xbddb450c	-0.10706529
80	0x3f075823	0.5286886
81	0x3da55505	0.08072857
82	0xbf9c9c9e	-1.2235296
83	0xbe3beefd	-0.18352886
84	0x3ed82d78	0.4222219
85	0x3d54d4c0	0.051960707
86	0x3f9b7785	1.214585
87	0x3e43ef96	0.19134364
88	0xbd59e1af	-0.053193744
89	0x3eecff4e	0.46288532
90	0x3f274ca1	0.653513
91	0x3f04e6e8	0.51914835
92	0xbeecb0e9	-0.46228722
93	0xbeba22ad	-0.3635458
94	0x3d435563	0.047688853
95	0xbe8c24a6	-0.2737171
96	0x3c87397d	0.016506905
97	0x3e235193	0.15949087
98	0x3fdbb26f	1.7163829
99	0x3ee042df	0.4380102
100	0xbf61406a	-0.87988913
101	0xbd60501d	-0.054763902
102	0x3ecb3061	0.39685348
103	0x3e536a2d	0.20645972
104	0x3d93cfb5	0.07217351
105	0x3e0298e2	0.12753633
106	0x3fc90860	1.5705681
107	0x3e948040	0.29004097
108	0xbf891096	-1.0708187
109	0x3d80f6bc	0.06297061
110	0x3f065e00	0.5248718
111	0x3ea6482e	0.32476944
112	0x3d336ae5	0.043803114
113	0x3e0bf6dc	0.13668388
114	0x3f87f4e0	1.0621605
115	0x3e940475	0.2890965
116	0xbec2a4b1	-0.38016275
117	0xbe677669	-0.22603764
118	0xbf88c884	-1.0686193
119	0xbea1f953	-0.31635532
120	0x3f2a6cb2	0.66572106
121	0x3e406e19	0.18791999
122	0x3f1915c2	0.59798825
123	0x3deeaaee	0.11653696
124	0xbf71b500	-0.9441681
125	0xbdeef3b0	-0.116675735
126	0x3f8b4e42	1.0883257
127	0x3e357cfa	0.17723456
128	0x3eae5701	0.34050754
129	0x3e8b63df	0.27224633
130	0xbe4864b5	-0.19569667
131	0x3dc915e3	0.09818628
132	0x3ec543b7	0.38528225
133	0xbe0623b8	-0.13099563
134	0xbee0c2af	-0.43898532
135	0xbea929b4	-0.3303963
136	0xbe520c27	-0.20512448
137	0xbe1cb3b4	-0.15302926
138	0xbfab5ad9	-1.33871
139	0xbe8157cf	-0.25262305
140	0xbf790f83	-0.97289294
141	0xbe852547	-0.26005003
142	0x3f01f871	0.50769717
143	0xbd830d8a	-0.06399067
144	0xbf00c43c	-0.5029943
145	0xbcc58799	-0.02411251
146	0x3e1cf5f4	0.15328199
147	0x3e0342ea	0.12818494
148	0xbe59b664	-0.21260983
149	0xbe8e0e4c	-0.27745283
150	0xbf47eca3	-0.78095454
151	0xbea52fb7	-0.32262966
152	0xbde5769b	-0.11204263
153	0xbd7d41ee	-0.061830454
154	0xbf97dca8	-1.1864214
155	0xbe5f84a4	-0.21827942
156	0x3eb284d5	0.34866968
157	0x3df95987	0.12175279
158	0x3f17cb95	0.59295017
159	0x3e0d9ba7	0.13828908
160	0x3f072c2d	0.5280178
161	0x3ac5cce4	0.0015090969
162	0x3f8b38d8	1.0876722
163	0x3dc9dd44	0.09856656
164	0x3f31e5ec	0.6949146
165	0x3d9d3af2	0.076772586
166	0x3e474246	0.19458875
167	0x3c4e3b65	0.012587403
168	0xbcfefb6b	-0.031125745
169	0xbe205afb	-0.15659706
170	0xbfc3009c	-1.5234561
171	0xbe9d878d	-0.3076748
172	0x3e077ed6	0.13231978
173	0x3ed03bb7	0.4067056
174	0x3fbb5ed4	1.4638314
175	0x3f130ddb	0.57443017
176	0x3d87c7f2	0.066299334
177	0x3e435ef6	0.19079193
178	0x3ec70a80	0.38875198
179	0x3e61a7f1	0.22036721
180	0x3ec9b339	0.3939455
181	0x3cb8a902	0.022541527
182	0xbf6280d3	-0.8847782
183	0xbe264ded	-0.16240664
184	0x3e92af46	0.28649348
185	0x3d1d0b3c	0.038340792
186	0xbf3ee608	-0.7456975
187	0xbdc2e6d5	-0.09516684
188	0x3e06ae68	0.13152468
189	0x3e061af7	0.13096224
190	0x3f83f486	1.0308998
191	0x3eaa174d	0.33220902
192	0xbeea1c38	-0.45724654
193	0xbe3e2869	-0.18570103
194	0xbf23d6b0	-0.6399946
195	0xbe6f92c5	-0.23395832
196	0x3f0bbb83	0.54582995
197	0x3dbe89da	0.09303637
198	0x3f2f946a	0.68585837
199	0x3dd76981	0.1051817
200	0x3eca2c8b	0.3948711
201	0xbe50e7a9	-0.20400871
202	0xbf482fc7	-0.781979
203	0xbe37bd52	-0.17943314
204	0x3f1bb69d	0.6082552
205	0x3e9ad5fb	0.3024138
206	0x3f55ff58	0.8359275
207	0x3e940c3f	0.28915593
208	0xbe20d5b9	-0.15706529
209	0xbea78d93	-0.327252
210	0xbf2fde20	-0.6869831
211	0xbeb793a5	-0.3585483
212	0x3e9bd1a9	0.30433396
213	0x3e5d04e4	0.21583897
214	0x3e523740	0.20528889
215	0x3e145697	0.14486156
216	0x3dee6fd1	0.11642421
217	0x3ea49d10	0.3215108
218	0x3f7d135e	0.98857677
219	0x3eb7786e	0.35834068
220	0xbf4ebf27	-0.80760425
221	0xbe5babad	-0.21452208
222	0x3f83339c	1.0250125
223	0x3e02f147	0.12787353
224	0x3f738b5b	0.95134515
225	0x3da07251	0.07834304
226	0xbf5321af	-0.8247327
227	0xbe1656ea	-0.14681593
228	0xbf1b7bbf	-0.60735697
229	0xbe09e360	-0.13465643
230	0x3ef98226	0.48732108
231	0x3cc281ef	0.023743598
232	0x3e3ac469	0.18238987
233	0x3e656332	0.22401121
234	0x3db3ba5b	0.08775779
235	0x3e642b6d	0.2228219
236	0x3f1d9d12	0.61567795
237	0x3de489e3	0.11159112
238	0xbdd82272	-0.10553445
239	0x3c91c234	0.017792799
240	0xbf353012	-0.70776474
241	0xbe6f3718	-0.2336086
242	0x3f370dfc	0.71505713
243	0x3dda6f48	0.106657565
244	0x3e267158	0.16254175
245	0x3e113e9e	0.14184043
246	0xbfc2e264	-1.5225339
247	0xbdbb6c1f	-0.09151482
248	0xbed52a36	-0.41633767
249	0x3d1c7795	0.03819998
250	0xbf7835c3	-0.96957034
251	0x3b75fe10	0.0037535466
252	0x3ee02fe9	0.43786553
253	0x3e281b8c	0.16416758
254	0x3e92e807	0.28692648
255	0x3e43f3d0	0.19135976

net.0.bias f4 [64]
0	0xbf9de161	-1.2334405
1	0x3f433280	0.7624893
2	0xbf6061bf	-0.8764915
3	0x3fc13bfb	1.509643
4	0x3f910849	1.1330653
5	0xbfb6d321	-1.4283181
6	0x3fb11699	1.3835021
7	0x3ec87710	0.39153337
8	0xbf8082fa	-1.0039971
9	0xbfabe8ef	-1.3430461
10	0xbfc3c826	-1.5295455
11	0xbf7708d2	-0.96497834
12	0x3fc2c61b	1.5216707
13	0x3f8fd806	1.12378
14	0x3fa5f5a4	1.2965589
15	0xbfe005dd	-1.7501789
16	0x3fc165a3	1.5109142
17	0xbfb10e82	-1.3832552
18	0xbfc9f146	-1.5776756
19	0xbfac32db	-1.345302
20	0xbfb4f65a	-1.413768
21	0xbfb06f7b	-1.3784021
22	0x3fac589a	1.3464539
23	0x3f4a482e	0.7901639
24	0xbfdcf01e	-1.7260778
25	0xbfbbc89b	-1.4670595
26	0x3fb0fe92	1.3827689
27	0xbfc3c4eb	-1.529447
28	0xbfbd3caa	-1.4784138
29	0xbfad18b9	-1.352317
30	0xbf5eb801	-0.8699952
31	0xbfc3dcfb	-1.5301813
32	0x3f9a7c60	1.2069206
33	0x3fb51cfa	1.4149468
34	0xbf9d83a7	-1.2305802
35	0x3f821cb7	1.0165013
36	0xbf8c447a	-1.0958397
37	0xbf96adf0	-1.1771832
38	0x3fbbaf4b	1.466287
39	0x3f8461e4	1.0342374
40	0xbf9da05a	-1.231456
41	0xbf9f1617	-1.2428616
42	0xbfac12df	-1.3443259
43	0x3fc1bc4e	1.5135591
44	0x3f9433e1	1.1578332
45	0xbf99dc58	-1.2020369
46	0x3f57341f	0.84063905
47	0xbfccd644	-1.6002889
48	0xbfa6bb23	-1.302586
49	0x3fa1a698	1.2628965
50	0xbf1f2446	-0.62164724
51	0xbf87e717	-1.0617398
52	0xbf92cc6f	-1.1468638
53	0x3f8ddca3	1.1082958
54	0x3f9289a5	1.1448256
55	0xbfc26c46	-1.5189292
56	0xbfa5ec0c	-1.2962661
57	0xbf969567	-1.1764344
58	0xbf94e807	-1.1633309
59	0xbf9f4772	-1.2443678
60	0xbfbe12d8	-1.4849501
61	0xbfaea4f8	-1.3644094
62	0x3f88e71e	1.0695531
63	0xbf98f815	-1.1950709

net.2.weight f4 [2, 64]
0	0xbf80c3f3	-1.0059799
1	0x3f0209e3	0.50796336
2	0xbf20f0f6	-0.6286768
3	0x3f933088	1.1499186
4	0x3f832b91	1.024767
5	0xbf82583f	-1.018318
6	0x3f96d6a2	1.1784251
7	0x3edd94e2	0.4327765
8	0xbf7a694c	-0.9781692
9	0xbf94da28	-1.1629076
10	0xbf8195a0	-1.0123787
11	0xbf39529f	-0.72391695
12	0x3f87de43	1.0614704
13	0x3f8c6d9e	1.0970953
14	0x3f88c11b	1.0683931
15	0xbf91b318	-1.138278
16	0x3f7632e9	0.9617143
17	0xbf83297a	-1.0247033
18	0xbf851f94	-1.0400262
19	0xbf809771	-1.0046216
20	0xbf60ae1d	-0.87765676
21	0xbf832f5c	-1.0248828
22	0x3f877b0e	1.0584428
23	0x3f1a759a	0.60335696
24	0xbf9e062a	-1.2345631
25	0xbf8f2157	-1.118205
26	0x3f7819d3	0.96914405
27	0xbf999a42	-1.2000201
28	0xbf6d33a4	-0.9265692
29	0xbf833fdf	-1.0253867
30	0xbf36c810	-0.7139902
31	0xbf8cdef0	-1.1005535
32	0x3f597c33	0.8495514
33	0x3f8fbb0a	1.1228955
34	0xbf5425ac	-0.8286998
35	0x3f3cf126	0.73805463
36	0xbf622a02	-0.8834535
37	0xbf8194e0	-1.0123558
38	0x3f848cb7	1.0355443
39	0x3f50f05b	0.81616753
40	0xbf611919	-0.8792892
41	0xbf7d44c1	-0.98933035
42	0xbf6c1dfe	-0.92233264
43	0x3f793bf2	0.97357094
44	0x3f4eeaca	0.8082701
45	0xbf66790a	-0.9002844
46	0x3f51e693	0.81992453
47	0xbf69a4e4	-0.9126723
48	0xbf8aa9b7	-1.0833043
49	0x3f5ba313	0.85795707
50	0xbea8f463	-0.32998952
51	0xbf733773	-0.95006484
52	0xbf52bdb6	-0.82320726
53	0x3f7e13c9	0.9924894
54	0x3f7d2d96	0.98897684
55	0xbf8e62fc	-1.1123958
56	0xbf72f0e7	-0.9489884
57	0xbf750ad2	-0.95719635
58	0xbf4d83bd	-0.8027914
59	0xbf63095f	-0.88686174
60	0xbf81b570	-1.0133495
61	0xbf5155b1	-0.8177138
62	0x3f46fc03	0.7772829
63	0xbf587fb9	-0.8456989
64	0xbf748463	-0.95514506
65	0x3f2548a8	0.6456399
66	0xbf6700b5	-0.90235454
67	0x3f998651	1.1994115
68	0x3f84b0fd	1.0366513
69	0xbf847cec	-1.0350623
70	0x3f86d1cf	1.0532779
71	0x3dc3473b	0.095350705
72	0xbf3719d1	-0.7152377
73	0xbf8ef30a	-1.116792
74	0xbf9e84ba	-1.2384255
75	0xbf3d17c2	-0.73864377
76	0x3f44eb8f	0.76921934
77	0x3f73fcf0	0.95307827
78	0x3f8f2720	1.1183815
79	0xbf725e2f	-0.9467496
80	0x3f7d2ae2	0.9889356
81	0xbf70a3d6	-0.93999994
82	0xbf91e745	-1.1398703
83	0xbf872009	-1.0556651
84	0xbf8f83cc	-1.1212096
85	0xbf44537e	-0.766899
86	0x3f657728	0.89634943
87	0x3f1913e8	0.59796
88	0xbf71fd3a	-0.9452702
89	0xbf7b0479	-0.980537
90	0x3f806e70	1.0033703
91	0xbf8692eb	-1.0513586
92	0xbf7da347	-0.99077266
93	0xbf6c4b9a	-0.9230286
94	0xbf2116c1	-0.62925345
95	0xbf86cd1b	-1.0531343
96	0x3f72451b	0.94636697
97	0x3f8203d5	1.015742
98	0xbf83985b	-1.028087
99	0x3f8564b9	1.0421363
100	0xbf68177b	-0.9066083
101	0xbf729466	-0.9475769
102	0x3f8189b4	1.0120149
103	0x3f767487	0.96271557
104	0xbf5d4ae8	-0.8644242
105	0xbf81b004	-1.0131841
106	0xbf8fff2f	-1.1249751
107	0x3f8ac853	1.0842384
108	0x3f4e54f5	0.80598384
109	0xbf8de46f	-1.1085337
110	0x3ecb0063	0.39648733
111	0xbf87e7ac	-1.0617576
112	0xbf8120c0	-1.008812
113	0x3f69c207	0.9131169
114	0xbf32489f	-0.6964206
115	0xbf271dca	-0.6527983
116	0xbf6583c8	-0.8965421
117	0x3f81de88	1.0146036
118	0x3f977378	1.1832113
119	0xbf85b448	-1.0445642
120	0xbf6c5acf	-0.9232606
121	0xbf6bab6e	-0.92058456
122	0xbf693457	-0.9109549
123	0xbf812188	-1.0088358
124	0xbf881c77	-1.0633687
125	0xbf7379fd	-0.95108014
126	0x3f414da1	0.7550908
127	0xbf72cb2a	-0.94841254

net.2.bias f4 [2]
0	0x3f76d88f	0.9642419
1	0x3f565d70	0.83736324
