models/75000.pth (torch_old, 2645 bytes, 4 tensors)

net.0.weight f4 [64, 4]
-0.3484439 -0.21468028 -0.8493813 -0.23747791 0.02179001 -0.1831342 0.7672066 -0.07863302
-0.1271347 -0.2660614 -0.5081323 -0.25633088 0.34786746 0.33628666 1.6227212 0.46880826
0.4669664 0.15158483 0.39018106 0.10366247 -0.23013876 -0.36373416 -1.1450696 -0.45115992
0.69460833 0.26280135 -1.003926 -0.020761555 -0.08350276 0.22402959 -0.7213029 0.007266715
0.69899195 0.17994694 0.99265367 0.17170718 -0.7449957 -0.18653192 0.8657925 0.05514055
-0.18628854 -0.4592691 -1.765203 -0.5926088 0.7716662 0.36961198 -0.30643797 0.17389728
0.12379225 -0.2573567 -1.1227778 -0.4082929 0.6985228 0.039027974 -0.3876744 -0.120850585
0.5884868 0.2274752 -0.16929965 0.05365419 -0.36059716 0.18826824 1.5122608 0.48489454
0.061419625 0.4956978 0.9856662 0.61150926 0.42324668 0.052636348 1.2383596 0.16776657
-0.3152449 -0.37384066 -1.8854705 -0.5382815 0.31783748 0.09369485 -0.51067525 -0.10280778
0.524986 0.08294644 -1.1991116 -0.18754785 0.43011126 0.06796117 1.2441865 0.16077413
-0.021209838 0.4941583 0.68796724 0.5243014 -0.48354053 -0.3987828 -0.026275855 -0.3038744
0.028248202 0.1809681 1.7497245 0.41502857 -0.9034358 -0.07538351 0.36749986 0.18188404
0.10606942 0.15901077 1.6034878 0.29793537 -1.0935158 0.043287206 0.4959596 0.29788652
0.050973736 0.1534405 1.0989997 0.28476426 -0.4045649 -0.24966653 -1.0969274 -0.31780106
0.68677384 0.22230104 0.6689967 0.14882231 -0.9658951 -0.13535601 1.0607824 0.15183203
0.36574587 0.29379174 -0.16898644 0.11315784 0.4052604 -0.118376724 -0.4211135 -0.31619185
-0.2330763 -0.17788652 -1.365445 -0.25912365 -1.0296463 -0.33438045 0.37591928 -0.12537532
-0.5281984 -0.044813473 0.12677349 0.11275783 -0.23848645 -0.30184335 -0.8091508 -0.3217265
-0.12081771 -0.07970231 -1.2221917 -0.21339378 0.37044498 0.13991407 0.6139918 0.13838066
0.52808857 0.009638973 1.1173162 0.08646991 0.68824846 0.07822952 0.22192208 0.0076632123
-0.06302793 -0.18528874 -1.5520647 -0.31390125 0.159928 0.43353292 1.4936044 0.57992744
0.09351813 0.2147302 0.41421226 0.22082336 0.39467728 0.03003384 -0.85325927 -0.15276055
0.3143624 0.06333819 -0.7107973 -0.09653954 0.13585545 0.14385654 1.0645692 0.3216772
-0.4811829 -0.20837124 -0.6678197 -0.23666729 0.56895024 0.1137155 0.7118775 0.11192248
0.39303347 -0.1973829 -0.7423024 -0.16351005 0.6179831 0.32540703 0.88207453 0.28827882
-0.18144354 -0.3494839 -0.71199894 -0.35672438 0.32921013 0.2376523 0.23150769 0.15043288
0.14065655 0.3430496 1.0120248 0.35768557 -0.83058614 -0.23438667 0.9964812 0.10105587
0.9441433 0.07967016 -0.79424876 -0.14105424 -0.63043207 -0.15464239 0.46017647 0.012155792
0.18614358 0.23650233 0.12329335 0.22020024 0.6087686 0.11220803 -0.0788956 0.01348459
-0.73161006 -0.2538077 0.6867201 0.07811733 0.16008346 0.14629272 -1.4987587 -0.077116646
-0.42227158 0.024085537 -1.005278 0.001654354 0.4359339 0.17050639 0.3179336 0.18369225
00000000: 3d67 b2be 26d5 5bbe 0e71 59bf 692d 73be
00000010: f780 b23c 8887 3bbe a767 443f 590a a1bd
00000020: 992f 02be 3339 88be f514 02bf cd3d 83be
00000030: af1b b23e c42d ac3e 54b5 cf3f a307 f03e
00000040: 3816 ef3e 0e39 1b3e d0c5 c73e fd4c d43d
00000050: 7fa9 6bbe 5d3b babe a491 92bf 6ffe e6be
00000060: dad1 313f e68d 863e a680 80bf 2314 aabc
00000070: 7f03 abbd 0368 653e 4fa7 38bf a01d ee3b
00000080: 23f1 323f 0344 383e 8d1e 7e3f 02d4 2f3e
00000090: 0ab8 3ebf 3902 3fbe 94a4 5d3f 0fdb 613d
000000a0: 6cc2 3ebe 5225 ebbe 2cf2 e1bf 36b5 17bf
000000b0: eb8b 453f c83d bd3e 70e5 9cbe 2112 323e
000000c0: cb86 fd3d 42c4 83be 2fb7 8fbf c40b d1be
000000d0: 64d2 323f ccdb 1f3d 427d c6be 8380 f7bd
000000e0: 12a7 163f 42ef 683e e35c 2dbe 7fc4 5b3d
000000f0: 31a0 b8be 64c9 403e c391 c13f 1944 f83e
00000100: 2593 7b3d 1acc fd3e 9f54 7c3f df8b 1c3f
00000110: cab3 d83e 3699 573d 9182 9e3f 00cb 2b3e
00000120: c867 a1be 0b68 bfbe 1957 f1bf d1cc 09bf
00000130: 98bb a23e 16e3 bf3d 9dbb 02bf e38c d2bd
00000140: 7c65 063f d3df a93d 7d7c 99bf 8b0c 40be
00000150: 8b37 dc3e 3a2f 8b3d 8141 9f3f f9a1 243e
00000160: 41c0 adbc 5102 fd3e 9f1e 303f 9e38 063f
00000170: a092 f7be 422d ccbe 7640 d7bc 6d95 9bbe
00000180: c668 e73c b44f 393e f9f6 df3f a07e d43e
00000190: 9247 67bf ab62 9abd f128 bc3e cf3f 3a3e
000001a0: ed3a d93d b8d3 223e 173f cd3f fc8a 983e
000001b0: 53f8 8bbf ed4d 313d 6bee fd3e 9584 983e
000001c0: d6c9 503d 821f 1d3e 06ac 8c3f 9fcc 913e
000001d0: 2123 cfbe 95a8 7fbe 1e68 8cbf d2b6 a2be
000001e0: 69d0 2f3f e2a2 633e 5e43 2b3f e064 183e
000001f0: e744 77bf c49a 0abe b8c7 873f db79 1b3e
00000200: 0b43 bb3e df6b 963e c80a 2dbe 4cbf e73d
00000210: 4b7e cf3e 7f6f f2bd 309c d7be e6e3 a1be
00000220: 8eab 6ebe e227 36be e7c6 aebf dbab 84be
00000230: 73cb 83bf ea33 abbe 7e78 c03e 6362 00be
00000240: 0338 07bf 558e 37bd e9d0 013e 94ed e63d
00000250: cb35 74be 368b 9abe 8224 4fbf 56b9 a4be
00000260: 476f f7bd f73a a3bd c770 9cbf e683 5abe
00000270: f7aa bd3e a245 0f3e 912e 1d3f a9b3 0d3e
00000280: d030 073f c8ec 1d3c 3804 8f3f 2317 b13d
00000290: 0d31 303f cc36 a03d 8b3f 633e af1b fb3b
000002a0: ca14 81bd 55bc 3dbe 0eaa c6bf aab7 a0be
000002b0: 2ac4 233e 07f8 dd3e 6e2e bf3f 2076 143f
000002c0: 6f86 bf3d 3ce2 5b3e a113 d43e 851f 623e
000002d0: 2413 ca3e 8709 f63c 336f 5abf 436d 1cbe
000002e0: 1cf4 a03e 74b7 813d d0f6 35bf 86b6 c5bd
000002f0: b11d 0b3e 214f 133e ce43 883f e0b2 a43e
00000300: 9b5d f6be 455f 55be 3bf6 2abf e958 72be
00000310: b9a6 113f ace3 e83d 9b3d 363f 9d37 e53d
00000320: af3b c93e be1e 4abe 8807 3ebf 2e6f 27be
00000330: 2434 1e3f c09b a63e a3cf 613f 4899 933e
00000340: 56cc 39be 8eef b2be 9045 36bf 94a4 b6be
00000350: 3b8e a83e 205b 733e 5a10 6d3e 140b 1a3e
00000360: 4508 103e 32a4 af3e 078a 813f 9022 b73e
00000370: 4ba1 54bf 0f03 70be 6419 7f3f 61f6 ce3d
00000380: 60b3 713f 1c2a a33d e353 4bbf 8670 10be
00000390: ff63 21bf 935a 1ebe 409c eb3e 1629 473c
000003a0: 6c9c 3e3e ab2d 723e 3981 fc3d 2c7c 613e
000003b0: 42d8 1b3f 53cd e53d 0494 a1bd 78ee 5c3c
000003c0: cc4a 3bbf 15f3 81be e3cc 2f3f fbfb 9f3d
000003d0: ebec 233e c2cd 153e 53d7 bfbf 55ef 9dbd
000003e0: fb33 d8be 084f c53c f3ac 80bf e9d6 d83a
000003f0: ba32 df3e 3a99 2e3e 31c8 a23e d219 3c3e

net.0.bias f4 [64]
-1.2638171 0.7991773 -0.91568667 1.5365773 1.1656643 -1.4556526 1.407699 0.42343408
-1.0315291 -1.3692485 -1.5586545 -0.98445755 1.5557853 1.1532476 1.3258538 -1.7854351
1.5367262 -1.412241 -1.603894 -1.3806486 -1.449662 -1.407437 1.3754934 0.81744117
-1.7570057 -1.4874697 1.4137021 -1.5474712 -1.5108807 -1.38015 -0.89669234 -1.5508078
1.2385147 1.4481337 -1.2639265 1.0241348 -1.1271714 -1.2095952 1.4991391 1.0700685
-1.2620407 -1.2728367 -1.3780115 1.5404924 1.192057 -1.2394067 0.8726474 -1.6308379
-1.3315922 1.2935656 -0.6599381 -1.0873253 -1.1817243 1.1414608 1.18081 -1.5395349
-1.3233829 -1.2069156 -1.1958045 -1.2754352 -1.5079954 -1.403245 1.1029762 -1.2253604
00000000: c2c4 a1bf e296 4c3f 716a 6abf 91ae c43f
00000010: 7d34 953f d352 babf 7b2f b43f 5acc d83e
00000020: 2509 84bf 8943 afbf fe81 c7bf 6905 7cbf
00000030: f923 c73f 9e9d 933f 94b5 a93f 2389 e4bf
00000040: 72b3 c43f 50c4 b4bf 664c cdbf 18b9 b0bf
00000050: 868e b9bf e526 b4bf 2b10 b03f d343 513f
00000060: 90e5 e0bf 6865 bebf 31f4 b43f 8913 c6bf
00000070: 8a64 c1bf c1a8 b0bf a18d 65bf df80 c6bf
00000080: a687 9e3f 725c b93f 58c8 a1bf d916 833f
00000090: 2747 90bf 04d4 9abf cae3 bf3f 01f8 883f
000000a0: 8d8a a1bf 50ec a2bf ae62 b0bf db2e c53f
000000b0: 5395 983f e1a4 9ebf d265 5f3f 4cbf d0bf
000000c0: 9d71 aabf 8f93 a53f b4f1 28bf 7a2d 8bbf
000000d0: be42 97bf 631b 923f c824 973f 7b0f c5bf
000000e0: 9c64 a9bf 367c 9abf 1f10 99bf 7641 a3bf
000000f0: fe05 c1bf 889d b3bf 532e 8d3f 9cd8 9cbf

net.2.weight f4 [2, 64]
-1.0425959 0.5370999 -0.6645227 1.1874478 1.0621176 -1.0545411 1.2149601 0.45571542
-1.0096055 -1.1998398 -1.0496727 -0.75592244 1.0898291 1.1344378 1.1057543 -1.166936
0.9966753 -1.0561999 -1.077553 -1.0352035 -0.91064113 -1.0565997 1.092394 0.6330025
-1.263304 -1.1553426 1.0019019 -1.2370491 -0.9552257 -1.0628301 -0.7438472 -1.137299
0.8852841 1.1525204 -0.86427146 0.7699494 -0.9187775 -1.0489471 1.0642371 0.8532975
-0.9116604 -1.0240277 -0.9550395 1.0099543 0.84026355 -0.9312501 0.85088193 -0.9417561
-1.1207899 0.8958638 -0.35870656 -0.9822854 -0.85968477 1.0286337 1.0254709 -1.1489102
-0.9851744 -0.99462426 -0.83297765 -0.92133784 -1.0498275 -0.84744704 0.8077497 -0.8782901
-0.98919183 0.67912614 -0.9336384 1.23509 1.070379 -1.069925 1.0892942 0.13209757
-0.75213224 -1.1526082 -1.2738872 -0.7751771 0.80580634 0.9873929 1.1535428 -0.9827317
1.023737 -0.9751056 -1.1758523 -1.0896591 -1.1532831 -0.8018913 0.9303837 0.63712776
-0.9817276 -1.0171947 1.0372584 -1.0886347 -1.027174 -0.9579026 -0.66817874 -1.0903314
0.980736 1.0511287 -1.0616663 1.0807813 -0.9407256 -0.9810931 1.048367 0.99549824
-0.8988349 -1.0443637 -1.1586839 1.1193514 0.8396458 -1.1415828 0.4310527 -1.097886
-1.0436003 0.94775367 -0.72658086 -0.68942916 -0.9297862 1.0481411 1.2162533 -1.0815101
-0.9509435 -0.9551077 -0.9463924 -1.0402497 -1.0999272 -0.9850666 0.79059315 -0.9822647
00000000: c873 85bf 617f 093f 291e 2abf 4afe 973f
00000010: 78f3 873f 34fb 86bf d083 9b3f 8853 e93e
00000020: c13a 81bf 5a94 99bf ad5b 86bf 2284 41bf
00000030: 857f 8b3f 4235 913f 5b89 8d3f 295e 95bf
00000040: 1d26 7f3f 8f31 87bf 42ed 89bf 8c81 84bf
00000050: c71f 69bf a93e 87bf 91d3 8b3f 740c 223f
00000060: f2b3 a1bf 44e2 93bf 523e 803f a057 9ebf
00000070: ac89 74bf d10a 88bf c56c 3ebf 0393 91bf
00000080: fba1 623f ca85 933f e540 5dbf 671b 453f
00000090: 0135 6bbf e643 86bf ec38 883f b471 5a3f
000000a0: 9362 69bf 5713 83bf 787d 74bf 2f46 813f
000000b0: 831b 573f 6866 6ebf 66d3 593f ee16 71bf
000000c0: 0b76 8fbf 5457 653f 63a8 b7be 0e77 7bbf
000000d0: 4d14 5cbf 45aa 833f a142 833f 7d0f 93bf
000000e0: 6434 7cbf b29f 7ebf 063e 55bf ccdc 6bbf
000000f0: bf60 86bf 4af2 58bf afc8 4e3f 9fd7 60bf
00000100: ad3b 7dbf 36db 2d3f ed02 6fbf 6e17 9e3f
00000110: 2e02 893f 4df3 88bf fe6d 8b3f 9644 073e
00000120: bd8b 40bf aa88 93bf bc0e a3bf 0272 46bf
00000130: 5349 4e3f c8c5 7c3f 4aa7 933f 4e94 7bbf
00000140: d009 833f 85a0 79bf 5482 96bf f379 8bbf
00000150: c89e 93bf c048 4dbf a02d 6e3f ce1a 233f
00000160: 8052 7bbf 7033 82bf e2c4 843f 6258 8bbf
00000170: 707a 83bf 1b39 75bf c30d 2bbf fb8f 8bbf
00000180: 8411 7b3f 638b 863f aee4 87bf 0b57 8a3f
00000190: 65d3 70bf eb28 7bbf e430 863f f9d8 7e3f
000001a0: 0b1a 66bf b6ad 85bf c14f 94bf e846 8f3f
000001b0: 07f3 563f 631f 92bf f1b2 dc3e 8787 8cbf
000001c0: b294 85bf fc9f 723f 3401 3abf 6e7e 30bf
000001d0: 7806 6ebf 7d29 863f 30ae 9b3f ec6e 8abf
000001e0: 0971 73bf f081 74bf c646 72bf e726 85bf
000001f0: 6aca 8cbf 532d 7cbf 5064 4a3f b375 7bbf

net.2.bias f4 [2]
0.9933807 0.8727976
00000000: 334e 7e3f aa6f 5f3f
